app/src/main/assets/clasificador_gestos.tflite (tflite, 1812 bytes, 3 tensors)

sequential/dense/BiasAdd/ReadVariableOp f4 [10]
00000000: 0000 0000 16a7 2a3f 0000 0000 0000 0000
00000010: f7fb f2bc 0116 133f 2666 f3bc 1d5f 073f
00000020: 0138 0d3f ea36 d9bc
0.0 0.666612 0.0 0.0 -0.029661162 0.5745545 -0.029711794 0.52879506
0.5516358 -0.026515443

sequential/dense/MatMul f4 [10, 2]
00000000: d049 31bf 0ba6 cdbe 65fb 5ec0 cec5 69bf
00000010: 7f7d c9be b705 323f b0a8 eebd 4ce5 1e3e
00000020: 381d 7440 fe4c 503f a314 42c0 2fd3 38bf
00000030: 3a73 7240 e875 053f edff 3dc0 5ffe 91bf
00000040: b417 44c0 ba9d 15bf 6390 5340 df81 c43e
-0.69253254 -0.40165743 -3.484094 -0.9131745 -0.39353558 0.6953997 -0.11653268 0.15517157
3.8142834 0.8136748 -3.0325096 -0.7219724 3.7882829 0.52133036 -2.9687455 -1.1405753
-3.0639467 -0.58443797 3.3056877 0.38380334

sequential/dense_1/MatMul f4 [1, 10]
00000000: 2079 bbbe fedf 6cc0 ab31 f4be c019 b63d
00000010: 93cf 7040 e4e0 84c0 91d4 7440 92cb 44c0
00000020: 32a8 51c0 8570 8d40
-0.3661585 -3.7011714 -0.47694144 0.0889163 3.7626693 -4.1524525 3.825474 -3.074925
-3.2758908 4.4199853
