app/src/main/assets/Modelo.tflite (tflite, 942416 bytes, 10 tensors)

sequential/lstm/Read_2/ReadVariableOp f4 [512]
0	0x3c869d8f	0.016432552
1	0x3c12fa08	0.008970745
2	0x3c87d5de	0.016581472
3	0x3cbf635e	0.023362812
4	0x3bfa0f78	0.0076312385
5	0x3c6c5295	0.014423986
6	0x3ba70b7f	0.005097806
7	0x3c844cfd	0.016149992
8	0x3baab4fb	0.005209563
9	0x3c068547	0.008210487
10	0x3c135e15	0.008994599
11	0x3c31d41b	0.010853793
12	0x3939b0a1	0.00017708774
13	0x3c296702	0.0103395
14	0x3b7b084b	0.0038304504
15	0x3bec01e0	0.007202372
16	0x3b61cd4a	0.0034454637
17	0x3c20ebcf	0.009821846
18	0x3bd9672a	0.0066346126
19	0x3c581865	0.01318941
20	0x3c799284	0.015232686
21	0x3c0e784c	0.008695673
22	0x3bb26962	0.0054446915
23	0x3c173da9	0.0092310095
24	0x3c6cf991	0.014463798
25	0x3b72ee7c	0.0037068417
26	0x3bbc10e3	0.0057393177
27	0x3c094b77	0.008379809
28	0x3bcc5ed6	0.0062368913
29	0x3ba52589	0.005039875
30	0x3bc84fa5	0.00611301
31	0x3c96493d	0.01834547
32	0x3c1a0691	0.00940098
33	0x3ca0ce97	0.01962976
34	0x3b9e8ea2	0.0048387805
35	0x3bb584af	0.0055394988
36	0x3c83c6f6	0.016086083
37	0x3c1afec6	0.009460157
38	0x3c3bdc3d	0.011466083
39	0x3c15ccb0	0.00914304
40	0x3c932f0e	0.017966773
41	0x3ca05fdf	0.019576965
42	0x3ba733b8	0.005102601
43	0x3b6138af	0.0034366061
44	0x3c117ce6	0.008879876
45	0x3bf86091	0.007579871
46	0x3c885008	0.016639724
47	0x3cb2fe74	0.021849848
48	0x3c36c5ba	0.01115554
49	0x3c22d564	0.009938572
50	0x3c915a9d	0.017743403
51	0x3c714e9e	0.014728216
52	0x3c7ede01	0.01555586
53	0x3c055d04	0.008139852
54	0x3c250ed4	0.010074336
55	0x3c9c7c4a	0.019102234
56	0x3bc03722	0.0058659473
57	0x3c5c4724	0.013444696
58	0x3c0ad456	0.008473476
59	0x3bf587f9	0.007493016
60	0x3bc87bef	0.0061182897
61	0x3c335b29	0.010947027
62	0x3c4acda2	0.012378128
63	0x3c77fe2c	0.015136283
64	0x3bb8ac99	0.0056358096
65	0x3c8f64b8	0.017504081
66	0x3c9bb8ac	0.019008957
67	0x3cb1bc4c	0.021696232
68	0x3bc1c075	0.0059128352
69	0x3be4a0a8	0.0069771595
70	0x3cbbe644	0.022936948
71	0x3c327ef7	0.010894529
72	0x3c7575da	0.014981711
73	0x3be1b3c4	0.006887885
74	0x3c51ea3a	0.012812192
75	0x3c5014f5	0.012700309
76	0x3c22cdf5	0.009936799
77	0x3bc37d8e	0.005965895
78	0x3c8fc8a1	0.017551722
79	0x3c24e500	0.0100643635
80	0x3b8af78b	0.004240935
81	0x3c73fbcd	0.014891577
82	0x3ca6482e	0.02029809
83	0x3b662dbe	0.003512248
84	0x3bdf2d50	0.0068108216
85	0x3bccb33b	0.006246952
86	0x3c2754f1	0.010213123
87	0x3c83cc22	0.016088549
88	0x3c005aa9	0.007834115
89	0x3991569d	0.00027721087
90	0x3b6544bc	0.0034983596
91	0x3c346908	0.0110113695
92	0x3c9473d2	0.018121634
93	0x3bc06513	0.005871424
94	0x3c14fde3	0.009093734
95	0x3c21c680	0.009873986
96	0x3baf00e3	0.005340682
97	0x3c8088ac	0.01569017
98	0x3c1c75f9	0.009549611
99	0x3c8e3b56	0.017362278
100	0x3c2c0bfe	0.010500906
101	0x3c256121	0.010093958
102	0x3bb077fe	0.005385398
103	0x3c495a91	0.012289659
104	0x3caa654b	0.020800253
105	0x3c1b395b	0.009474124
106	0x3c83cfdb	0.016090324
107	0x3bdd3144	0.0067502577
108	0x3c368f82	0.011142613
109	0x3c05da0f	0.008169665
110	0x3b99d867	0.0046949866
111	0x3c6288a9	0.013826528
112	0x3c2dad3a	0.010600382
113	0x3bea2ac8	0.007146213
114	0x3c174068	0.009231664
115	0x3c6627bc	0.014047559
116	0x3c771c13	0.015082377
117	0x3c0d8177	0.008636824
118	0x3c193ec3	0.0093533425
119	0x3c13a3a0	0.009011179
120	0x3c00d8b3	0.007864165
121	0x3c332c35	0.010935833
122	0x3c8843d7	0.016633911
123	0x3bab70d3	0.0052319556
124	0x3c8ac57c	0.016939871
125	0x3be35c39	0.006938484
126	0x3b4cb975	0.003123847
127	0x3c3aa1ff	0.011391162
128	0x3f820aed	1.0159584
129	0x3f8104e8	1.0079622
130	0x3f815f8d	1.0107285
131	0x3f82e19d	1.0225102
132	0x3f80f6a3	1.0075268
133	0x3f81b8f6	1.0134571
134	0x3f808e5a	1.0043442
135	0x3f81eeae	1.0150964
136	0x3f80a8d2	1.005152
137	0x3f8119d9	1.0086013
138	0x3f813305	1.0093695
139	0x3f813124	1.0093122
140	0x3f8031e6	1.0015228
141	0x3f810717	1.0080289
142	0x3f7fd3a7	0.9993233
143	0x3f8097c2	1.0046313
144	0x3f7ff040	0.9997597
145	0x3f810bf4	1.0081773
146	0x3f8083aa	1.0040181
147	0x3f817c28	1.0116014
148	0x3f81d8e1	1.0144311
149	0x3f80e8c0	1.007103
150	0x3f80c438	1.0059881
151	0x3f80e9fd	1.0071408
152	0x3f819e98	1.0126524
153	0x3f807167	1.0034608
154	0x3f80c3e7	1.0059785
155	0x3f811d4a	1.0087063
156	0x3f80e63a	1.007026
157	0x3f80b001	1.0053712
158	0x3f7febad	0.9996899
159	0x3f827d12	1.0194418
160	0x3f808e21	1.0043374
161	0x3f821023	1.0161175
162	0x3f80dffb	1.0068353
163	0x3f80e5a2	1.0070078
164	0x3f81a741	1.0129167
165	0x3f80ffe3	1.007809
166	0x3f814f2b	1.0102285
167	0x3f813ec4	1.009728
168	0x3f823c89	1.0174724
169	0x3f824ddb	1.018001
170	0x3f808ed6	1.004359
171	0x3f806d9e	1.0033453
172	0x3f8126aa	1.0089924
173	0x3f811272	1.0083754
174	0x3f8202a8	1.0157061
175	0x3f827e85	1.0194861
176	0x3f815e9a	1.0106995
177	0x3f810cc5	1.0082022
178	0x3f82160c	1.0162978
179	0x3f81b0a8	1.0132036
180	0x3f816436	1.0108707
181	0x3f80d677	1.006545
182	0x3f80bacd	1.0057007
183	0x3f8244bb	1.0177225
184	0x3f80b8ee	1.0056436
185	0x3f8134a8	1.0094194
186	0x3f80f095	1.007342
187	0x3f8086a4	1.0041089
188	0x3f80dba7	1.0067033
189	0x3f812706	1.0090034
190	0x3f819bf0	1.0125713
191	0x3f8192fc	1.0122981
192	0x3f80a52c	1.0050406
193	0x3f8252cb	1.0181516
194	0x3f822057	1.0166119
195	0x3f828d4a	1.0199368
196	0x3f8114da	1.0084488
197	0x3f80d99b	1.0066408
198	0x3f82bc36	1.0213687
199	0x3f81356a	1.0094426
200	0x3f81be6e	1.013624
201	0x3f81079b	1.0080446
202	0x3f817765	1.0114561
203	0x3f8172c8	1.0113153
204	0x3f815856	1.0105083
205	0x3f80a517	1.0050381
206	0x3f820f82	1.0160983
207	0x3f80da37	1.0066594
208	0x3f80949d	1.0045353
209	0x3f817bef	1.0115947
210	0x3f8289e2	1.0198328
211	0x3f809326	1.0044906
212	0x3f80e4e9	1.0069858
213	0x3f80ef33	1.0072998
214	0x3f810f1d	1.0082737
215	0x3f81d9dc	1.014461
216	0x3f8128b4	1.0090547
217	0x3f8036e1	1.0016748
218	0x3f806d01	1.0033265
219	0x3f815ba5	1.0106093
220	0x3f81d058	1.0141706
221	0x3f80f134	1.0073609
222	0x3f812412	1.0089133
223	0x3f812e9b	1.0092348
224	0x3f80a2ea	1.0049717
225	0x3f81c5e2	1.0138514
226	0x3f8159c3	1.0105518
227	0x3f820cb4	1.0160127
228	0x3f811c52	1.0086768
229	0x3f810078	1.0078268
230	0x3f80bad6	1.0057018
231	0x3f817fab	1.0117086
232	0x3f828c7c	1.0199122
233	0x3f811f7d	1.0087734
234	0x3f81f00a	1.0151379
235	0x3f81023c	1.0078807
236	0x3f81a5b9	1.01287
237	0x3f80dda2	1.0067637
238	0x3f805e3b	1.0028757
239	0x3f8172f3	1.0113205
240	0x3f814fcc	1.0102477
241	0x3f810e6b	1.0082525
242	0x3f812b66	1.0091369
243	0x3f81729b	1.01131
244	0x3f811862	1.0085566
245	0x3f80f6b8	1.0075293
246	0x3f8135d4	1.0094552
247	0x3f81365b	1.0094713
248	0x3f80e9e5	1.0071379
249	0x3f81397c	1.0095668
250	0x3f81e7a1	1.0148813
251	0x3f809303	1.0044864
252	0x3f81fcaf	1.0155238
253	0x3f80df24	1.0068097
254	0x3f806e8a	1.0033734
255	0x3f815adc	1.0105853

sequential/lstm_1/Read_2/ReadVariableOp f4 [512]
0	0x3bf8f5e2	0.007597671
1	0x3c08f385	0.008358841
2	0x3b8ddb1e	0.0043290993
3	0x3c71a659	0.014749133
4	0x3c30d653	0.010793286
5	0x3c3102e8	0.010803916
6	0x3c7c69ed	0.015406114
7	0x3c61b99c	0.013777163
8	0x3c80f33a	0.01574098
9	0x3c6a0182	0.014282586
10	0x3c694a00	0.014238834
11	0x3c2bac5c	0.010478105
12	0x3c629835	0.013830234
13	0x3c722d52	0.014781313
14	0x3c4ee6d4	0.012628276
15	0x3c893c6e	0.016752448
16	0x3c9d658d	0.019213462
17	0x3c7bb8db	0.015363897
18	0x3c8811ca	0.016610045
19	0x3c3b3c4b	0.011427949
20	0x3c694f5f	0.014240115
21	0x3c845369	0.016153054
22	0x3c348226	0.011017358
23	0x3c76db8a	0.015066991
24	0x3c1b0c3f	0.009463369
25	0x3c897b24	0.01678235
26	0x3c01083e	0.0078755
27	0x3c784404	0.015152935
28	0x3c2eb53e	0.010663329
29	0x3c8569de	0.016285833
30	0x3bb34188	0.0054704584
31	0x3c2e4053	0.010635453
32	0x3c51daf3	0.012808549
33	0x3c8eeb8f	0.017446307
34	0x3c6d6d1a	0.014491344
35	0x3c9e928d	0.01935699
36	0x3c8023bd	0.015642041
37	0x3c62ea34	0.013849784
38	0x3c42e28a	0.011894831
39	0x3c95379a	0.01821499
40	0x3c1ce88c	0.009576928
41	0x3c90e4c5	0.01768721
42	0x3c775601	0.0150961885
43	0x3c1cf518	0.009579919
44	0x3c93f80a	0.01806261
45	0x3c6930c6	0.01423282
46	0x3c4cda0b	0.012503157
47	0x3b8e092f	0.004334591
48	0x3c95a1bd	0.0182656
49	0x3bb052a3	0.005380945
50	0x3c5d2f70	0.0135000795
51	0x3c3f5ed6	0.0116803255
52	0x3c544f00	0.012958288
53	0x3b00fe19	0.0019682704
54	0x3c73e210	0.0148854405
55	0x3c514089	0.012771734
56	0x3c4e6df1	0.012599454
57	0x3c2a06b0	0.010377571
58	0x3c6193d6	0.013768157
59	0x3c736e1c	0.014857795
60	0x3c76dc7a	0.015067214
61	0x3bdd2374	0.006748611
62	0x3c186953	0.009302455
63	0x3c8b56cb	0.01700916
64	0x3c571739	0.013128095
65	0x3c06bfb6	0.008224418
66	0x3c67e2bf	0.014153182
67	0x3bab7c4c	0.005233323
68	0x3c0354d3	0.008015829
69	0x3bd4cf7d	0.006494461
70	0x3c4eb3c3	0.012616101
71	0x3c93c83a	0.018039811
72	0x3c2c1841	0.010503829
73	0x3c513944	0.012770001
74	0x3c8b3934	0.01699505
75	0x3c620d9a	0.013797188
76	0x3c257a69	0.010099986
77	0x3c8c33d3	0.017114555
78	0x3c94bc26	0.018156122
79	0x3c350094	0.011047501
80	0x3c6af818	0.014341377
81	0x3c727682	0.014798762
82	0x3caedc1f	0.021345196
83	0x3c8d9338	0.017282113
84	0x3c43d65a	0.011952961
85	0x3c0882fa	0.0083320085
86	0x3c776b5f	0.015101283
87	0x3c1a96ce	0.009435369
88	0x3c50a825	0.012735401
89	0x3c596ce2	0.013270589
90	0x3c7c20a4	0.0153886415
91	0x3c01b89b	0.0079175485
92	0x3ca3e6fb	0.020007601
93	0x3c8c263d	0.017108077
94	0x3b442b45	0.0029933017
95	0x3c25d1a1	0.01012078
96	0x3c6ac157	0.014328322
97	0x3c18dc1f	0.009329825
98	0x3c4360bf	0.011924922
99	0x3c84d64a	0.016215462
100	0x3c619254	0.0137677975
101	0x3c836522	0.016039435
102	0x3c60ecce	0.013728334
103	0x3c3b78bf	0.011442362
104	0x3c36a048	0.011146612
105	0x3c628ddd	0.013827768
106	0x3c704789	0.014665493
107	0x3c0c85a7	0.008576787
108	0x3c334fe9	0.010944345
109	0x3b80ae42	0.003927023
110	0x3bfda2f3	0.0077403723
111	0x3c0f9356	0.008763155
112	0x3c0f9942	0.008764567
113	0x3c068bf7	0.008212081
114	0x3c43fd53	0.011962253
115	0x3c516303	0.012779954
116	0x3c685e4d	0.014182639
117	0x3c485683	0.012227657
118	0x3c139a1c	0.0090089105
119	0x3c7969ad	0.015222949
120	0x3c4075ed	0.011746866
121	0x3c3742f3	0.0111853955
122	0x3c407a7f	0.011747955
123	0x3bca2c16	0.0061698062
124	0x3bb7a183	0.0056039705
125	0x3c7d33de	0.015454261
126	0x3c15e09b	0.009147788
127	0x3bbb4576	0.0057150675
128	0x3f80e7fa	1.0070794
129	0x3f8095cb	1.0045713
130	0x3f801cee	1.0008829
131	0x3f82102f	1.0161189
132	0x3f8121ff	1.00885
133	0x3f816951	1.0110265
134	0x3f81dba9	1.014516
135	0x3f81e2ec	1.0147376
136	0x3f81879d	1.0119511
137	0x3f818913	1.0119957
138	0x3f81e1a5	1.0146986
139	0x3f80e09e	1.0068548
140	0x3f81b766	1.0134094
141	0x3f81def7	1.0146168
142	0x3f817c1a	1.0115998
143	0x3f81bcb6	1.0135715
144	0x3f823499	1.0172302
145	0x3f81df10	1.0146198
146	0x3f812788	1.0090189
147	0x3f815bb3	1.0106109
148	0x3f81929c	1.0122867
149	0x3f81defb	1.0146173
150	0x3f815a26	1.0105636
151	0x3f81ba3d	1.013496
152	0x3f80f334	1.007422
153	0x3f81db56	1.0145061
154	0x3f80bad2	1.0057013
155	0x3f818512	1.0118735
156	0x3f810b91	1.0081655
157	0x3f81a71f	1.0129126
158	0x3f80d3b5	1.0064608
159	0x3f815b6a	1.0106022
160	0x3f81613d	1.01078
161	0x3f822234	1.0166688
162	0x3f81bc97	1.0135678
163	0x3f82345b	1.0172228
164	0x3f81f725	1.0153548
165	0x3f81aad4	1.0130258
166	0x3f81634b	1.0108427
167	0x3f820377	1.0157307
168	0x3f816162	1.0107844
169	0x3f825152	1.0181067
170	0x3f81c4ca	1.013818
171	0x3f80b4ff	1.0055236
172	0x3f821ad2	1.0164435
173	0x3f81e009	1.0146495
174	0x3f810bdc	1.0081744
175	0x3f805b3c	1.0027843
176	0x3f8288eb	1.0198034
177	0x3f80a08a	1.0048993
178	0x3f81a427	1.012822
179	0x3f8120af	1.0088099
180	0x3f811bc0	1.0086594
181	0x3f80691d	1.0032078
182	0x3f81d7b1	1.0143949
183	0x3f823d0f	1.0174884
184	0x3f817e43	1.0116657
185	0x3f81492d	1.0100456
186	0x3f812220	1.0088539
187	0x3f81bc47	1.0135583
188	0x3f81d352	1.0142615
189	0x3f80862e	1.0040948
190	0x3f809091	1.0044118
191	0x3f824e11	1.0180074
192	0x3f818437	1.0118474
193	0x3f80968c	1.0045943
194	0x3f80d3ad	1.0064598
195	0x3f807ee0	1.0038719
196	0x3f8112d6	1.0083873
197	0x3f809aec	1.0047278
198	0x3f81a89a	1.0129578
199	0x3f81d1c7	1.0142144
200	0x3f811267	1.0083741
201	0x3f81cbce	1.0140321
202	0x3f81646e	1.0108774
203	0x3f81ed0b	1.0150465
204	0x3f812c51	1.0091649
205	0x3f82259e	1.016773
206	0x3f824908	1.0178537
207	0x3f8154b8	1.0103979
208	0x3f81db80	1.0145111
209	0x3f81c771	1.013899
210	0x3f820758	1.0158491
211	0x3f818b3f	1.012062
212	0x3f810849	1.0080653
213	0x3f80da5f	1.0066642
214	0x3f81dd91	1.0145742
215	0x3f815cd9	1.010646
216	0x3f819753	1.0124305
217	0x3f812a90	1.0091114
218	0x3f81cfad	1.0141503
219	0x3f80f866	1.0075805
220	0x3f825524	1.0182233
221	0x3f81dc7e	1.0145414
222	0x3f8073d1	1.0035344
223	0x3f81086d	1.0080696
224	0x3f819f85	1.0126806
225	0x3f80dd5c	1.0067554
226	0x3f81a54e	1.0128572
227	0x3f81ec5c	1.0150256
228	0x3f81dd9b	1.0145754
229	0x3f811d4b	1.0087065
230	0x3f8175ce	1.0114076
231	0x3f816800	1.0109863
232	0x3f80f885	1.0075842
233	0x3f81470d	1.0099808
234	0x3f81978b	1.0124372
235	0x3f80eab3	1.0071625
236	0x3f80b849	1.0056239
237	0x3f805cc8	1.0028315
238	0x3f810a41	1.0081254
239	0x3f8147e3	1.0100063
240	0x3f80d204	1.0064092
241	0x3f80b705	1.0055853
242	0x3f80ea6a	1.0071537
243	0x3f813124	1.0093122
244	0x3f818952	1.0120032
245	0x3f817e4a	1.0116665
246	0x3f80bacd	1.0057007
247	0x3f81e771	1.0148755
248	0x3f8126d2	1.0089972
249	0x3f81415d	1.0098072
250	0x3f8131f5	1.0093371
251	0x3f80df8f	1.0068225
252	0x3f80eec4	1.0072865
253	0x3f81711c	1.0112643
254	0x3f80eea6	1.007283
255	0x3f80dd9f	1.0067633

sequential/dense/BiasAdd/ReadVariableOp f4 [5]
0	0x3a58b167	0.0008266181
1	0x3b0e9712	0.0021757525
2	0x3b673f73	0.0035285621
3	0x3a649afb	0.00087206037
4	0xbbb5fd4d	-0.0055538774

sequential/dense/MatMul f4 [5, 128]
0	0xbc9bfc6c	-0.019041263
1	0xbaa93cb5	-0.0012911769
2	0xbdd71133	-0.10501327
3	0xbe3225a0	-0.17397165
4	0x3cc51bc0	0.024061084
5	0xbe702d4f	-0.23454784
6	0x3dd8fd85	0.1059523
7	0xbe2c43c5	-0.16822727
8	0x3e581c0c	0.21104449
9	0x3e59788c	0.21237391
10	0x3d23f6f9	0.040030453
11	0xbe4e1c41	-0.20127966
12	0x3d9e56fd	0.077314354
13	0xbe1ca2f1	-0.15296532
14	0xbd373fa3	-0.044738423
15	0xbdc4593d	-0.09587333
16	0xbdb1562e	-0.086590156
17	0xbddbb418	-0.107277095
18	0x3e5501ab	0.20801418
19	0xbd8e53e9	-0.06949598
20	0xbe109fb3	-0.1412342
21	0x3d97d127	0.074129395
22	0x3d2b9d38	0.041897982
23	0xbc5104ad	-0.012757462
24	0x3cc13e5e	0.02358931
25	0x3e688abb	0.22709171
26	0x3e4d1535	0.20027621
27	0x3d8866b8	0.06660217
28	0xbe035fb1	-0.12829472
29	0x3de12738	0.109938085
30	0x3de2ddd8	0.110774696
31	0xbe0a06a9	-0.13479103
32	0x3e5e48f6	0.2170752
33	0xbe5227b2	-0.20522955
34	0x3dddea7c	0.1083574
35	0xbda456d9	-0.080243774
36	0xbe0739c3	-0.13205628
37	0xbdc8bd49	-0.09801728
38	0x3dbdec28	0.09273559
39	0x3d19c015	0.0375367
40	0xbae2a86e	-0.0017292628
41	0xbd55fe89	-0.052244697
42	0x3d47cec9	0.04878119
43	0x3e4b3c35	0.19847186
44	0xbde0fae8	-0.109853566
45	0x3deba5ec	0.115062565
46	0x3dabbeb9	0.08385987
47	0x3e13815c	0.14404815
48	0xbe497dd3	-0.19676904
49	0xbe462b5a	-0.19352475
50	0xbe11f84d	-0.14254875
51	0xbe06dadf	-0.1316943
52	0xbe08d0e2	-0.13360932
53	0xbdad8631	-0.084728606
54	0xbd7db8eb	-0.06194393
55	0xbe13fc34	-0.14451677
56	0xbdb424ac	-0.08796057
57	0x3e242ac4	0.16031939
58	0xbe330522	-0.17482427
59	0x3d932ac8	0.07185894
60	0x3e3656d1	0.17806555
61	0xbe40085f	-0.18753193
62	0xbbc9d6d1	-0.0061596413
63	0xbd2636b5	-0.040579516
64	0x3e39c3ff	0.18141173
65	0xbd34e224	-0.044160977
66	0xbdc33d6b	-0.09533199
67	0x3e6191b3	0.22028236
68	0xbe5cbadd	-0.21555658
69	0xbab4796d	-0.0013769098
70	0x3dce4ad4	0.10072866
71	0x3e2e299f	0.17008065
72	0x3e53831c	0.20655483
73	0x3daaca11	0.08339322
74	0x3de3dd28	0.111261666
75	0xbe582800	-0.21109009
76	0xbd3023d9	-0.043002937
77	0x3e377946	0.17917356
78	0xbe4e4b33	-0.20145874
79	0x3d9463ad	0.07245574
80	0x3dc9b7d2	0.09849514
81	0xbdff3b5c	-0.12462494
82	0xbe104451	-0.1408856
83	0x3e4a12c9	0.19733728
84	0x3e2f9e6c	0.17150277
85	0xbe56dbce	-0.20982286
86	0xbb8eb086	-0.0043545393
87	0x3db4e120	0.08832002
88	0xbdfc11e1	-0.12308098
89	0xbcee7672	-0.029109214
90	0xbdc2e36d	-0.09516034
91	0x3e13afb1	0.1442249
92	0x3e0b5321	0.1360593
93	0x3e464d42	0.19365409
94	0xbd12d2db	-0.03584562
95	0x3e40b787	0.1882001
96	0x3dda8366	0.106695935
97	0xbe439fdf	-0.19103955
98	0xbdd7eb4c	-0.10542926
99	0xbe46346b	-0.19355933
100	0xbe318c9c	-0.17338794
101	0xbe2dc5f8	-0.1697005
102	0xbe1593cc	-0.14607161
103	0xbd80c92d	-0.06288371
104	0x3d8238e2	0.06358506
105	0x3c3264ac	0.01088826
106	0x3c1807f5	0.009279241
107	0x3de29f2d	0.110655166
108	0xbd073316	-0.033007704
109	0xbe0c70b8	-0.13714874
110	0x3ddc30cc	0.10751495
111	0xbcbf0511	-0.023317846
112	0xbe288b4d	-0.16459389
113	0xbe37bb7d	-0.17942615
114	0x3e455332	0.19270018
115	0xbdb0e974	-0.08638278
116	0x3d9f93d5	0.077918686
117	0x3d4e162e	0.05031412
118	0xbda0a786	-0.078444526
119	0x3d61ea5f	0.055155154
120	0x3dd93835	0.10606424
121	0xbdcfb289	-0.10141475
122	0xbddd7394	-0.108130604
123	0x3dd960eb	0.10614189
124	0xbcd6b6ab	-0.02621015
125	0x3e02a618	0.12758672
126	0xbe1a5976	-0.15073189
127	0x3d4e7cea	0.050412096
128	0xbd966e59	-0.07345266
129	0x3e30623a	0.1722497
130	0x3dbcb3f8	0.09214014
131	0x3e2fdeec	0.17174882
132	0xbdce50e2	-0.10074021
133	0xbd0df71d	-0.034659494
134	0xbe468f3a	-0.19390574
135	0xbe4a9421	-0.19783069
136	0xbe3f44db	-0.1867861
137	0x3dbc0c83	0.09182074
138	0xbe6b6d8c	-0.22991008
139	0x3d0ab5a6	0.03386464
140	0x3d709c6c	0.058742926
141	0x3d28650e	0.041112
142	0x3e5fea98	0.21866834
143	0xbd98d35b	-0.07462188
144	0x3d33995d	0.04384743
145	0xbc46900d	-0.012119305
146	0xbd989998	-0.07451171
147	0x3de1d809	0.110275336
148	0x3e5a4fb9	0.21319474
149	0x3e57ec36	0.21086201
150	0x3cfb0bc7	0.030645264
151	0xbe63633c	-0.22205824
152	0xbdeda49a	-0.11603661
153	0xbe11a381	-0.14222528
154	0x3d9c650b	0.0763646
155	0xbe2035a7	-0.15645467
156	0x3e2e39ba	0.17014208
157	0xbdc10089	-0.0942393
158	0xbcd9b3c4	-0.026574977
159	0xbc8a8078	-0.016906962
160	0xbd850e2c	-0.06496844
161	0xbc5afa38	-0.013365321
162	0xbdedbfd6	-0.116088554
163	0x3dce99b7	0.100879125
164	0xbb92fafd	-0.0044854865
165	0x3df46491	0.11933244
166	0x3e1404dd	0.1445498
167	0x3d80e982	0.06294538
168	0xbd7fdc7c	-0.06246613
169	0xbe699c5a	-0.2281355
170	0xbd825231	-0.06363333
171	0xbd0a9593	-0.03383405
172	0xbe36406b	-0.17798011
173	0xbd2a735c	-0.04161392
174	0x3b6d9f04	0.003625811
175	0xbd823107	-0.063570075
176	0xbe278dd4	-0.16362697
177	0x3e313710	0.17306161
178	0xbe225266	-0.15851745
179	0xbdff1f1e	-0.12457107
180	0xbe598a11	-0.21244074
181	0x3db4b64c	0.08823833
182	0xbdedbf31	-0.116087325
183	0xbb1438de	-0.0022616903
184	0xbe403c9a	-0.18773118
185	0xbdbf5ec2	-0.093442455
186	0x3e52246c	0.20521706
187	0xbe4bef2e	-0.19915459
188	0xbe43da95	-0.19126351
189	0x3e210dba	0.15727893
190	0xbe481ca5	-0.19542177
191	0x3dc7e1e0	0.09759879
192	0xbe517f3d	-0.20458694
193	0x3e175677	0.14779077
194	0x3cc1a1ab	0.02363666
195	0x3d545a17	0.05184373
196	0xbd9aa145	-0.07550291
197	0x3b2a3a0b	0.0025974538
198	0xbc769e14	-0.015052337
199	0xbc8301a8	-0.015992
200	0xbe437082	-0.19085887
201	0x3e2bedb4	0.16789895
202	0xbbc6d452	-0.006067791
203	0x3e09aaec	0.13444108
204	0xbe0f630c	-0.14002627
205	0x3de3178d	0.11088476
206	0x3e4e6229	0.20154633
207	0xbe2cf9c1	-0.16892149
208	0xbdea08ba	-0.11427446
209	0xbc9b93a9	-0.018991308
210	0x3e23cf2c	0.15996999
211	0xbe66d815	-0.22543366
212	0xbda9ddcb	-0.08294257
213	0xbce9f01b	-0.028556874
214	0x3c2c056c	0.01049934
215	0x3cd2387e	0.025661703
216	0x3e6d125e	0.23151538
217	0xbd8fa4fd	-0.07013891
218	0x3d6ce6e3	0.05783738
219	0x3dc9ee88	0.09859949
220	0xbe59387c	-0.21212953
221	0x3e049223	0.12946372
222	0xbe16b64e	-0.14717981
223	0xbb9822ed	-0.0046428354
224	0x3da2f3eb	0.0795668
225	0x3e13c7a5	0.14431627
226	0xbe5a39b7	-0.21311079
227	0x3e1f1e01	0.1553879
228	0x3e58ee0f	0.21184562
229	0x3ce7c325	0.028291294
230	0x3e0086fb	0.12551491
231	0x3de239d8	0.11046189
232	0xbd74fdac	-0.059812233
233	0xbc882180	-0.016617537
234	0x3dccd6a6	0.100018784
235	0x3d36cea6	0.04463067
236	0x3dfdfc63	0.124016546
237	0x3dfc01a8	0.123050034
238	0xbdf60544	-0.12012723
239	0x3dcad793	0.09904399
240	0x3df16e6a	0.11788638
241	0x3e31eed6	0.17376265
242	0x3cf4dd91	0.029890807
243	0xbe2f9ccc	-0.17149657
244	0xbd5cd9fc	-0.053918824
245	0xbe09835e	-0.13429019
246	0xbd648f51	-0.05580074
247	0xbc0ed5db	-0.008717979
248	0x3de83e82	0.113400474
249	0x3b84cbe3	0.0040526255
250	0x3d1c83ed	0.03821175
251	0x3d2e7002	0.042587288
252	0xbd9fcee4	-0.07803133
253	0x3d7be10d	0.061493922
254	0xbce7bccf	-0.028288273
255	0xbd7876ab	-0.060660046

sequential/lstm/Read_2/ReadVariableOp1 f4 [512]
0	0x3c869d8f	0.016432552
1	0x3c12fa08	0.008970745
2	0x3c87d5de	0.016581472
3	0x3cbf635e	0.023362812
4	0x3bfa0f78	0.0076312385
5	0x3c6c5295	0.014423986
6	0x3ba70b7f	0.005097806
7	0x3c844cfd	0.016149992
8	0x3baab4fb	0.005209563
9	0x3c068547	0.008210487
10	0x3c135e15	0.008994599
11	0x3c31d41b	0.010853793
12	0x3939b0a1	0.00017708774
13	0x3c296702	0.0103395
14	0x3b7b084b	0.0038304504
15	0x3bec01e0	0.007202372
16	0x3b61cd4a	0.0034454637
17	0x3c20ebcf	0.009821846
18	0x3bd9672a	0.0066346126
19	0x3c581865	0.01318941
20	0x3c799284	0.015232686
21	0x3c0e784c	0.008695673
22	0x3bb26962	0.0054446915
23	0x3c173da9	0.0092310095
24	0x3c6cf991	0.014463798
25	0x3b72ee7c	0.0037068417
26	0x3bbc10e3	0.0057393177
27	0x3c094b77	0.008379809
28	0x3bcc5ed6	0.0062368913
29	0x3ba52589	0.005039875
30	0x3bc84fa5	0.00611301
31	0x3c96493d	0.01834547
32	0x3c1a0691	0.00940098
33	0x3ca0ce97	0.01962976
34	0x3b9e8ea2	0.0048387805
35	0x3bb584af	0.0055394988
36	0x3c83c6f6	0.016086083
37	0x3c1afec6	0.009460157
38	0x3c3bdc3d	0.011466083
39	0x3c15ccb0	0.00914304
40	0x3c932f0e	0.017966773
41	0x3ca05fdf	0.019576965
42	0x3ba733b8	0.005102601
43	0x3b6138af	0.0034366061
44	0x3c117ce6	0.008879876
45	0x3bf86091	0.007579871
46	0x3c885008	0.016639724
47	0x3cb2fe74	0.021849848
48	0x3c36c5ba	0.01115554
49	0x3c22d564	0.009938572
50	0x3c915a9d	0.017743403
51	0x3c714e9e	0.014728216
52	0x3c7ede01	0.01555586
53	0x3c055d04	0.008139852
54	0x3c250ed4	0.010074336
55	0x3c9c7c4a	0.019102234
56	0x3bc03722	0.0058659473
57	0x3c5c4724	0.013444696
58	0x3c0ad456	0.008473476
59	0x3bf587f9	0.007493016
60	0x3bc87bef	0.0061182897
61	0x3c335b29	0.010947027
62	0x3c4acda2	0.012378128
63	0x3c77fe2c	0.015136283
64	0x3bb8ac99	0.0056358096
65	0x3c8f64b8	0.017504081
66	0x3c9bb8ac	0.019008957
67	0x3cb1bc4c	0.021696232
68	0x3bc1c075	0.0059128352
69	0x3be4a0a8	0.0069771595
70	0x3cbbe644	0.022936948
71	0x3c327ef7	0.010894529
72	0x3c7575da	0.014981711
73	0x3be1b3c4	0.006887885
74	0x3c51ea3a	0.012812192
75	0x3c5014f5	0.012700309
76	0x3c22cdf5	0.009936799
77	0x3bc37d8e	0.005965895
78	0x3c8fc8a1	0.017551722
79	0x3c24e500	0.0100643635
80	0x3b8af78b	0.004240935
81	0x3c73fbcd	0.014891577
82	0x3ca6482e	0.02029809
83	0x3b662dbe	0.003512248
84	0x3bdf2d50	0.0068108216
85	0x3bccb33b	0.006246952
86	0x3c2754f1	0.010213123
87	0x3c83cc22	0.016088549
88	0x3c005aa9	0.007834115
89	0x3991569d	0.00027721087
90	0x3b6544bc	0.0034983596
91	0x3c346908	0.0110113695
92	0x3c9473d2	0.018121634
93	0x3bc06513	0.005871424
94	0x3c14fde3	0.009093734
95	0x3c21c680	0.009873986
96	0x3baf00e3	0.005340682
97	0x3c8088ac	0.01569017
98	0x3c1c75f9	0.009549611
99	0x3c8e3b56	0.017362278
100	0x3c2c0bfe	0.010500906
101	0x3c256121	0.010093958
102	0x3bb077fe	0.005385398
103	0x3c495a91	0.012289659
104	0x3caa654b	0.020800253
105	0x3c1b395b	0.009474124
106	0x3c83cfdb	0.016090324
107	0x3bdd3144	0.0067502577
108	0x3c368f82	0.011142613
109	0x3c05da0f	0.008169665
110	0x3b99d867	0.0046949866
111	0x3c6288a9	0.013826528
112	0x3c2dad3a	0.010600382
113	0x3bea2ac8	0.007146213
114	0x3c174068	0.009231664
115	0x3c6627bc	0.014047559
116	0x3c771c13	0.015082377
117	0x3c0d8177	0.008636824
118	0x3c193ec3	0.0093533425
119	0x3c13a3a0	0.009011179
120	0x3c00d8b3	0.007864165
121	0x3c332c35	0.010935833
122	0x3c8843d7	0.016633911
123	0x3bab70d3	0.0052319556
124	0x3c8ac57c	0.016939871
125	0x3be35c39	0.006938484
126	0x3b4cb975	0.003123847
127	0x3c3aa1ff	0.011391162
128	0x3f820aed	1.0159584
129	0x3f8104e8	1.0079622
130	0x3f815f8d	1.0107285
131	0x3f82e19d	1.0225102
132	0x3f80f6a3	1.0075268
133	0x3f81b8f6	1.0134571
134	0x3f808e5a	1.0043442
135	0x3f81eeae	1.0150964
136	0x3f80a8d2	1.005152
137	0x3f8119d9	1.0086013
138	0x3f813305	1.0093695
139	0x3f813124	1.0093122
140	0x3f8031e6	1.0015228
141	0x3f810717	1.0080289
142	0x3f7fd3a7	0.9993233
143	0x3f8097c2	1.0046313
144	0x3f7ff040	0.9997597
145	0x3f810bf4	1.0081773
146	0x3f8083aa	1.0040181
147	0x3f817c28	1.0116014
148	0x3f81d8e1	1.0144311
149	0x3f80e8c0	1.007103
150	0x3f80c438	1.0059881
151	0x3f80e9fd	1.0071408
152	0x3f819e98	1.0126524
153	0x3f807167	1.0034608
154	0x3f80c3e7	1.0059785
155	0x3f811d4a	1.0087063
156	0x3f80e63a	1.007026
157	0x3f80b001	1.0053712
158	0x3f7febad	0.9996899
159	0x3f827d12	1.0194418
160	0x3f808e21	1.0043374
161	0x3f821023	1.0161175
162	0x3f80dffb	1.0068353
163	0x3f80e5a2	1.0070078
164	0x3f81a741	1.0129167
165	0x3f80ffe3	1.007809
166	0x3f814f2b	1.0102285
167	0x3f813ec4	1.009728
168	0x3f823c89	1.0174724
169	0x3f824ddb	1.018001
170	0x3f808ed6	1.004359
171	0x3f806d9e	1.0033453
172	0x3f8126aa	1.0089924
173	0x3f811272	1.0083754
174	0x3f8202a8	1.0157061
175	0x3f827e85	1.0194861
176	0x3f815e9a	1.0106995
177	0x3f810cc5	1.0082022
178	0x3f82160c	1.0162978
179	0x3f81b0a8	1.0132036
180	0x3f816436	1.0108707
181	0x3f80d677	1.006545
182	0x3f80bacd	1.0057007
183	0x3f8244bb	1.0177225
184	0x3f80b8ee	1.0056436
185	0x3f8134a8	1.0094194
186	0x3f80f095	1.007342
187	0x3f8086a4	1.0041089
188	0x3f80dba7	1.0067033
189	0x3f812706	1.0090034
190	0x3f819bf0	1.0125713
191	0x3f8192fc	1.0122981
192	0x3f80a52c	1.0050406
193	0x3f8252cb	1.0181516
194	0x3f822057	1.0166119
195	0x3f828d4a	1.0199368
196	0x3f8114da	1.0084488
197	0x3f80d99b	1.0066408
198	0x3f82bc36	1.0213687
199	0x3f81356a	1.0094426
200	0x3f81be6e	1.013624
201	0x3f81079b	1.0080446
202	0x3f817765	1.0114561
203	0x3f8172c8	1.0113153
204	0x3f815856	1.0105083
205	0x3f80a517	1.0050381
206	0x3f820f82	1.0160983
207	0x3f80da37	1.0066594
208	0x3f80949d	1.0045353
209	0x3f817bef	1.0115947
210	0x3f8289e2	1.0198328
211	0x3f809326	1.0044906
212	0x3f80e4e9	1.0069858
213	0x3f80ef33	1.0072998
214	0x3f810f1d	1.0082737
215	0x3f81d9dc	1.014461
216	0x3f8128b4	1.0090547
217	0x3f8036e1	1.0016748
218	0x3f806d01	1.0033265
219	0x3f815ba5	1.0106093
220	0x3f81d058	1.0141706
221	0x3f80f134	1.0073609
222	0x3f812412	1.0089133
223	0x3f812e9b	1.0092348
224	0x3f80a2ea	1.0049717
225	0x3f81c5e2	1.0138514
226	0x3f8159c3	1.0105518
227	0x3f820cb4	1.0160127
228	0x3f811c52	1.0086768
229	0x3f810078	1.0078268
230	0x3f80bad6	1.0057018
231	0x3f817fab	1.0117086
232	0x3f828c7c	1.0199122
233	0x3f811f7d	1.0087734
234	0x3f81f00a	1.0151379
235	0x3f81023c	1.0078807
236	0x3f81a5b9	1.01287
237	0x3f80dda2	1.0067637
238	0x3f805e3b	1.0028757
239	0x3f8172f3	1.0113205
240	0x3f814fcc	1.0102477
241	0x3f810e6b	1.0082525
242	0x3f812b66	1.0091369
243	0x3f81729b	1.01131
244	0x3f811862	1.0085566
245	0x3f80f6b8	1.0075293
246	0x3f8135d4	1.0094552
247	0x3f81365b	1.0094713
248	0x3f80e9e5	1.0071379
249	0x3f81397c	1.0095668
250	0x3f81e7a1	1.0148813
251	0x3f809303	1.0044864
252	0x3f81fcaf	1.0155238
253	0x3f80df24	1.0068097
254	0x3f806e8a	1.0033734
255	0x3f815adc	1.0105853

while/MatMul_11 f4 [512, 128]
0	0xbded5243	-0.11587956
1	0x3ccc457e	0.02493548
2	0x3c3a7a25	0.011381661
3	0x3bf65568	0.0075175054
4	0x3d7ab7ad	0.061210323
5	0xbd3ac7d8	-0.045600742
6	0x3c90463b	0.017611613
7	0x3d10c1a0	0.035340905
8	0xbd844e37	-0.06460231
9	0x3c2b57aa	0.010457912
10	0xbc92898e	-0.017887857
11	0x3c3994be	0.011326967
12	0xbcf71efa	-0.030166138
13	0x3dba1eab	0.09087881
14	0xbbe9ab1d	-0.007130994
15	0xbb3bf7c0	-0.0028681606
16	0x3bde97ab	0.0067929826
17	0xbcb035e4	-0.021510072
18	0x3c636b6c	0.013880592
19	0x3a643bf1	0.0008706442
20	0xbd1ec03c	-0.038757548
21	0xbd31432c	-0.04327695
22	0xbcf84a49	-0.03030886
23	0xbcc46b0a	-0.023976821
24	0x3c4886c7	0.012239165
25	0xbc2fa6a2	-0.010720881
26	0x3d89c62d	0.06727252
27	0xbc2ef4c8	-0.010678478
28	0xbd085702	-0.033286102
29	0x3cb48368	0.022035316
30	0x3daab5d7	0.083354644
31	0xbb8c68ed	-0.004284969
32	0xbd4cab1b	-0.049967866
33	0x3c9a601e	0.01884466
34	0x3c85b9b6	0.016323905
35	0x3bbb3d04	0.0057140607
36	0xbd1fe4f4	-0.039036706
37	0xbd9637a6	-0.07334833
38	0x3ce31679	0.027720677
39	0x3c517724	0.012784753
40	0x3c816c65	0.015798757
41	0xbc0cdc42	-0.008597435
42	0x3d6d678c	0.057960078
43	0x3d97ef10	0.074186444
44	0x3d1f9fcd	0.038970757
45	0xbd6651ee	-0.056230478
46	0xbdcf6907	-0.10127454
47	0xbca7428a	-0.02041747
48	0x3da15c80	0.07878971
49	0x3e374403	0.17897038
50	0xbd6e0bc8	-0.058116704
51	0xbde524ff	-0.11188697
52	0x3dca59db	0.0988042
53	0x3d25b163	0.040452372
54	0x3d5e2ba3	0.054240834
55	0x3cdcb060	0.02693957
56	0x3d764e75	0.060133416
57	0xbd825309	-0.06363494
58	0x3db49d8b	0.088191114
59	0x3d1f5d79	0.0389075
60	0x3e07ec8f	0.13273834
61	0xb972827a	-0.00023127525
62	0x3d9d71e6	0.0768774
63	0x3ce65c95	0.028120318
64	0x3c3e019b	0.011597062
65	0x3c2540d0	0.010086253
66	0x3c856a2d	0.01628598
67	0xbd6b31c2	-0.0574205
68	0x3c527f88	0.012847789
69	0x3d93d8a6	0.07219057
70	0xbd853bbe	-0.065055355
71	0x3d586173	0.05282731
72	0xbdb84237	-0.089970045
73	0x3cb29a00	0.021801949
74	0xbce6f363	-0.028192228
75	0xbca3ffe5	-0.020019481
76	0x3ced0670	0.028933734
77	0xbca6e9f0	-0.020375222
78	0x3d920a59	0.0713088
79	0x3c4e70ff	0.012600183
80	0x3c8e190d	0.01734593
81	0x3d673311	0.056445185
82	0x3d2b7560	0.041859984
83	0x3b791761	0.003800832
84	0xbd1fb9b5	-0.038995463
85	0x3d816a89	0.06319148
86	0x3cd3d2ce	0.025857355
87	0x3aa1efa9	0.001235475
88	0x3d004e01	0.03132439
89	0x3d886f60	0.06661868
90	0x3d2a55b8	0.041585654
91	0x3d6fceb1	0.058546726
92	0xbc3de601	-0.011590482
93	0xbc8bb520	-0.01705414
94	0x3afb61bc	0.0019178907
95	0x3cf94264	0.030427165
96	0xbc8b5725	-0.017009327
97	0xbca31b00	-0.019910336
98	0xbdb67ea2	-0.08910872
99	0x3d8d2997	0.06892698
100	0xbc7603ea	-0.015015582
101	0x3d1df5c4	0.03856446
102	0x3b821b91	0.0039705713
103	0x3d6be329	0.057589684
104	0x3d055fae	0.03256195
105	0x3d147d1b	0.036252122
106	0x3c5fb13a	0.013653094
107	0x3d1d439d	0.03839456
108	0xbcd29580	-0.025706053
109	0xbd2d259a	-0.042272188
110	0xbd7c5f12	-0.061614104
111	0x3addbea2	0.0016917775
112	0xbbe402cd	-0.0069583417
113	0x3d4b62bd	0.04965471
114	0xbcd8eefd	-0.026481146
115	0xbd4a1d0d	-0.04934411
116	0xbc19e455	-0.0093928175
117	0x3d97f1ca	0.074191645
118	0x3c65dab1	0.014029191
119	0x3a4e6136	0.0007872762
120	0x3d96d050	0.07363951
121	0x3e16ac85	0.14714248
122	0xbd4600c3	-0.04834057
123	0x3d812700	0.06306267
124	0xbafc3f56	-0.001924495
125	0xbce0bd1c	-0.027433924
126	0x3d84e079	0.06488127
127	0xbd1eaf0e	-0.038741164
128	0xbd6206df	-0.055182334
129	0x3d4e13a6	0.050311707
130	0xbd855a89	-0.06511409
131	0x35e48922	1.7027235e-06
132	0xbd068073	-0.032837342
133	0xbb998284	-0.004684748
134	0xbd89eaad	-0.06734214
135	0x3c6ace0b	0.014331351
136	0xbce22893	-0.027607238
137	0x3d771bb0	0.06032914
138	0xbd757df9	-0.05993459
139	0x3cfc53f4	0.03080175
140	0x3c11c1c0	0.008896291
141	0xbcb8245c	-0.022478275
142	0xba123056	-0.00055766606
143	0xbd809721	-0.062788256
144	0xbb4173f0	-0.0029518567
145	0x3ce4b819	0.027919816
146	0xbd3f2aee	-0.0466718
147	0xbc567254	-0.013088781
148	0xbcfb4a68	-0.030675128
149	0xbd12dd30	-0.035855472
150	0xbd5dda78	-0.054163426
151	0x3c8286a2	0.015933339
152	0x3ceba212	0.028763805
153	0xbd0d1499	-0.03444347
154	0x3bedf2af	0.007261596
155	0xbc9978bc	-0.018734328
156	0xbbf34cfe	-0.0074249497
157	0x3cb3564f	0.021891741
158	0xbcfbd0d2	-0.030739222
159	0xbd229c98	-0.03970012
160	0xba9fae2d	-0.0012182646
161	0xbcf7c7a1	-0.030246558
162	0xbdaf0f7a	-0.08547874
163	0xbd557656	-0.052114807
164	0x3d2511dd	0.04030024
165	0x3bfe3937	0.0077582854
166	0xbd33af65	-0.04386844
167	0x3aa608fc	0.0012667472
168	0x3b86f4d7	0.0041185427
169	0x3abbc80c	0.0014326586
170	0x3ccd074f	0.0250279
171	0x3bfa0c74	0.007630879
172	0x3d8e21f5	0.069400705
173	0xbc3dabfe	-0.011576651
174	0x3dc3ba4c	0.09557018
175	0x3b05b240	0.0020400435
176	0xbcaf0f60	-0.021369636
177	0x3d9a771a	0.07542248
178	0xba2d8d0c	-0.0006620444
179	0x3c3a78f4	0.011381377
180	0x3d4beb36	0.04978486
181	0xbd2d9952	-0.042382546
182	0xbb226e4b	-0.0024784978
183	0xbbe6f4ff	-0.007048249
184	0x3cdb1fd0	0.026748568
185	0xbc9a2e1f	-0.01882082
186	0x3d6c729d	0.05772649
187	0x3c3d16bf	0.011541068
188	0xbd5fd8de	-0.05465018
189	0x3d15a0e1	0.03653038
190	0xbc867e14	-0.01641754
191	0x3d2018a6	0.039086007
192	0x3b2744e9	0.0025523251
193	0xbc65c992	-0.014025109
194	0x3d957cd2	0.07299198
195	0x3daadfa0	0.08343434
196	0x3d16ae02	0.03678704
197	0xbacf3240	-0.0015807822
198	0x3d5a197b	0.053246956
199	0xbb7509bf	-0.0037389842
200	0x3daae1ed	0.08343873
201	0xbc458b72	-0.012057172
202	0x3c9ef556	0.019404095
203	0x3c47bd64	0.01219115
204	0x3d061793	0.032737326
205	0x3996653d	0.00028685658
206	0xbdc317da	-0.09526034
207	0xbd55cbae	-0.052196197
208	0x3c46e4a9	0.012139478
209	0x3cdd750f	0.027033357
210	0xbb8f89b4	-0.004380429
211	0xbcb6fa11	-0.022336038
212	0x3c7f346c	0.015576463
213	0x3d2d9077	0.0423741
214	0x38efec09	0.00011440373
215	0xbb8cda63	-0.0042984947
216	0x3ce174e9	0.027521567
217	0xbd4bbc28	-0.049739987
218	0xbcbf6872	-0.023365233
219	0xbd87abf6	-0.06624596
220	0xbbe6f411	-0.007048138
221	0xbd502c78	-0.05082366
222	0x3d31766a	0.04332582
223	0xbc8526bc	-0.016253822
224	0xbd278cce	-0.040905766
225	0x3dea9cf9	0.114557214
226	0x3d0d8fc7	0.034560945
227	0xbd2adc56	-0.041714035
228	0xbb942826	-0.0045213876
229	0x3d29e5cb	0.041478913
230	0x3db249bf	0.08705472
231	0xbbfdc1d5	-0.007744054
232	0x3aa40db7	0.0012516294
233	0xbc9efb46	-0.019406926
234	0x3dadd9d9	0.08488817
235	0x3ddf9437	0.109169416
236	0xbc3795cc	-0.011205148
237	0xbd3f783a	-0.046745516
238	0x393bfe7c	0.00017928513
239	0x3d426ae9	0.04746524
240	0x3d93bbe1	0.072135694
241	0xbc6edc6a	-0.014578918
242	0xbbda70fd	-0.0066663013
243	0xbccceadb	-0.025014332
244	0x3d3506fe	0.04419612
245	0xbc89cb31	-0.016820522
246	0xbbd3141e	-0.006441607
247	0xbd61bcfe	-0.055111878
248	0xbcb843d4	-0.02249328
249	0x3ce6b9a1	0.028164687
250	0xbcb1c815	-0.021701852
251	0xbdb5977b	-0.08866783
252	0xbd3e76d1	-0.04650003
253	0xba8a20b4	-0.0010538311
254	0x3d097679	0.03356025
255	0xbb46671b	-0.0030273858

while/MatMul f4 [512, 63]
0	0x3d3496af	0.044089016
1	0xbd532089	-0.0515447
2	0xbc320f25	-0.010867869
3	0xbdb0747f	-0.0861597
4	0xbd08a79d	-0.033362973
5	0xbddad9dc	-0.10686085
6	0xbd3bd7fa	-0.04586027
7	0xbd895669	-0.067059346
8	0xbda5be81	-0.08092976
9	0x3daf24cd	0.08551941
10	0x3c8a1541	0.016855838
11	0x3a15d5b0	0.0005715741
12	0xbd2cefa3	-0.042220723
13	0xbd5dac2b	-0.05411927
14	0x3ceed6f1	0.029155226
15	0x3d3ab022	0.04557813
16	0x3d8f111f	0.069856875
17	0x3d9d460b	0.07679375
18	0xbb6ea222	-0.0036412557
19	0x3da5b364	0.08090857
20	0x3d3a89cc	0.04554157
21	0x3d08a5e1	0.03336132
22	0xbd80a36c	-0.0628117
23	0xbdb3ddb3	-0.0878252
24	0x3dd778bf	0.10521077
25	0x3bae25df	0.005314573
26	0x3c4ff361	0.012692303
27	0xbd0e48ee	-0.03473752
28	0xbd970d60	-0.07375598
29	0x3d953b6c	0.072867244
30	0x3bd8eef1	0.006620281
31	0xbc979915	-0.018505612
32	0xbd562ce8	-0.05228892
33	0x3dd218f7	0.10258668
34	0xbbe4be78	-0.0069807135
35	0xbd82c340	-0.06384897
36	0x3dc335b6	0.09531729
37	0x3b4aa000	0.0030918121
38	0xbd949f7f	-0.07256984
39	0x3cb1a4f6	0.021685105
40	0xbd3cca37	-0.046091285
41	0x3cc8d439	0.024515258
42	0xbaeb934c	-0.0017972975
43	0xbcefef26	-0.02928884
44	0x3d117d35	0.035519797
45	0x3de17fdb	0.110107146
46	0x3d98a830	0.07453954
47	0x3db8bc85	0.09020332
48	0xbd542152	-0.05178959
49	0xbdab1a6b	-0.08354648
50	0x3ca045a0	0.01956445
51	0xbd892c9f	-0.06697964
52	0x3d902a4f	0.0703932
53	0xbd90b1ce	-0.070651636
54	0x3d7fba07	0.06243327
55	0xbcd2d0a6	-0.025734257
56	0xbda47fdb	-0.08032199
57	0xbd39e8a1	-0.045387868
58	0x3d319c32	0.04336185
59	0xbd014894	-0.031563357
60	0xbd8a9f9a	-0.06768723
61	0x3ca776c6	0.020442378
62	0x3daa22ee	0.083074436
63	0x3cdd8e0e	0.027045276
64	0x3dc763ea	0.09735854
65	0x3d47c158	0.04876837
66	0xbdb7c7b1	-0.08973635
67	0xbca9e24f	-0.020737795
68	0xbb63690f	-0.003470007
69	0xbcbe6f63	-0.023246473
70	0x3d3456de	0.044028156
71	0x3a960368	0.0011445107
72	0xbbf9c5fc	-0.0076224785
73	0xbd7b249c	-0.06131421
74	0xbd1be5c9	-0.038060937
75	0x3b2e3b64	0.0026585693
76	0xbbdcc455	-0.006737272
77	0x3dbc4503	0.091928504
78	0x3b9eb188	0.0048429407
79	0xbd851b52	-0.064993516
80	0xbcd6c15f	-0.026215253
81	0x3d180c92	0.037121363
82	0x3d1e48d7	0.038643684
83	0xbd394e5a	-0.045240737
84	0xbd42756d	-0.047475267
85	0x3dacb12e	0.08432232
86	0x3dbf5005	0.093414344
87	0x3c854a11	0.01627067
88	0x3d340488	0.043949634
89	0x3d2ff19a	0.04295502
90	0xbcc33b37	-0.023831947
91	0xbdb7b81c	-0.08970663
92	0xbcd4ad65	-0.025961587
93	0x3dd4a9d5	0.103839554
94	0x3dbe499e	0.09291385
95	0x3c30b2b7	0.010784796
96	0xbd138d3d	-0.036023367
97	0x3c4debbe	0.012568412
98	0xbd83216e	-0.064028606
99	0x3dd9a6f5	0.10627548
100	0xbd079150	-0.033097565
101	0xbd92afb8	-0.07162422
102	0x3d608d1b	0.05482207
103	0x3c7b6f6a	0.015346387
104	0xbca218c3	-0.019787198
105	0x3ca720d3	0.020401394
106	0xbdab9fb1	-0.08380068
107	0x3d4b7563	0.049672496
108	0xbd904498	-0.07044333
109	0x3d655f27	0.055998947
110	0xbd8d0a15	-0.068866886
111	0x3db5ef27	0.08883505
112	0x3d9e430d	0.07727633
113	0x3ccb9dcb	0.024855515
114	0x3c35ff98	0.011108302
115	0x3dba3f37	0.090940885
116	0xbd966915	-0.073442616
117	0x3d2d9255	0.04237588
118	0x3daac40b	0.083381735
119	0xbd22403a	-0.039612032
120	0x3dc60b5d	0.09670136
121	0x3d916def	0.07101046
122	0xbcd24882	-0.02566934
123	0x3bbd719d	0.005781366
124	0xbc925096	-0.017860692
125	0x3db5aa28	0.08870345
126	0x3bce8050	0.006301917
127	0x3cb50657	0.02209775
128	0xbcd834ba	-0.02639233
129	0xbd8bc111	-0.06823934
130	0xbcf84b5e	-0.030309375
131	0xbd6e69fa	-0.058206536
132	0x3daaa7bc	0.08332774
133	0xbd86638b	-0.06561955
134	0x3c1803aa	0.009278217
135	0xbcbda7fd	-0.023151392
136	0xbd1c316d	-0.038133074
137	0x3cb3c3ad	0.021943891
138	0x3cd98f93	0.02655772
139	0x3d7b7b3b	0.06139682
140	0xbd03e23b	-0.032198172
141	0xbb3b70c0	-0.002860114
142	0x3bf1e10f	0.0073815654
143	0x3d3fc8d6	0.04682239
144	0xbd143a40	-0.036188364
145	0x3d80c3f9	0.06287379
146	0xbde502d0	-0.11182177
147	0x3dd14da2	0.102198854
148	0xbd9f1cc8	-0.077691615
149	0xbd5681d2	-0.0523699
150	0x3db5341a	0.08847828
151	0x3d62c333	0.055361938
152	0x3da2a11e	0.07940887
153	0xbd8bf588	-0.06833941
154	0x3dcb26c8	0.09919506
155	0xbd8fc17e	-0.070193276
156	0xbc4e9398	-0.012608431
157	0x3d9abf1d	0.07555983
158	0x3d2f5b32	0.04281158
159	0xbc49c88f	-0.012315883
160	0xbda7dc40	-0.08196306
161	0x3d227c15	0.039669115
162	0x3d8662d5	0.065618195
163	0xbd95a69c	-0.07307169
164	0x3d6a707e	0.057236187
165	0xbd2d35a2	-0.042287476
166	0x3d3f17ee	0.04665368
167	0x3d0d90eb	0.034562033
168	0xbd9221e7	-0.071353726
169	0x3cc03099	0.023460673
170	0x3d461ea5	0.04836907
171	0x3d6683dd	0.0562781
172	0x3d22deaf	0.03976315
173	0x3d55f4d5	0.052235443
174	0x3d5df536	0.05418893
175	0x3def8b7c	0.116965264
176	0xbd8e9e8c	-0.06963834
177	0x39810447	0.00024607984
178	0x3a8004fc	0.000976711
179	0x3bc69d43	0.0060612275
180	0x3d667324	0.05626215
181	0x3de014c2	0.10941459
182	0xbdbdf288	-0.09274775
183	0x3dc0d4dd	0.094156004
184	0x3cd20c69	0.025640683
185	0x3d85e5d3	0.06537976
186	0x3d2413b8	0.040057868
187	0x3d870262	0.06592251
188	0xbcbe9ee4	-0.023269124
189	0xbd684027	-0.056701805
190	0x3d082ba5	0.033244748
191	0xbd8d54d7	-0.069009475
192	0xbd8d42c4	-0.068975
193	0xbda1836b	-0.07886394
194	0x3b83d65b	0.004023356
195	0xbd8cf1b0	-0.06882036
196	0x3d9c53a8	0.07633144
197	0xbc8e57a5	-0.017375777
198	0xbd912a5b	-0.07088157
199	0xbd5f6775	-0.054542024
200	0x3d5096a9	0.05092493
201	0xbd8e3d31	-0.06945265
202	0x3cf10005	0.029418955
203	0xbd5bf96d	-0.053704668
204	0xbd98f227	-0.07468062
205	0x3d91011a	0.07080288
206	0xbc2e5e5a	-0.010642612
207	0xbc18daaf	-0.009329482
208	0xbd4a68ca	-0.04941634
209	0xbdbf4a32	-0.093403235
210	0x3dfcf380	0.123511314
211	0x3d9b94bd	0.07596729
212	0xbcd9475b	-0.026523283
213	0xbd9829ea	-0.074298695
214	0x3ded6793	0.11592021
215	0xbca857db	-0.020549705
216	0x3df4c590	0.119517446
217	0xbd9cd3e0	-0.076575994
218	0x3d36447c	0.044498906
219	0x3d9a3a47	0.07530647
220	0x3d894639	0.06702847
221	0x3cab464f	0.02090755
222	0x3dbcbef8	0.09216112
223	0x3dcd4a4e	0.10023938
224	0xbd5ea98b	-0.054360908
225	0x3bd3ed43	0.006467493
226	0xbd72df3c	-0.059294924
227	0x3d248258	0.040163368
228	0xbd835a4b	-0.064137064
229	0x3d9f7a16	0.07786958
230	0xbc8424cc	-0.016130827
231	0x3d2ce3f1	0.04220957
232	0xbafd8688	-0.0019342462
233	0xbd9e8d78	-0.07741827
234	0x3cd6fc1c	0.026243262
235	0x3d6c548e	0.057697825
236	0xbdc71774	-0.0972127
237	0x3d7af680	0.061270237
238	0x3dadd506	0.084878966
239	0x3d4306e4	0.047613993
240	0x3cef9e73	0.02925036
241	0x3ce3255e	0.027727779
242	0xbcd12f4a	-0.025535244
243	0x3d918133	0.07104721
244	0xbd03376f	-0.032035287
245	0x3b73cc2f	0.003720056
246	0x3da051df	0.07828116
247	0x3da54e53	0.0807158
248	0x3d5544d6	0.0520676
249	0x3d8efbb4	0.06981602
250	0xbcd272cc	-0.025689505
251	0x3d997c78	0.07494444
252	0x3d66885a	0.05628238
253	0xbce3dfbd	-0.027816648
254	0x3da529a9	0.08064587
255	0x3d50c5c7	0.050969865

sequential/lstm_1/Read_2/ReadVariableOp1 f4 [512]
0	0x3bf8f5e2	0.007597671
1	0x3c08f385	0.008358841
2	0x3b8ddb1e	0.0043290993
3	0x3c71a659	0.014749133
4	0x3c30d653	0.010793286
5	0x3c3102e8	0.010803916
6	0x3c7c69ed	0.015406114
7	0x3c61b99c	0.013777163
8	0x3c80f33a	0.01574098
9	0x3c6a0182	0.014282586
10	0x3c694a00	0.014238834
11	0x3c2bac5c	0.010478105
12	0x3c629835	0.013830234
13	0x3c722d52	0.014781313
14	0x3c4ee6d4	0.012628276
15	0x3c893c6e	0.016752448
16	0x3c9d658d	0.019213462
17	0x3c7bb8db	0.015363897
18	0x3c8811ca	0.016610045
19	0x3c3b3c4b	0.011427949
20	0x3c694f5f	0.014240115
21	0x3c845369	0.016153054
22	0x3c348226	0.011017358
23	0x3c76db8a	0.015066991
24	0x3c1b0c3f	0.009463369
25	0x3c897b24	0.01678235
26	0x3c01083e	0.0078755
27	0x3c784404	0.015152935
28	0x3c2eb53e	0.010663329
29	0x3c8569de	0.016285833
30	0x3bb34188	0.0054704584
31	0x3c2e4053	0.010635453
32	0x3c51daf3	0.012808549
33	0x3c8eeb8f	0.017446307
34	0x3c6d6d1a	0.014491344
35	0x3c9e928d	0.01935699
36	0x3c8023bd	0.015642041
37	0x3c62ea34	0.013849784
38	0x3c42e28a	0.011894831
39	0x3c95379a	0.01821499
40	0x3c1ce88c	0.009576928
41	0x3c90e4c5	0.01768721
42	0x3c775601	0.0150961885
43	0x3c1cf518	0.009579919
44	0x3c93f80a	0.01806261
45	0x3c6930c6	0.01423282
46	0x3c4cda0b	0.012503157
47	0x3b8e092f	0.004334591
48	0x3c95a1bd	0.0182656
49	0x3bb052a3	0.005380945
50	0x3c5d2f70	0.0135000795
51	0x3c3f5ed6	0.0116803255
52	0x3c544f00	0.012958288
53	0x3b00fe19	0.0019682704
54	0x3c73e210	0.0148854405
55	0x3c514089	0.012771734
56	0x3c4e6df1	0.012599454
57	0x3c2a06b0	0.010377571
58	0x3c6193d6	0.013768157
59	0x3c736e1c	0.014857795
60	0x3c76dc7a	0.015067214
61	0x3bdd2374	0.006748611
62	0x3c186953	0.009302455
63	0x3c8b56cb	0.01700916
64	0x3c571739	0.013128095
65	0x3c06bfb6	0.008224418
66	0x3c67e2bf	0.014153182
67	0x3bab7c4c	0.005233323
68	0x3c0354d3	0.008015829
69	0x3bd4cf7d	0.006494461
70	0x3c4eb3c3	0.012616101
71	0x3c93c83a	0.018039811
72	0x3c2c1841	0.010503829
73	0x3c513944	0.012770001
74	0x3c8b3934	0.01699505
75	0x3c620d9a	0.013797188
76	0x3c257a69	0.010099986
77	0x3c8c33d3	0.017114555
78	0x3c94bc26	0.018156122
79	0x3c350094	0.011047501
80	0x3c6af818	0.014341377
81	0x3c727682	0.014798762
82	0x3caedc1f	0.021345196
83	0x3c8d9338	0.017282113
84	0x3c43d65a	0.011952961
85	0x3c0882fa	0.0083320085
86	0x3c776b5f	0.015101283
87	0x3c1a96ce	0.009435369
88	0x3c50a825	0.012735401
89	0x3c596ce2	0.013270589
90	0x3c7c20a4	0.0153886415
91	0x3c01b89b	0.0079175485
92	0x3ca3e6fb	0.020007601
93	0x3c8c263d	0.017108077
94	0x3b442b45	0.0029933017
95	0x3c25d1a1	0.01012078
96	0x3c6ac157	0.014328322
97	0x3c18dc1f	0.009329825
98	0x3c4360bf	0.011924922
99	0x3c84d64a	0.016215462
100	0x3c619254	0.0137677975
101	0x3c836522	0.016039435
102	0x3c60ecce	0.013728334
103	0x3c3b78bf	0.011442362
104	0x3c36a048	0.011146612
105	0x3c628ddd	0.013827768
106	0x3c704789	0.014665493
107	0x3c0c85a7	0.008576787
108	0x3c334fe9	0.010944345
109	0x3b80ae42	0.003927023
110	0x3bfda2f3	0.0077403723
111	0x3c0f9356	0.008763155
112	0x3c0f9942	0.008764567
113	0x3c068bf7	0.008212081
114	0x3c43fd53	0.011962253
115	0x3c516303	0.012779954
116	0x3c685e4d	0.014182639
117	0x3c485683	0.012227657
118	0x3c139a1c	0.0090089105
119	0x3c7969ad	0.015222949
120	0x3c4075ed	0.011746866
121	0x3c3742f3	0.0111853955
122	0x3c407a7f	0.011747955
123	0x3bca2c16	0.0061698062
124	0x3bb7a183	0.0056039705
125	0x3c7d33de	0.015454261
126	0x3c15e09b	0.009147788
127	0x3bbb4576	0.0057150675
128	0x3f80e7fa	1.0070794
129	0x3f8095cb	1.0045713
130	0x3f801cee	1.0008829
131	0x3f82102f	1.0161189
132	0x3f8121ff	1.00885
133	0x3f816951	1.0110265
134	0x3f81dba9	1.014516
135	0x3f81e2ec	1.0147376
136	0x3f81879d	1.0119511
137	0x3f818913	1.0119957
138	0x3f81e1a5	1.0146986
139	0x3f80e09e	1.0068548
140	0x3f81b766	1.0134094
141	0x3f81def7	1.0146168
142	0x3f817c1a	1.0115998
143	0x3f81bcb6	1.0135715
144	0x3f823499	1.0172302
145	0x3f81df10	1.0146198
146	0x3f812788	1.0090189
147	0x3f815bb3	1.0106109
148	0x3f81929c	1.0122867
149	0x3f81defb	1.0146173
150	0x3f815a26	1.0105636
151	0x3f81ba3d	1.013496
152	0x3f80f334	1.007422
153	0x3f81db56	1.0145061
154	0x3f80bad2	1.0057013
155	0x3f818512	1.0118735
156	0x3f810b91	1.0081655
157	0x3f81a71f	1.0129126
158	0x3f80d3b5	1.0064608
159	0x3f815b6a	1.0106022
160	0x3f81613d	1.01078
161	0x3f822234	1.0166688
162	0x3f81bc97	1.0135678
163	0x3f82345b	1.0172228
164	0x3f81f725	1.0153548
165	0x3f81aad4	1.0130258
166	0x3f81634b	1.0108427
167	0x3f820377	1.0157307
168	0x3f816162	1.0107844
169	0x3f825152	1.0181067
170	0x3f81c4ca	1.013818
171	0x3f80b4ff	1.0055236
172	0x3f821ad2	1.0164435
173	0x3f81e009	1.0146495
174	0x3f810bdc	1.0081744
175	0x3f805b3c	1.0027843
176	0x3f8288eb	1.0198034
177	0x3f80a08a	1.0048993
178	0x3f81a427	1.012822
179	0x3f8120af	1.0088099
180	0x3f811bc0	1.0086594
181	0x3f80691d	1.0032078
182	0x3f81d7b1	1.0143949
183	0x3f823d0f	1.0174884
184	0x3f817e43	1.0116657
185	0x3f81492d	1.0100456
186	0x3f812220	1.0088539
187	0x3f81bc47	1.0135583
188	0x3f81d352	1.0142615
189	0x3f80862e	1.0040948
190	0x3f809091	1.0044118
191	0x3f824e11	1.0180074
192	0x3f818437	1.0118474
193	0x3f80968c	1.0045943
194	0x3f80d3ad	1.0064598
195	0x3f807ee0	1.0038719
196	0x3f8112d6	1.0083873
197	0x3f809aec	1.0047278
198	0x3f81a89a	1.0129578
199	0x3f81d1c7	1.0142144
200	0x3f811267	1.0083741
201	0x3f81cbce	1.0140321
202	0x3f81646e	1.0108774
203	0x3f81ed0b	1.0150465
204	0x3f812c51	1.0091649
205	0x3f82259e	1.016773
206	0x3f824908	1.0178537
207	0x3f8154b8	1.0103979
208	0x3f81db80	1.0145111
209	0x3f81c771	1.013899
210	0x3f820758	1.0158491
211	0x3f818b3f	1.012062
212	0x3f810849	1.0080653
213	0x3f80da5f	1.0066642
214	0x3f81dd91	1.0145742
215	0x3f815cd9	1.010646
216	0x3f819753	1.0124305
217	0x3f812a90	1.0091114
218	0x3f81cfad	1.0141503
219	0x3f80f866	1.0075805
220	0x3f825524	1.0182233
221	0x3f81dc7e	1.0145414
222	0x3f8073d1	1.0035344
223	0x3f81086d	1.0080696
224	0x3f819f85	1.0126806
225	0x3f80dd5c	1.0067554
226	0x3f81a54e	1.0128572
227	0x3f81ec5c	1.0150256
228	0x3f81dd9b	1.0145754
229	0x3f811d4b	1.0087065
230	0x3f8175ce	1.0114076
231	0x3f816800	1.0109863
232	0x3f80f885	1.0075842
233	0x3f81470d	1.0099808
234	0x3f81978b	1.0124372
235	0x3f80eab3	1.0071625
236	0x3f80b849	1.0056239
237	0x3f805cc8	1.0028315
238	0x3f810a41	1.0081254
239	0x3f8147e3	1.0100063
240	0x3f80d204	1.0064092
241	0x3f80b705	1.0055853
242	0x3f80ea6a	1.0071537
243	0x3f813124	1.0093122
244	0x3f818952	1.0120032
245	0x3f817e4a	1.0116665
246	0x3f80bacd	1.0057007
247	0x3f81e771	1.0148755
248	0x3f8126d2	1.0089972
249	0x3f81415d	1.0098072
250	0x3f8131f5	1.0093371
251	0x3f80df8f	1.0068225
252	0x3f80eec4	1.0072865
253	0x3f81711c	1.0112643
254	0x3f80eea6	1.007283
255	0x3f80dd9f	1.0067633
