app/src/main/assets/Modelo1.tflite (tflite, 946956 bytes, 8 tensors)

arith.constant3 f4 [18, 128]
0	0xbd5fc2c7	-0.054629114
1	0x3dac8032	0.08422889
2	0xbe4e11a2	-0.20123914
3	0x3b8f6415	0.0043759444
4	0x3b96ea71	0.0046055843
5	0x3e6712ce	0.22565767
6	0xbe0f4086	-0.13989457
7	0xbe04976c	-0.12948388
8	0x3e656c79	0.2240466
9	0xbd3ae91d	-0.04563247
10	0x3db51e4f	0.088436715
11	0x3d06496c	0.032784864
12	0x3d60ea65	0.054911036
13	0x3e5bb106	0.21454248
14	0x3e8afb48	0.27144837
15	0x3ddf8227	0.109134965
16	0x3de7ca41	0.11317874
17	0xbe3463c4	-0.17616183
18	0x3e8a226d	0.2697939
19	0x3e3570a2	0.17718747
20	0x3dd17305	0.10227016
21	0xbe4954a6	-0.19661197
22	0xbe376c30	-0.17912364
23	0x3cfc90d2	0.030830774
24	0x3cdb0912	0.026737723
25	0x3d98157f	0.07425975
26	0xbd40c235	-0.04706021
27	0x3e2eda36	0.17075428
28	0x3e372565	0.17885359
29	0xbe471be9	-0.1944424
30	0x3dcec1e1	0.10095573
31	0xbccd1afa	-0.025037277
32	0xbe619409	-0.22029127
33	0x3e9c4200	0.30519104
34	0xbcf5b820	-0.029995024
35	0xbd832885	-0.06404213
36	0x3dbb8f44	0.09158185
37	0x3d11016d	0.03540175
38	0xbd7f4a7a	-0.062326886
39	0x3e42e798	0.19033659
40	0x3daaf451	0.08347381
41	0x3cfbced6	0.030738275
42	0x3e010864	0.12600857
43	0x3de39878	0.111130655
44	0x3e4d2951	0.20035292
45	0xbddf8bb1	-0.10915316
46	0xbe054b26	-0.13016948
47	0x3df30187	0.11865526
48	0xbd355f48	-0.04428032
49	0xbdff117f	-0.12454509
50	0x3eb7f4bb	0.35928902
51	0xbe5c6657	-0.21523415
52	0x3e2d80fc	0.16943735
53	0xbe0c7fce	-0.13720629
54	0x3e6454ce	0.22297975
55	0xbe00ba99	-0.12571181
56	0x3e3331c1	0.17499448
57	0x3dfd83ce	0.123786554
58	0xbd4abb98	-0.04949531
59	0x3e3c461c	0.1838612
60	0xbe447fec	-0.19189423
61	0x3e8a7c36	0.2704789
62	0x3e0a4c70	0.13505721
63	0x3c484486	0.0122233685
64	0xbe48b900	-0.19601822
65	0x3d51d0e8	0.05122462
66	0x3dfe8f54	0.124296814
67	0x3b243829	0.0025057888
68	0xbdd01292	-0.10159792
69	0x3d013045	0.031540174
70	0x3e094d7e	0.13408467
71	0x3e4d96a0	0.2007699
72	0xbda02f8a	-0.07821567
73	0xbdf93b51	-0.12169517
74	0xbd9cacb3	-0.07650127
75	0x3e6bffea	0.23046842
76	0x3e6af18d	0.22943707
77	0x3e651825	0.22372492
78	0xbe1ebad8	-0.15500963
79	0x3e7717cd	0.24130173
80	0xbe8f932a	-0.28041965
81	0xbe56f987	-0.20993625
82	0x3e63bfb9	0.22241105
83	0x3e70f460	0.23530722
84	0xba12e11e	-0.0005603003
85	0x3cf8b3e7	0.030359222
86	0xbe3dd578	-0.18538463
87	0x3e7d064a	0.2470943
88	0xbe851e47	-0.25999662
89	0x3e298d16	0.16557726
90	0x3e594644	0.2121821
91	0xbc9b006e	-0.018921103
92	0xbe168155	-0.14697774
93	0x3e9a759e	0.3016786
94	0xbe08236a	-0.1329476
95	0xbe653d38	-0.22386634
96	0xbd179dea	-0.037015833
97	0xbdf16401	-0.11786652
98	0x3bbded9a	0.0057961466
99	0x3c94096c	0.018070899
100	0xbd6337bd	-0.055473078
101	0x3e93abc6	0.2884199
102	0xbdd9ef41	-0.10641337
103	0x3df482d5	0.11939017
104	0x3e622a14	0.22086364
105	0x3e7669fe	0.2406387
106	0x3e05aaa2	0.13053373
107	0x3e360836	0.1777657
108	0x3e0e5d4e	0.1390278
109	0xbe3bb67d	-0.18331333
110	0xbcbb8d9f	-0.022894679
111	0xbe1254d6	-0.14290175
112	0x3e65e0e9	0.22449078
113	0x3e18be59	0.14916362
114	0xbe5b0562	-0.21388772
115	0xbea039b5	-0.31294027
116	0x3dfe6473	0.12421503
117	0x3e79c67b	0.2439212
118	0x3acbc961	0.0015547686
119	0x3e248e37	0.16069876
120	0x3e14311b	0.14471857
121	0x3e8aae59	0.27086142
122	0x3e016489	0.12636007
123	0x3dd4fe47	0.10400062
124	0x3e819b9b	0.2531403
125	0x3e9f15d7	0.3107135
126	0xbe296f2d	-0.16546316
127	0x3c576463	0.013146493
128	0x3e8c7bd9	0.27438238
129	0xbdc8e1e7	-0.098087125
130	0x3e8ebdf0	0.27879286
131	0x3dcb669d	0.09931681
132	0x3d366bdc	0.044536456
133	0x3e886b7f	0.26644513
134	0x3e2b9a22	0.16758016
135	0xbe42ffdb	-0.19042914
136	0x3e1f04e9	0.15529217
137	0xbde61b43	-0.112356685
138	0xbe79c0f0	-0.24390006
139	0xbe09538c	-0.13410777
140	0xbe258818	-0.16165197
141	0x3e2fd5e1	0.17171432
142	0x3bfa607a	0.0076408954
143	0xbe2f36c9	-0.17110743
144	0x3e3b3205	0.182808
145	0x3e80e272	0.25172764
146	0x3e1ffb41	0.1562319
147	0xbdd083b0	-0.101813674
148	0xbe235a9c	-0.15952533
149	0xbdda761d	-0.106670596
150	0xbe764a90	-0.24051881
151	0x3e3daf36	0.18523869
152	0x3e8008d3	0.25006732
153	0x3d09ae9d	0.03361379
154	0x3d4a068a	0.049322642
155	0x3daa913a	0.08328481
156	0x3e3eefb1	0.18646123
157	0x3e4bb84c	0.19894522
158	0xbe76283f	-0.2403879
159	0x3d9e2e92	0.07723726
160	0xbe149614	-0.14510375
161	0xbe82a51b	-0.2551659
162	0xbe205b85	-0.15659912
163	0xbe02d1b5	-0.1277531
164	0xbe255941	-0.16147329
165	0x3e3638a2	0.17795041
166	0xbde42c68	-0.11141282
167	0xbe7b6a51	-0.24552275
168	0x3e2b14d9	0.16707171
169	0x3e29e27d	0.16590305
170	0xbe073106	-0.13202295
171	0xbe5ca534	-0.21547395
172	0xbe457683	-0.1928349
173	0x3e47f90f	0.19528602
174	0xbe1f2320	-0.15540743
175	0xbd9aa76a	-0.07551463
176	0xbd16802f	-0.03674334
177	0xbe942110	-0.28931475
178	0x3e053efc	0.13012308
179	0xbe907815	-0.28216615
180	0x3e47f2c1	0.19526197
181	0xbda0f82e	-0.078598365
182	0x3d079abd	0.033106554
183	0x3d3f5987	0.04671624
184	0x3e056e6f	0.13030408
185	0xbe047b0c	-0.12937564
186	0x3e9b8c89	0.30380657
187	0xbd569bc9	-0.052394662
188	0x3e948fbc	0.2901591
189	0x3e4bb0e3	0.19891696
190	0x3da0c700	0.07850456
191	0xbe11c09c	-0.14233631
192	0x3daa6f49	0.08322007
193	0x3e5ae960	0.21378088
194	0xbe52a1f3	-0.20569591
195	0x3d5d045a	0.053959228
196	0x3d28b8c2	0.041191824
197	0xbe552012	-0.20813015
198	0x3e7f3364	0.24921948
199	0x3d8509a1	0.06495977
200	0xbce1eca2	-0.027578656
201	0xbe892d6f	-0.26792476
202	0x3e3f797a	0.18698683
203	0xbc96e3df	-0.018419204
204	0x3e848323	0.258813
205	0xbe03ec3a	-0.12883082
206	0xbc21e2f7	-0.009880773
207	0x3e5edf7a	0.21764937
208	0xbe55858d	-0.20851727
209	0x3dd9399a	0.1060669
210	0xbd92abdb	-0.07161685
211	0x3e5a428f	0.21314453
212	0xbcaaf5b0	-0.020869106
213	0xbd2c5ea2	-0.042082436
214	0x3e8aff8f	0.271481
215	0x3e160d58	0.14653528
216	0x3cb1e7b5	0.021716932
217	0xbb6ae55d	-0.0035842278
218	0x3de3499d	0.11098025
219	0xbe49ee0a	-0.19719711
220	0x3d90b05f	0.0706489
221	0xbdf33942	-0.118761554
222	0x3e3a88a1	0.18216182
223	0xbdc3bc3e	-0.09557389
224	0xbcb1ff99	-0.021728324
225	0xbe83e027	-0.25756952
226	0xbd70639f	-0.058688756
227	0xbd055eca	-0.0325611
228	0x3e142d4d	0.14470406
229	0xbe6a172d	-0.22860403
230	0xbe5b32f0	-0.2140615
231	0xbdd62c06	-0.104576156
232	0xbe69e777	-0.22842203
233	0x3e840848	0.25787568
234	0x3ddfbcb1	0.10924662
235	0xbe839391	-0.25698522
236	0x3d3ce5db	0.046117645
237	0xbdc32a3c	-0.0952954
238	0xbddaa6d4	-0.10676351
239	0x3e16b7f9	0.14718617
240	0xbe1c4d9d	-0.15263982
241	0xbe9b639e	-0.3034944
242	0x3dc8b03a	0.097992375
243	0x3d8db5a1	0.069194086
244	0x3db3dd7a	0.08782478
245	0x3dc537e9	0.09629805
246	0x3d963553	0.073343895
247	0xbe1dcf23	-0.15411048
248	0x3d0b9622	0.034078725
249	0xbe47c690	-0.1950934
250	0x3e0a8431	0.1352699
251	0xbdc612bb	-0.09671541
252	0x3e1244b9	0.14284028
253	0xbe95b5e7	-0.29240343
254	0xbe8b1857	-0.27167007
255	0x3d783929	0.060601387

arith.constant4 f4 [18]
0	0xbcb98fd3	-0.022651589
1	0xbcabe62e	-0.020983782
2	0xbc17fff1	-0.00927733
3	0x3c1cf874	0.00958072
4	0x3cf588d1	0.029972466
5	0x3b21e175	0.0024701033
6	0xbd0ce4bb	-0.034397822
7	0xbcaaf5f6	-0.020869236
8	0xbda44c45	-0.0802236
9	0x3c548b52	0.01297267
10	0x3c50e2a6	0.01274935
11	0xbceeaf21	-0.029136242
12	0xbcd0ef4d	-0.025504733
13	0x3b9f1348	0.0048545934
14	0x3c06ccf9	0.00822758
15	0x3ae1409a	0.001718539
16	0xbb91be39	-0.004447725
17	0xbcf6a1d4	-0.030106463

arith.constant16 f4 [512, 63]
0	0xbd99036b	-0.07471355
1	0xbd851226	-0.06497602
2	0x3d4cdc2f	0.05001467
3	0x3d71467e	0.058905117
4	0x3ddab334	0.106787115
5	0xbc2f4e99	-0.0106998915
6	0x3c042926	0.008066451
7	0xbc2b8d0a	-0.010470638
8	0x3a5b6aca	0.00083701
9	0x3b564342	0.0032693897
10	0x3cf08297	0.029359145
11	0x3db3fa5d	0.087879874
12	0xbb94553f	-0.0045267637
13	0x3defdf43	0.11712506
14	0xbda4bb0f	-0.08043491
15	0x3bb7145f	0.005587145
16	0xbdae02f8	-0.0849666
17	0x3df8983c	0.121384114
18	0x3b1d51a2	0.0024004956
19	0xbd989de3	-0.074519895
20	0x3d808bab	0.062766396
21	0xbd831854	-0.064011246
22	0x3d2057fd	0.039146412
23	0xbc14f62f	-0.009091898
24	0x3d73334e	0.0593751
25	0x3c754f6f	0.014972552
26	0x3cef91dc	0.029244356
27	0x3d8dd6e2	0.06925751
28	0xbdaab240	-0.0833478
29	0xbd993578	-0.074809015
30	0x3dc28a0b	0.09498986
31	0xbd0a4723	-0.033759248
32	0xbd9b6722	-0.075880304
33	0x3d708bb6	0.05872699
34	0x3dde1978	0.108447015
35	0xbc235579	-0.009969109
36	0x3d2c535d	0.04207169
37	0xbc8f0549	-0.017458575
38	0xbd9ee8bd	-0.07759235
39	0x3b40624c	0.0029355465
40	0xbda72bca	-0.08162649
41	0x3d72d074	0.059280828
42	0x3dd5a6f7	0.10432237
43	0xbd501328	-0.05079952
44	0x3c6fcaff	0.0146358
45	0x3d9c4e1d	0.076320864
46	0x3d4ea808	0.050453216
47	0x3c71b6a7	0.01475302
48	0x3da032f4	0.078222185
49	0x3d4ab33e	0.049487345
50	0x3cd01516	0.02540068
51	0x3d716033	0.058929633
52	0xbba68ba8	-0.0050825663
53	0xbdb81edc	-0.08990261
54	0x3d390267	0.045168307
55	0xbd009c6a	-0.031399168
56	0xbd6d4b79	-0.057933304
57	0x3dc623b2	0.09674777
58	0xbd21263c	-0.039343104
59	0xbdc482b4	-0.09595242
60	0x3cee36c7	0.029078854
61	0xbd7d82b9	-0.061892245
62	0xbdaa12fb	-0.083044015
63	0x3c772726	0.015085017
64	0x3d043e53	0.032286
65	0x3da68e33	0.08132591
66	0xbda88f35	-0.082304396
67	0xbd9e7eb6	-0.07739012
68	0xbba491b8	-0.005022254
69	0x3d7350ef	0.059403356
70	0x3dc536f1	0.0962962
71	0x3d7da4d7	0.06192478
72	0xbd6e1d92	-0.05813367
73	0x3d8f80f2	0.07007016
74	0x3ca47fbd	0.020080442
75	0xbdcbf7fe	-0.0995941
76	0x3dd985c9	0.106212206
77	0x3d70db79	0.058803055
78	0x3c8201eb	0.015870055
79	0xbd6bb12c	-0.05754201
80	0x3ca4ba41	0.020108344
81	0xbd977f46	-0.07397322
82	0x3da72b0c	0.081625074
83	0xbdc4be74	-0.096066386
84	0xbd285a01	-0.04110146
85	0x3d17a907	0.03702643
86	0xbc2c9255	-0.010532935
87	0x3da3c378	0.07996267
88	0xbdbea161	-0.09308124
89	0x3cb90c14	0.022588767
90	0x3d9bd687	0.07609277
91	0xbd878c5f	-0.066185705
92	0xbda447db	-0.08021518
93	0x3ba74b7e	0.005105435
94	0x3d506e9c	0.050886735
95	0xbd79eb40	-0.061015368
96	0x3c934a74	0.017979838
97	0x3da9a700	0.08283806
98	0xba8219cf	-0.0009925904
99	0x3cab9ae8	0.020947888
100	0xbd8fc8ed	-0.070207454
101	0x3d92e2df	0.071721785
102	0xbc8bba2f	-0.017056553
103	0xbc128514	-0.008942861
104	0xbce815d9	-0.02833073
105	0x3dc48b38	0.09596866
106	0x3d1d2e3f	0.03837418
107	0x3d0915e1	0.03346813
108	0x3d34339c	0.04399453
109	0xbda58a23	-0.08082988
110	0xbd03c4d2	-0.032170124
111	0x3dbdd7cb	0.09269675
112	0xbdb1debc	-0.08685061
113	0x3cdb161d	0.026743943
114	0xbd369351	-0.044574086
115	0x3d1873b8	0.037219733
116	0x3c57e482	0.013177039
117	0xbd57d944	-0.052697435
118	0x3d3373fe	0.04381179
119	0x3db37fdc	0.087646216
120	0xbdaa3f7d	-0.08312891
121	0x3d2349fa	0.03986547
122	0xbdbb4938	-0.09144825
123	0xbdccb0ad	-0.09994636
124	0x3da6d4ff	0.081460945
125	0x3d956900	0.07295418
126	0x3e3d5b78	0.18491924
127	0x3e0d1735	0.13778384
128	0xbdad9a51	-0.08476699
129	0xbc02a9a7	-0.007975019
130	0x3e28a1bc	0.16467947
131	0x3bbda8d4	0.005787948
132	0x3e1c8ba5	0.15287645
133	0x3cb78b1f	0.022405205
134	0xbd58bcf2	-0.052914567
135	0x3cc261be	0.023728248
136	0x3de4f6b8	0.1117987
137	0x3d93d51e	0.07218383
138	0xbb98212d	-0.0046426267
139	0x3df7f587	0.121073775
140	0xbd2facdd	-0.042889465
141	0x3c733dbd	0.0148462625
142	0x3e0af4d1	0.13569953
143	0xbce37281	-0.02776456
144	0x3e3de8f8	0.18545902
145	0x3d128070	0.03576702
146	0x3cc83905	0.024441252
147	0x3e314d4c	0.17314643
148	0x3dd2f9f6	0.103015825
149	0xbc4ceaee	-0.0125071835
150	0x3e278d68	0.16362536
151	0x3cfd7758	0.030940697
152	0x3d19a237	0.037508216
153	0x3d1891a3	0.037248265
154	0x3df1a158	0.11798352
155	0xbc246f0d	-0.010036242
156	0xbba2a546	-0.00496355
157	0x3de84fe7	0.11343365
158	0xbcfba766	-0.03071947
159	0x3e2da0bb	0.16955845
160	0x3e2707b3	0.16311531
161	0x3d0a96da	0.03383527
162	0x3dd8aef0	0.10580242
163	0x3d45cc9f	0.048290845
164	0xbcd442a9	-0.025910692
165	0x3e03940b	0.12849443
166	0x3e28ee18	0.16497076
167	0x3d553fba	0.052062728
168	0x3c7bf806	0.015378958
169	0x3cc215ef	0.0236921
170	0xbdc9d405	-0.09854893
171	0xbb8abceb	-0.0042339466
172	0x3d6c81b0	0.057740867
173	0xba314337	-0.000676203
174	0x3d487c40	0.04894662
175	0x3dcce979	0.10005469
176	0xbdb7f104	-0.08981517
177	0x3ca37ff8	0.019958481
178	0x3d49095c	0.04908119
179	0x3d92fd4e	0.0717722
180	0x3dd1506c	0.102204174
181	0x3e0143a9	0.12623467
182	0xbd54bad7	-0.051935997
183	0x3e2aa4eb	0.16664474
184	0x3d4e579f	0.05037653
185	0xbd6220c8	-0.055207044
186	0x3dee32b1	0.11630762
187	0xbbf00051	-0.0073242565
188	0x3d300f32	0.04298324
189	0xbcd16dfe	-0.025565144
190	0xbd09ea5b	-0.033670764
191	0x3d386b26	0.04502406
192	0xba46c9db	-0.00075831794
193	0xbd428174	-0.047486737
194	0x3dbeb2fa	0.09311481
195	0x3da1017e	0.07861613
196	0x3dbeb0d9	0.09311075
197	0x3cce6541	0.025194766
198	0x3d2c46dd	0.042059768
199	0xbd67f79d	-0.056632627
200	0xbded4c9d	-0.115868784
201	0x3d8f7027	0.07003813
202	0x3dc76573	0.09736147
203	0xbdaa5ff9	-0.083190866
204	0x3d8afa04	0.06785968
205	0xbd8ac7ab	-0.06776365
206	0xbd5dfb77	-0.054194894
207	0x3ccb2b47	0.02480091
208	0x3c71ccc3	0.014758292
209	0x3ade03e4	0.0016938415
210	0x3c8fa7e0	0.017536104
211	0x3db56bb2	0.08858432
212	0xbd65330e	-0.055956893
213	0x3d7f5d08	0.06234458
214	0x3c77de5e	0.0151287
215	0xbda2161f	-0.079143755
216	0x3de195bc	0.11014888
217	0x3c9b5fff	0.018966673
218	0xbc8b9540	-0.017038941
219	0x3d4d14dd	0.050068725
220	0xbd3b3ce3	-0.045712363
221	0xbd583143	-0.052781355
222	0x3c905e70	0.017623156
223	0xbd75df37	-0.060027327
224	0x3ce687cf	0.02814093
225	0x3cfe8e6e	0.031073775
226	0xbd79fc10	-0.0610314
227	0x3d860b02	0.06545068
228	0x3db14d1d	0.08657286
229	0x3db05e12	0.086116925
230	0xbbc573a5	-0.006025749
231	0x3dbaf338	0.091284215
232	0x3d43398f	0.047662314
233	0xbd52fe21	-0.051511887
234	0xbd6c2b0c	-0.05765824
235	0xbdada059	-0.084778495
236	0x3dbaed9e	0.09127353
237	0xbd9f7280	-0.07785511
238	0x3c8ddf84	0.017318495
239	0xbcee7994	-0.029110707
240	0xbc848b54	-0.016179718
241	0x3d507312	0.05089099
242	0xbd4028a2	-0.04691375
243	0x3de5177e	0.111861214
244	0x3cd47ee7	0.025939418
245	0x3d32c948	0.043648988
246	0xbc5a61af	-0.013328954
247	0x3a99ca61	0.0011733287
248	0x3d2a59a5	0.041589398
249	0x3dce65c1	0.10078002
250	0xbc85db84	-0.016340025
251	0x3ca86ba1	0.020559134
252	0xbda15e2a	-0.078792885
253	0xbbd04ec8	-0.0063570477
254	0x3ceb5df5	0.028731326
255	0x3dca285e	0.09870981

arith.constant17 f4 [512, 128]
0	0x3c0df0ef	0.0086634
1	0x3d9deadb	0.07710811
2	0xbdbf1394	-0.09329906
3	0xbd22c28b	-0.039736312
4	0xbdae5c68	-0.08513719
5	0x3d3e5335	0.04646607
6	0xbc9290bb	-0.017891278
7	0x3cbe6251	0.02324024
8	0xbc5ddd25	-0.0135414945
9	0x3ca3dc87	0.020002617
10	0xbd9087a0	-0.070571184
11	0x3d08ba43	0.033380758
12	0xbb99652c	-0.00468125
13	0x3be22ea9	0.006902535
14	0x3d57ab5f	0.052653667
15	0x3dacfa22	0.084461465
16	0xbd654e4e	-0.05598288
17	0x3d7cb0f4	0.061692193
18	0xbc2ff686	-0.010739928
19	0x3ce98a7c	0.028508417
20	0x3db73301	0.08945275
21	0x3d91194e	0.070849046
22	0xbabf54e8	-0.0014597448
23	0xbc23d99b	-0.010000612
24	0x3b9bbffd	0.0047531114
25	0x3ccbfb63	0.024900144
26	0x3de2d132	0.11075057
27	0x3d44722b	0.04796044
28	0xbd22974a	-0.03969506
29	0xbabbade5	-0.0014318792
30	0xbdeba116	-0.11505334
31	0x3d8a83db	0.06763431
32	0xbd543699	-0.05180988
33	0xbde97cee	-0.114007816
34	0x3d041b40	0.03225255
35	0xbd1da45e	-0.03848683
36	0xbc4d3c7b	-0.012526627
37	0xb9eac1f5	-0.00044776467
38	0x3d544ada	0.051829197
39	0xbd2f7377	-0.042834725
40	0x3ccdf441	0.025140883
41	0xbc789d76	-0.01517426
42	0x3c82faaf	0.015988676
43	0xbc35e3f0	-0.011101708
44	0xbdb41b51	-0.08794273
45	0x3d6c4feb	0.057693403
46	0xbd131926	-0.035912655
47	0x3daa8b5a	0.083273605
48	0xbbccd710	-0.0062512234
49	0xbd933d53	-0.07189431
50	0x3d68eae6	0.05686464
51	0xbd7a0514	-0.06104
52	0x3a8763ae	0.001032939
53	0x3cc0a6c9	0.02351703
54	0xbc617086	-0.013759738
55	0x3d6d1e3d	0.057890166
56	0xbc4b5d73	-0.012412417
57	0x3d80709f	0.06271481
58	0x3da8c60e	0.08240901
59	0xbd8de59c	-0.0692856
60	0xbd6f8f44	-0.058486238
61	0xbddbbc2d	-0.10729251
62	0x3b067005	0.0020513546
63	0xbd0cf8fb	-0.034417134
64	0x3dfa9ab6	0.1223654
65	0x3dcccc23	0.099998735
66	0xbdb2e7e4	-0.08735636
67	0x3a553cdc	0.0008134374
68	0x3cb39fa5	0.02192671
69	0xbb98195b	-0.0046416945
70	0xbcbfff87	-0.023437275
71	0xbb2f78db	-0.0026774916
72	0xbd6ff452	-0.05858261
73	0xbd58a998	-0.052896112
74	0x3baf0295	0.005340884
75	0x3cf83a9b	0.030301383
76	0x3ca0dc06	0.019636165
77	0x3d6d64df	0.057957526
78	0x3cd4cc81	0.025976421
79	0x3d840ce0	0.06447768
80	0x3c8ddbec	0.017316781
81	0xbe01c093	-0.12671117
82	0xbc891f6c	-0.016738616
83	0x3ca77b5d	0.020444566
84	0xbd086bc3	-0.033305895
85	0x3d39acca	0.0453308
86	0x3e24c6c5	0.1609145
87	0xbce76af1	-0.028249236
88	0x3d12ab74	0.03580804
89	0x3ccd385b	0.025051286
90	0x3c475114	0.012165327
91	0xbda98132	-0.08276595
92	0x3c97e788	0.01854302
93	0x3c9761cb	0.018479249
94	0xbd20bd96	-0.039243303
95	0xbdc5a63f	-0.096508496
96	0x3d485333	0.04890747
97	0x3d2ca8fa	0.042153336
98	0xbc57c0fb	-0.013168569
99	0x3d30697a	0.04306934
100	0xbdd05f8a	-0.10174473
101	0x3d1b87f1	0.03797144
102	0xbda38c2e	-0.079857215
103	0xbcdc21d3	-0.026871597
104	0x3c9776c6	0.018489253
105	0x3d18bf6d	0.037291933
106	0xbdcabba1	-0.098990686
107	0x3bff279f	0.0077867056
108	0x3b89966c	0.00419884
109	0x3d9ad6d2	0.07560505
110	0x3c914456	0.01773278
111	0x3c00296d	0.007822377
112	0x3d868fdc	0.06570408
113	0x3ae4b679	0.0017449401
114	0xbd9c3fe5	-0.076293744
115	0xbc95c31c	-0.018281512
116	0xbd234a3f	-0.03986573
117	0x3d5bbb1b	0.053645235
118	0x3c385813	0.011251467
119	0x3ca0c8fb	0.019627085
120	0xbd867810	-0.06565869
121	0xbc2dcd2d	-0.010608
122	0x3c54bec5	0.012984936
123	0xbbf298ce	-0.0074034696
124	0x3cbb7622	0.022883479
125	0xbd2b8fca	-0.041885175
126	0x3cba7c99	0.02276449
127	0x3d4b4d1d	0.049634088
128	0x3cafc949	0.021458285
129	0x3ab07c35	0.0013464751
130	0x3c0917b7	0.00836747
131	0x3cd3109d	0.025764758
132	0xbd8ae62d	-0.06782184
133	0xba9054f9	-0.0011011652
134	0x3d808332	0.062750235
135	0xbbd8478c	-0.006600326
136	0xbd287990	-0.041131556
137	0xbcdcafe4	-0.02693934
138	0xbd68ff63	-0.05688418
139	0x3da669e6	0.08125667
140	0xbd0e0c46	-0.034679674
141	0xbd882a27	-0.06648665
142	0xbd1b2608	-0.037878066
143	0xbd17ad16	-0.037030302
144	0x3dc56369	0.096381016
145	0x3d3b44b1	0.045719806
146	0x3ca1946c	0.019724093
147	0x3dbdcc16	0.09267442
148	0x3d557487	0.052113082
149	0xbc15190a	-0.009100208
150	0x3d851d66	0.06499748
151	0x3da66ea7	0.08126574
152	0x3ad7c2d3	0.001646126
153	0x3d470792	0.048591204
154	0x3d454508	0.048161536
155	0x3d98ef62	0.07467534
156	0xbc240ff0	-0.010013565
157	0x3c87c87d	0.016575092
158	0x3bf92300	0.0076030493
159	0x3bd8fc8b	0.0066219023
160	0xbcca19fb	-0.024670592
161	0xbccb2037	-0.024795635
162	0x3c953563	0.018213933
163	0xbcbbe663	-0.022937005
164	0xbae4f339	-0.0017467506
165	0xbd434e3c	-0.047682032
166	0xbd2f15cb	-0.042745393
167	0x3d8424e4	0.06452349
168	0xbd71fa74	-0.05907674
169	0x3d6c4010	0.057678282
170	0x3d54b95e	0.051934592
171	0xbdb73021	-0.08944727
172	0x3b90565f	0.0044048275
173	0x3d81446b	0.06311878
174	0x3c538ebe	0.01291245
175	0x3d03c99d	0.032174695
176	0xbcb3c462	-0.021944229
177	0xbd7b0454	-0.061283424
178	0xbc7776d4	-0.015104014
179	0x3d0b84cd	0.034062196
180	0xbba54294	-0.005043337
181	0x3c8ef654	0.017451443
182	0x3cebf35a	0.028802563
183	0xbdde932b	-0.10867914
184	0x3d7f2e39	0.06229994
185	0x3b9c4da1	0.0047699963
186	0x3d7b725b	0.061388355
187	0xbd5c101d	-0.053726304
188	0xbda2fc2c	-0.07958254
189	0x3c8029fd	0.015645022
190	0x3d8746de	0.06605314
191	0x3da07509	0.07834823
192	0x3ca761b3	0.020432329
193	0x3d62a8ad	0.055336643
194	0xbb3a4868	-0.0028424505
195	0x3d4d0515	0.050053675
196	0xbce79a87	-0.028271927
197	0x3d5578fd	0.052117337
198	0x3cbe63f6	0.023241024
199	0x3d437217	0.047716226
200	0xbd112734	-0.035437778
201	0xbd8ddb16	-0.06926553
202	0x3dce8f13	0.10085883
203	0xbd2c42ae	-0.04205578
204	0xbc809fb3	-0.01570115
205	0x3cd9af6c	0.026572905
206	0xbbbe0046	-0.0057983724
207	0xbd0a6b99	-0.03379402
208	0xbd44f220	-0.04808247
209	0xbc23c7e6	-0.00999639
210	0x3d14f870	0.03636974
211	0xbbdda5fe	-0.0067641726
212	0xbcaeaf17	-0.021323724
213	0x3ce938d7	0.028469486
214	0xbc9350c7	-0.017982854
215	0x3d86ef10	0.06588566
216	0xbe09bf39	-0.13451852
217	0xbd204d76	-0.039136373
218	0xbd266a2c	-0.040628597
219	0xba917204	-0.0011096601
220	0x3b4cfead	0.0031279728
221	0x3c80a552	0.01570383
222	0x3dc870fe	0.097871765
223	0xbae4c5d7	-0.001745398
224	0xbd9c201f	-0.07623314
225	0xbd97aba8	-0.07405788
226	0xbcf65976	-0.030071955
227	0x3dbed483	0.09317877
228	0xbcb61bbe	-0.022230025
229	0xbc9d32fb	-0.019189348
230	0x3bd37aa6	0.00645383
231	0xbcc4873f	-0.023990272
232	0xbc2f20b0	-0.010688946
233	0xbd1e2edd	-0.03861891
234	0x3cc17933	0.023617363
235	0xbca60c40	-0.020269513
236	0xbd210266	-0.039308928
237	0xbd85dc5c	-0.06536171
238	0xbc8cb12c	-0.017174326
239	0xbcc60337	-0.024171455
240	0x3ccec1cd	0.025238896
241	0x3bb0b229	0.005392332
242	0x3d2fa328	0.042880207
243	0x3d0ccb8a	0.034373797
244	0xbd8119a8	-0.06303722
245	0x3b7021d2	0.0036641252
246	0x3d16d4d2	0.036824055
247	0xbc9b8193	-0.018982684
248	0x3bb23fac	0.005439719
249	0x3c4eb768	0.01261697
250	0xbcc50b2a	-0.024053175
251	0x3d43f3bf	0.047839876
252	0x3d21f886	0.03954365
253	0x3d695489	0.056965385
254	0x3d00d60a	0.031454124
255	0x3d2526c1	0.04032016

sequential_1/lstm_1/while/lstm_cell_1/add_1/ReadVariableOp f4 [512]
0	0x3c89b9be	0.016812202
1	0x3bb63098	0.005559992
2	0x3db32477	0.087471895
3	0x3c82dff4	0.01597593
4	0x3bcc96d0	0.006243564
5	0x3ad0375a	0.0015885637
6	0x3cc18e5b	0.02362745
7	0x3c15c959	0.009142243
8	0x3bdde321	0.0067714606
9	0x3cbeb68b	0.023280403
10	0x3c2e57f9	0.0106410915
11	0x3bbfc5c3	0.0058524325
12	0x3d605c53	0.054775547
13	0x3cdfc64f	0.02731624
14	0x3c9d6b0b	0.019216081
15	0x3bc3ce94	0.0059755538
16	0x3b08842a	0.002083073
17	0x3cdfb6ab	0.027308783
18	0x3c3b427e	0.011429427
19	0xba0cdd6c	-0.00053735706
20	0x3b82ac0e	0.0039877957
21	0x3c7663ed	0.015038473
22	0x3c4c3019	0.012462639
23	0x3c980edc	0.018561773
24	0x3c1f7ad9	0.009733879
25	0x3c37db41	0.011221708
26	0x3cfd09b1	0.03088841
27	0x3d5a02d7	0.053225365
28	0x3c020ee5	0.007938121
29	0x3bd3d07a	0.0064640613
30	0x3ca9d23d	0.020730132
31	0x3c1d9442	0.009617867
32	0x3c09cfdf	0.008411377
33	0x3cccd06c	0.025001727
34	0x3d38e983	0.04514457
35	0x3ca554bd	0.020182008
36	0x3c55beae	0.01304595
37	0x3cbd37fb	0.023097983
38	0x3c5f9a01	0.013647557
39	0x3d143fea	0.036193766
40	0x3bf613f1	0.0075097014
41	0x3b6c78ef	0.0036082824
42	0x3d4acc81	0.049511436
43	0x3c3b8e16	0.01144745
44	0x3b3abce2	0.002849393
45	0x3c79767a	0.015226001
46	0x3be1afad	0.0068873973
47	0x3c400423	0.011719736
48	0x3b87568f	0.0041301916
49	0x3ccac556	0.0247523
50	0x3c1db071	0.009624586
51	0x3c960693	0.018313682
52	0x3bec3d59	0.0072094616
53	0x3b2b0f57	0.0026101673
54	0x3c7ca607	0.015420443
55	0x3d154e43	0.03645159
56	0x3d06a6cb	0.03287391
57	0x3bb700c7	0.0055848095
58	0x3c658ee8	0.014011122
59	0x3c5394e8	0.01291392
60	0x3c90d365	0.017678926
61	0x3c62b2e9	0.013836601
62	0x3bec9afd	0.0072206245
63	0x3c1bde84	0.009513501
64	0x3c928ede	0.01789039
65	0x3bda0882	0.0066538462
66	0x3bd3094a	0.0064403163
67	0x3bf764e5	0.0075498694
68	0x3c1edb33	0.009695816
69	0x3c835d48	0.01603569
70	0x3c08c0cb	0.008346747
71	0x3c5a6393	0.013329404
72	0x3b6461ce	0.0034848335
73	0x3d1f27bd	0.038856257
74	0x3c3bfa4a	0.011473248
75	0x3c84f218	0.01622872
76	0x3d1c983a	0.038231112
77	0x3a6878f3	0.00088681205
78	0x3bc60c25	0.006043928
79	0x3c993fb1	0.018707128
80	0x3c0d5ae9	0.008627632
81	0x3c80245b	0.015642336
82	0x3c45f05b	0.012081231
83	0x3c32f377	0.010922304
84	0x3c4256a9	0.011861482
85	0x3ca777a1	0.020442786
86	0x3b2d361f	0.0026429964
87	0x3bf268f9	0.0073977676
88	0x3d828e7d	0.06374834
89	0x3b6e90f7	0.0036402324
90	0x3c6a3348	0.014294453
91	0x3bb58dee	0.005540601
92	0x3c42952d	0.011876387
93	0x3c88073a	0.016605008
94	0x3d1db484	0.03850223
95	0x3b7254f9	0.0036976917
96	0x3c74491a	0.014910007
97	0x3c9df44b	0.019281527
98	0x3c814ffb	0.015785208
99	0x3c89ee80	0.016837358
100	0x3d2f87e5	0.04285421
101	0x3bbb088d	0.0057078064
102	0x3bc0d78e	0.005885071
103	0x3bcb9ae4	0.0062135328
104	0x3c03d2ac	0.008045834
105	0x3d41857e	0.04724645
106	0x3c35546f	0.011067494
107	0x3b6c1abc	0.0036026677
108	0x3d43287a	0.047646023
109	0x3c748f25	0.014926706
110	0x3c512a84	0.012766484
111	0x3c28498c	0.010271441
112	0x3cb8d8f1	0.022564383
113	0x3bd659c5	0.006541463
114	0x3cc15914	0.023602046
115	0x3c342172	0.010994302
116	0x3cc070dc	0.023491316
117	0x3be1250d	0.006870872
118	0x3c81c7af	0.015842287
119	0x3b856408	0.0040707625
120	0x3c88f465	0.016718099
121	0x3a14cffe	0.0005676745
122	0x3bffba3a	0.0078041824
123	0x3cdd7ba3	0.027036494
124	0x3cc0c412	0.023530994
125	0x3d857be4	0.06517771
126	0x3b763842	0.0037570153
127	0x3b316c5b	0.0027072642
128	0x3f80e31d	1.006931
129	0x3f80c7a2	1.0060923
130	0x3f8ac6d6	1.084193
131	0x3f81874e	1.0119417
132	0x3f810011	1.0078145
133	0x3f80451d	1.0021092
134	0x3f826e07	1.0189828
135	0x3f81b497	1.0133237
136	0x3f80f731	1.0075437
137	0x3f82a7d2	1.0207465
138	0x3f818fbe	1.0121992
139	0x3f8076c3	1.0036243
140	0x3f864707	1.0490426
141	0x3f833f60	1.0253716
142	0x3f8237f4	1.0173326
143	0x3f8119ca	1.0085995
144	0x3f802458	1.0011091
145	0x3f83ad4a	1.0287259
146	0x3f80f835	1.0075747
147	0x3f7f4961	0.9972134
148	0x3f80b76b	1.0055975
149	0x3f81abab	1.0130514
150	0x3f81b78f	1.0134143
151	0x3f827d68	1.0194521
152	0x3f81799b	1.0115236
153	0x3f816c56	1.0111187
154	0x3f835c9a	1.0262635
155	0x3f863b40	1.0486832
156	0x3f80e118	1.0068693
157	0x3f80cd7e	1.0062711
158	0x3f827af7	1.0193776
159	0x3f810b3a	1.0081551
160	0x3f8108bd	1.0080792
161	0x3f82fead	1.0233971
162	0x3f85412d	1.0410515
163	0x3f82af9a	1.0209839
164	0x3f81c187	1.0137185
165	0x3f82de94	1.0224175
166	0x3f81702c	1.0112357
167	0x3f84fa39	1.0388862
168	0x3f810d4c	1.0082183
169	0x3f8062d6	1.0030162
170	0x3f862d89	1.0482646
171	0x3f81559e	1.0104253
172	0x3f804f70	1.0024242
173	0x3f817c0b	1.011598
174	0x3f80c66f	1.0060557
175	0x3f81bf57	1.0136517
176	0x3f80e534	1.0069947
177	0x3f833507	1.0250558
178	0x3f8162a4	1.0108228
179	0x3f82c9d8	1.0217848
180	0x3f80d7f1	1.00659
181	0x3f804c38	1.002326
182	0x3f81c9d7	1.0139722
183	0x3f8487b0	1.0353909
184	0x3f83a3c5	1.0284353
185	0x3f80d376	1.0064533
186	0x3f81c17f	1.0137175
187	0x3f81a3a1	1.012806
188	0x3f81d023	1.0141643
189	0x3f81fb7b	1.0154871
190	0x3f80d42d	1.0064751
191	0x3f80aa92	1.0052054
192	0x3f828b16	1.0198696
193	0x3f80db87	1.0066994
194	0x3f80864d	1.0040985
195	0x3f80cad3	1.0061897
196	0x3f81708e	1.0112474
197	0x3f81fd95	1.0155512
198	0x3f80e571	1.007002
199	0x3f819c19	1.0125762
200	0x3f80652f	1.0030879
201	0x3f846112	1.0342124
202	0x3f817eb6	1.0116794
203	0x3f81fa9f	1.0154608
204	0x3f84651d	1.0343357
205	0x3f8011c8	1.0005426
206	0x3f80c56e	1.0060251
207	0x3f82a7bd	1.020744
208	0x3f80cbf8	1.0062246
209	0x3f81ab86	1.013047
210	0x3f81670a	1.010957
211	0x3f810991	1.0081044
212	0x3f8172c8	1.0113153
213	0x3f825c9f	1.0184516
214	0x3f80218c	1.0010238
215	0x3f80e8fb	1.00711
216	0x3f87a4d1	1.0597173
217	0x3f803443	1.0015949
218	0x3f81d0ca	1.0141842
219	0x3f80eb02	1.0071719
220	0x3f812823	1.0090374
221	0x3f820d1c	1.0160251
222	0x3f848e69	1.035596
223	0x3f80eb15	1.0071741
224	0x3f815e58	1.0106916
225	0x3f820f18	1.0160856
226	0x3f82712c	1.0190787
227	0x3f82399e	1.0173833
228	0x3f863bdd	1.0487019
229	0x3f80f506	1.0074775
230	0x3f80a2a8	1.0049639
231	0x3f8030c7	1.0014886
232	0x3f81a77e	1.012924
233	0x3f86427b	1.0489038
234	0x3f81571e	1.0104711
235	0x3f804394	1.0020623
236	0x3f85d2af	1.045492
237	0x3f82063d	1.0158154
238	0x3f8192a9	1.0122882
239	0x3f813f3e	1.0097425
240	0x3f82c13f	1.0215224
241	0x3f8183ac	1.0118308
242	0x3f82c000	1.0214844
243	0x3f80dc6f	1.0067271
244	0x3f828d08	1.0199289
245	0x3f80c271	1.0059339
246	0x3f81c829	1.0139209
247	0x3f806671	1.0031263
248	0x3f822261	1.0166742
249	0x3f802e31	1.0014096
250	0x3f80df8b	1.006822
251	0x3f830e20	1.0238686
252	0x3f828359	1.0196334
253	0x3f87eda4	1.0619397
254	0x3f808a63	1.0042232
255	0x3f80d233	1.0064148

arith.constant21 f4 [512, 128]
0	0x3dc0ab85	0.09407715
1	0x3dbd235c	0.0923526
2	0xbd7785ed	-0.060430456
3	0xbd9aa386	-0.07550721
4	0x3d40b08f	0.04704338
5	0xbcc2fc82	-0.023802046
6	0x3db73f92	0.08947672
7	0x3cc9e8a0	0.024647057
8	0xbd878293	-0.06616702
9	0xbdb8d784	-0.09025481
10	0xbc85a81f	-0.016315518
11	0x3dc4ff03	0.09618952
12	0x3d982af1	0.074300654
13	0xbda72f89	-0.081633635
14	0x3db9d315	0.09073464
15	0x3a9807fa	0.0011599057
16	0xbd98eebd	-0.07467411
17	0x3d9b44c6	0.07581477
18	0xba5bbb58	-0.00083821034
19	0xbd833f5d	-0.0640857
20	0xbc91538a	-0.01774003
21	0x3d9c10e5	0.0762041
22	0xbdcbbeaa	-0.09948476
23	0xbc07a08f	-0.008278026
24	0x3c96687d	0.01836037
25	0x3d9a2d3a	0.075281575
26	0x3d53481e	0.05158245
27	0xbc544019	-0.012954735
28	0x3dd4d79d	0.103926875
29	0xbd5fbf1b	-0.05462561
30	0x3c2dfad1	0.010618881
31	0x3d6f5191	0.058427397
32	0x3d97c797	0.074111156
33	0x3da41148	0.08011109
34	0x3c635ab0	0.013876602
35	0x3d9fb2bf	0.07797765
36	0xbca67696	-0.020320218
37	0x3c4dec05	0.0125684785
38	0xbd0ed34f	-0.03486949
39	0xbd102a97	-0.035196867
40	0x3c6c75b5	0.01443236
41	0xbd247aea	-0.040156282
42	0x3bc0e15e	0.005886241
43	0x3d144b48	0.036204606
44	0x3bd2407b	0.006416378
45	0x3d84a569	0.06476862
46	0x3dd1a422	0.10236384
47	0x3c9161e2	0.01774687
48	0xbdcf5206	-0.101230666
49	0xbd901316	-0.0703489
50	0xbc0a8c60	-0.00845632
51	0xbd8928b4	-0.06697217
52	0x3ca33fc8	0.019927874
53	0xbd698a70	-0.05701679
54	0x3958b75a	0.00020667669
55	0x3d5076c8	0.05089453
56	0xb93a980d	-0.00017794986
57	0x3da62e52	0.08114304
58	0x393689e8	0.00017408247
59	0x3c940e5f	0.018073259
60	0xbc554489	-0.013016828
61	0x3d703f3f	0.058654066
62	0x3dbb0aca	0.09132917
63	0x3b9eb4b7	0.00484332
64	0xbc3ba350	-0.011452511
65	0x3c5050a5	0.01271454
66	0xbc360278	-0.011108987
67	0x3d1c0070	0.038086355
68	0xbb1a17eb	-0.0023512791
69	0xbbbfa71e	-0.0058487793
70	0xbb31494f	-0.0027051752
71	0x3d7f10c8	0.062271863
72	0xbc66cc6e	-0.014086826
73	0x3cc354d4	0.02384416
74	0x3aaa5f21	0.0012998321
75	0xbc288e9d	-0.010287908
76	0x3d8eb02e	0.06967197
77	0x3bece05c	0.007228894
78	0xbd2c48d3	-0.042061638
79	0xbcd575a3	-0.02605707
80	0x3d87ccc4	0.06630853
81	0xbd669615	-0.056295473
82	0xbcf527be	-0.029926177
83	0xbd731844	-0.059349313
84	0x3d792c4c	0.06083326
85	0xbcb4a9fd	-0.022053713
86	0x3d0907bf	0.033454653
87	0x3da662be	0.08124302
88	0xbcf4f74d	-0.029903078
89	0xbd8c5c3b	-0.06853529
90	0x3dab51ec	0.08365235
91	0x3d06bd14	0.032895163
92	0x3d316f10	0.043318808
93	0xbdadbf0a	-0.084837034
94	0xbcafc356	-0.021455448
95	0xbdee9633	-0.11649742
96	0x3c8da20d	0.017289186
97	0xbd8d57ac	-0.06901488
98	0xbdc92a48	-0.09822518
99	0xbc14224f	-0.009041383
100	0xbdd7726e	-0.105198726
101	0x3da29ce3	0.0794008
102	0xbce52b0c	-0.027974628
103	0x3cd242ab	0.025666555
104	0x3a9c1bd5	0.001191015
105	0xbbb21f5a	-0.0054358663
106	0xbda5d33f	-0.080969326
107	0xbdbb8cff	-0.09157752
108	0x3b2e1047	0.0026559995
109	0x3d146763	0.03623141
110	0x3df38ecc	0.11892471
111	0xbda03623	-0.07822826
112	0xbd9b3952	-0.07579292
113	0xbc89be60	-0.01681441
114	0xbd31ebc3	-0.04343773
115	0xbd83ee9e	-0.06441997
116	0xbd81df33	-0.063414
117	0x3dd5a1f8	0.10431284
118	0x3dfd4240	0.12366152
119	0xbdb35814	-0.08757034
120	0xbdada680	-0.08479023
121	0xbd5930a5	-0.053024907
122	0xbd88be2d	-0.06676898
123	0xbd438d50	-0.047742188
124	0x3d82da52	0.063892975
125	0x3cc4285a	0.023945022
126	0xbb465ca8	-0.003026763
127	0xbdb3bc3f	-0.087761395
128	0xbd47b2c6	-0.048754476
129	0x3c00290d	0.007822287
130	0x3d608cd6	0.05482181
131	0x3d4b4371	0.049624864
132	0x3d21c5d3	0.0394953
133	0x3d204e19	0.03913698
134	0x3d243f85	0.04009964
135	0xbcdab829	-0.026699143
136	0x3c0f66bb	0.00875252
137	0x3c018e72	0.007907497
138	0x3d9d9033	0.076935194
139	0xbd3d3619	-0.04619417
140	0x3d9f4229	0.07776291
141	0x3d93cd79	0.07216925
142	0xbb95d703	-0.0045727505
143	0x3d6e6a3d	0.058206785
144	0x3c482fa4	0.01221839
145	0xbcad32ab	-0.021142324
146	0xbddb7f22	-0.10717608
147	0x3d03326d	0.03203051
148	0x3ba0e2c8	0.004909847
149	0x3d686b4e	0.05674296
150	0xbd744f3e	-0.059645884
151	0xbd8d07bf	-0.06886243
152	0xbda6cabf	-0.081441395
153	0xbdea7b37	-0.114492826
154	0xbd549111	-0.05189616
155	0x3bc23ba1	0.0059275185
156	0x3ce09b5e	0.027417835
157	0x3c315c84	0.01082528
158	0x3d02c7a6	0.03192868
159	0xbd0fd3b5	-0.03511401
160	0xbdd59946	-0.10429625
161	0xbc2eb590	-0.010663405
162	0xbcbe2c2d	-0.023214424
163	0xbd41f5dc	-0.04735361
164	0xbdc04e5d	-0.093899466
165	0xbd3c3002	-0.04594422
166	0x3c3dd6f0	0.01158689
167	0xbd01aeaf	-0.031660732
168	0x3dd47461	0.1037376
169	0xbc9d5ad1	-0.019208344
170	0xbd05470b	-0.032538455
171	0x3d522bdf	0.05131137
172	0xbdb571ea	-0.08859618
173	0xbd678064	-0.056518927
174	0x3da1e22e	0.079044685
175	0x3d9a9609	0.07548148
176	0xbd837f58	-0.06420773
177	0xbc78bb4a	-0.015181372
178	0x3d4abad5	0.049494583
179	0xbd1abd07	-0.037777927
180	0x3c62cf75	0.013843407
181	0xbd84a580	-0.06476879
182	0x3d9c13d0	0.076209664
183	0x3dd4aa69	0.10384066
184	0xbdce7cf1	-0.100824244
185	0x3ca5f281	0.020257236
186	0x3de2d972	0.11076631
187	0xbce33b7d	-0.027738327
188	0x3d6b62f4	0.057467416
189	0x3d288f5a	0.041152336
190	0x3de45e33	0.111507796
191	0xbdcb8504	-0.0993748
192	0xbc03d9c8	-0.008047529
193	0xbc7be7d0	-0.015375093
194	0x3d83dcb0	0.06438577
195	0x3d99ea87	0.07515436
196	0xbccec24d	-0.025239134
197	0xbd82e327	-0.06390982
198	0xbca5b5a8	-0.020228222
199	0xbd929b43	-0.0715852
200	0xbdcce437	-0.10004466
201	0xbdb4c366	-0.08826332
202	0xbd346be8	-0.04404822
203	0xbd268662	-0.0406555
204	0xbb119103	-0.0022211678
205	0x3d61350b	0.054982226
206	0xbd7cc36c	-0.061709806
207	0xbc272db2	-0.010203766
208	0xbc62edf5	-0.013850679
209	0x3db01c37	0.085991316
210	0xbcf4cf86	-0.029884111
211	0xbbd8c725	-0.0066155368
212	0x3df0db92	0.1176063
213	0x3d137ec4	0.036009565
214	0xbd373223	-0.04472555
215	0xbddbdc46	-0.10735373
216	0x3d81a7d1	0.063308366
217	0xbd727cfe	-0.059201233
218	0xbca44664	-0.020053096
219	0xbb7953f4	-0.0038044425
220	0xbd432151	-0.047639195
221	0xbba5e2ad	-0.0050624222
222	0x3d061f42	0.032744654
223	0x3ca31405	0.019907007
224	0x3dab543e	0.08365677
225	0xbb70b29a	-0.0036727549
226	0x3d8fb670	0.07017219
227	0xbd65c144	-0.056092516
228	0xbd1206b8	-0.03565094
229	0x3d5356d4	0.051596478
230	0xbda2b0ac	-0.07943854
231	0xbd4447a6	-0.04791989
232	0x3d76f601	0.0602932
233	0x3d8d3c6f	0.068962924
234	0x3d58418e	0.052796893
235	0x3ca907f2	0.020633671
236	0xbc5e924a	-0.013584683
237	0x3d7f1bed	0.06228249
238	0xbcb784ed	-0.022402251
239	0xbdf89123	-0.12137058
240	0xbbb75912	-0.005595335
241	0xbd165b1f	-0.036707994
242	0xbbbfb4d5	-0.0058504143
243	0xbd9369cc	-0.071979135
244	0x3dce3b81	0.10069943
245	0xbc9b0f4d	-0.018928194
246	0x3cc9be73	0.024626946
247	0x3d59ddb7	0.05318996
248	0xbbd877b1	-0.006606065
249	0xbda48a44	-0.080341846
250	0x3d28f4a0	0.041248918
251	0xbcef4eb4	-0.029212333
252	0x3de1e6cf	0.11030351
253	0xba8b371d	-0.0010621283
254	0x3cc7495a	0.024326969
255	0x3c028584	0.007966403

arith.constant22 f4 [512, 128]
0	0x3c8932bc	0.016747825
1	0xbd016bdf	-0.031597015
2	0xbca5c68b	-0.020236274
3	0xbd8ebffe	-0.06970213
4	0x3dc9a2a3	0.098454736
5	0xbd6d83cf	-0.05798703
6	0xbdd0742f	-0.1017841
7	0xbce3e44c	-0.027818821
8	0x3d75334f	0.059863385
9	0x3d70cf9a	0.058791734
10	0x3b76b3b9	0.0037643744
11	0x3df21df2	0.11822118
12	0xbd938ab4	-0.0720419
13	0x3d3af5a1	0.045644406
14	0x3d17ff13	0.037108492
15	0xbd28deeb	-0.041228216
16	0xbd1b5cfb	-0.03793047
17	0xbd029bdd	-0.031886924
18	0x3c38d132	0.011280345
19	0x3905c8c7	0.00012758664
20	0xbb9ac444	-0.0047231037
21	0x3c23f8de	0.010008065
22	0x3d78bae0	0.060725093
23	0xbdaf9cd3	-0.08574834
24	0x3d011904	0.031517997
25	0x3e0c556f	0.13704465
26	0x3d92beaf	0.07165276
27	0x3d6f269f	0.05838644
28	0x3c8a35f9	0.01687144
29	0xbd41f401	-0.04735184
30	0x3b403e8c	0.0029334156
31	0x3dc42f0e	0.095792875
32	0xbc1e56fe	-0.009664295
33	0xbd19e9ed	-0.037576605
34	0xbcdbec7f	-0.026846169
35	0xbdf08ea6	-0.11745958
36	0xbcaccd74	-0.021094061
37	0x3d4d1658	0.050070137
38	0x3e07db0a	0.1326715
39	0x3da23e30	0.079220176
40	0x3d98ea05	0.07466511
41	0xba40c97a	-0.0007354241
42	0x3d2f6328	0.042819172
43	0x3de7cdf9	0.11318583
44	0x3dbc933e	0.09207772
45	0x3d63fbf2	0.055660196
46	0x3d314b33	0.043284606
47	0x3d8114b2	0.063027754
48	0x3bf3a1de	0.0074350676
49	0xbceed20f	-0.029152898
50	0x3c513053	0.012767869
51	0x3ca7ad7a	0.020468462
52	0x3cd05b3c	0.025434129
53	0xbcde6adf	-0.02715057
54	0x3d0451b3	0.032304477
55	0xbd299a2e	-0.041406803
56	0xbc3c2bdd	-0.011485067
57	0xbdf2647e	-0.118355736
58	0xbd98f172	-0.07467927
59	0xbcfc7dfa	-0.030821789
60	0xbcbf2ad9	-0.023335861
61	0xbce9da43	-0.028546458
62	0xbc48facb	-0.012266825
63	0xba90c24e	-0.0011044235
64	0x3ce14a8a	0.027501363
65	0x3ce7ba4b	0.028287074
66	0xbcc2879a	-0.0237463
67	0x3d8f6d26	0.0700324
68	0xbc754738	-0.014970593
69	0x3cb34671	0.021884175
70	0x3d04723e	0.032335512
71	0xbd277d1b	-0.040890794
72	0xbc0c775e	-0.008573381
73	0x3d594471	0.053043786
74	0x3ce81a1a	0.028332759
75	0xbce049f0	-0.027379006
76	0xbd207cb2	-0.03918142
77	0x3c2eddc5	0.010672991
78	0x3bcacdfb	0.0061891056
79	0xbb2e73f2	-0.0026619402
80	0x3d81138d	0.06302557
81	0xbbf1ee65	-0.007383155
82	0x3d275ee9	0.040861998
83	0x3cd2d16a	0.025734622
84	0x3c7ea305	0.015541797
85	0x3c3baad4	0.011454303
86	0x3b247d42	0.0025099074
87	0xbcc591aa	-0.02411731
88	0xbd49bedf	-0.049254294
89	0x3dcc182a	0.099655464
90	0xbd055788	-0.03255418
91	0xbd20f360	-0.0392946
92	0x3e0b0632	0.13576582
93	0xbd1a9016	-0.037735067
94	0x3dc303a8	0.09522182
95	0xbbe41d7c	-0.0069615226
96	0x3d97fcae	0.07421242
97	0xbd3f8f32	-0.04676742
98	0xbb45c59c	-0.0030177599
99	0xbbcbabad	-0.0062155337
100	0xbd4ec52c	-0.050481007
101	0x3dc0d2c9	0.09415204
102	0xbcb35cdf	-0.02189487
103	0xbc185a22	-0.009298833
104	0x3d515b25	0.051112313
105	0xba5ea093	-0.00084925554
106	0xbc2d9ffb	-0.010597224
107	0x3bf03c1f	0.0073313857
108	0x3cd0a83c	0.025470845
109	0xbb14554c	-0.0022633849
110	0x3c46a73b	0.012124832
111	0xbd598257	-0.053102817
112	0xbcf2bd98	-0.029631421
113	0x3d82dd64	0.06389883
114	0xbdc6044c	-0.09668788
115	0x3d9d41b3	0.07678547
116	0x3c6c9c3b	0.014441545
117	0x3d07add0	0.033124745
118	0x3d6e886f	0.058235582
119	0xbd5c8c1c	-0.053844556
120	0xbb291f39	-0.0025805964
121	0xbcc5db93	-0.024152553
122	0x3e0f6027	0.14001523
123	0xbd51bb6e	-0.051204138
124	0xbd053715	-0.032523233
125	0x3d7676fd	0.06017207
126	0xbcd564d9	-0.026049064
127	0xbc9e7ba1	-0.01934606
128	0xb9a09a32	-0.00030632463
129	0x3a31e324	0.0006785861
130	0xbd3cc8c1	-0.04608989
131	0xbd502ba3	-0.050822865
132	0x3d744bea	0.05964271
133	0xbdac100f	-0.084015004
134	0xbc5dafe8	-0.013530709
135	0xba9ca18f	-0.0011950004
136	0x3d80d4c6	0.06290583
137	0xbb81e8cc	-0.003964519
138	0x3d12031c	0.035647497
139	0x3ce5eff5	0.028068522
140	0x3d22fd02	0.03979207
141	0x3bfc2978	0.007695373
142	0xbd645cf9	-0.055752728
143	0xbc9c000c	-0.019042991
144	0xbddb10e7	-0.10696583
145	0x3c2371c2	0.009975852
146	0xbce1a900	-0.027546406
147	0x3d0e34f6	0.034718476
148	0xbd3520cd	-0.044220734
149	0x3ddddf72	0.108336344
150	0x3d9088e8	0.07057363
151	0xbd641b62	-0.055690177
152	0xbcb650d4	-0.022255339
153	0x3d0d39cc	0.034478948
154	0xbd9e8cfd	-0.07741735
155	0x3daf42e2	0.08557679
156	0x3d81ef5e	0.06344484
157	0x3b70cc01	0.003674269
158	0x3ccb85ec	0.024844132
159	0xbba25e08	-0.004955057
160	0x3d99c413	0.07508101
161	0xbcce4177	-0.0251777
162	0xbb2fc7ca	-0.0026821964
163	0xbd634d70	-0.055493772
164	0xbd3f8ee1	-0.04676712
165	0x3ccd7f12	0.025085006
166	0x3c4a5ee3	0.012351724
167	0x3dc33c6c	0.09533009
168	0x3cf20e84	0.029547937
169	0x3d6f2d7d	0.05839299
170	0x3c827f3a	0.015929807
171	0x3d880ac9	0.06642682
172	0x3ceecce9	0.029150443
173	0xbd12cb6c	-0.03583853
174	0x3d011cc9	0.031521592
175	0x3dceec2a	0.101036385
176	0xbd1fd9b5	-0.03902598
177	0x3de09bb8	0.10967201
178	0xbdc0a6e2	-0.0940683
179	0x3d9cb523	0.076517366
180	0x3dae8cfe	0.08522986
181	0x3e19b26b	0.15009467
182	0x3de50845	0.11183218
183	0xbd34f729	-0.044181023
184	0xbdd154e2	-0.10221268
185	0xbd703f6f	-0.058654245
186	0xbcdb3923	-0.026760643
187	0x3d90d14f	0.070711724
188	0xbdc36ca5	-0.09542207
189	0x3c997868	0.018734172
190	0xbc3a623c	-0.01137596
191	0x3d89b261	0.06723476
192	0x3d5abec8	0.0534046
193	0xbca9b3cb	-0.020715615
194	0x3cb52ef0	0.022117108
195	0x3e0a81c3	0.13526063
196	0x3d6638e1	0.056206588
197	0x3c9c78e6	0.019100618
198	0xbdb1fb63	-0.08690526
199	0xbcf770e1	-0.030205192
200	0xbd161f12	-0.036650725
201	0x3d107ce4	0.035275355
202	0xbdb929d2	-0.0904118
203	0xbddc1441	-0.107460506
204	0x3cdf873e	0.027286168
205	0xbd8df70d	-0.06931887
206	0xbc5cb12d	-0.013469976
207	0xbc9acba6	-0.018895935
208	0x3d9e4b59	0.07729215
209	0x3cf2cdbf	0.029639123
210	0xbca5bf8a	-0.020232935
211	0xbc4dbb84	-0.012556914
212	0x3c6b0ba5	0.014346038
213	0xbbfa67bd	-0.007641761
214	0x3dbb5442	0.0914693
215	0xbcf7fcce	-0.030271914
216	0xbdad8bf4	-0.084739596
217	0x3d1fd90c	0.03902535
218	0xbcb7ac46	-0.022421014
219	0xbcd90396	-0.026490968
220	0xbdbaf152	-0.091280594
221	0xbd2ce852	-0.042213745
222	0x3da04038	0.07824749
223	0x3daeeefd	0.08541677
224	0x3da4495a	0.08021803
225	0x3d990706	0.07472043
226	0xbc9b769b	-0.018977454
227	0x3d6aec29	0.057354126
228	0x3d795b72	0.060878225
229	0x3cb2945c	0.021799259
230	0x3cafd24a	0.021462578
231	0x3d23dc90	0.040005267
232	0x3d99d98f	0.07512199
233	0xbd2384be	-0.039921515
234	0x3d2f80a6	0.042847298
235	0x3e206c88	0.15666401
236	0xbcdb84e8	-0.026796773
237	0xbb14ac66	-0.0022685765
238	0x3c373397	0.011181734
239	0xbd0e27a9	-0.03470579
240	0xbd7faaab	-0.06241862
241	0x3cdc3b09	0.026883619
242	0x3cfe0c9f	0.031011878
243	0x3d491218	0.04908952
244	0x3de09749	0.10966355
245	0x3da46404	0.08026889
246	0x3d40f6a0	0.0471102
247	0x3c193107	0.009350068
248	0x3d4685b8	0.048467368
249	0xbd52349a	-0.051319696
250	0x3cba1c19	0.022718476
251	0xbd000ab9	-0.031260226
252	0xbdb52b24	-0.08846119
253	0x3cf5f41d	0.030023629
254	0x3c0f5df2	0.008750426
255	0xbd279fa6	-0.040923737

sequential_1/lstm_1_2/while/lstm_cell_1/add_1/ReadVariableOp f4 [512]
0	0x3c5600ab	0.013061683
1	0x3cd47c47	0.025938166
2	0x3ce79d45	0.028273234
3	0x3d011d40	0.031522036
4	0x3c1a0ea7	0.009402907
5	0x3ca57c32	0.020200823
6	0x3c119cc3	0.008887473
7	0x3c994743	0.018710738
8	0x3d0ceb2c	0.034403965
9	0x3b992ad0	0.004674293
10	0x3d21bb46	0.03948524
11	0x3c9e107a	0.019294966
12	0xbaba41d1	-0.0014210289
13	0x3c54ad51	0.012980775
14	0x3c0940de	0.008377282
15	0x3c405d84	0.011741046
16	0x3c71d068	0.014759161
17	0x3c92fd9d	0.017943198
18	0x3c81e58d	0.015856529
19	0x3cf2af3a	0.02962457
20	0x3b925513	0.004465708
21	0x3cf1036b	0.029420575
22	0x3c79072c	0.015199464
23	0x3c15404c	0.009109568
24	0x3c4ed4ae	0.012623949
25	0x3c748983	0.0149253635
26	0x3c899623	0.016795224
27	0x3ca9703e	0.020683404
28	0x3d05f263	0.03270186
29	0x3c4c4504	0.0124676265
30	0x3c92a6ae	0.017901745
31	0x3c9a77ea	0.018856008
32	0x3cf42942	0.02980483
33	0x3c83a256	0.016068619
34	0x3ce8c153	0.028412497
35	0x3c20ff10	0.009826437
36	0x3b5e5790	0.0033926703
37	0x3c8bc0d6	0.017059725
38	0x3cc24c87	0.023718132
39	0x3cafdf1a	0.021468688
40	0x3d182ef0	0.037154138
41	0x3c5844b7	0.013199977
42	0x3b819e7e	0.0039556613
43	0x3c36799d	0.011137393
44	0x3c3259e9	0.010885694
45	0x3caa946e	0.02082273
46	0x3cded749	0.027202265
47	0x3cb732c8	0.022363082
48	0x3d089a43	0.03335024
49	0x3c64d408	0.013966568
50	0x3c5be41e	0.013421087
51	0x3c8fb640	0.017542958
52	0x3ca24607	0.019808782
53	0x3c9c1e9b	0.019057563
54	0x3ce1241d	0.02748304
55	0x3cd0b245	0.02547563
56	0x3ca6401e	0.020294245
57	0x3c901784	0.017589338
58	0x3cdab478	0.026697382
59	0x3c24c38d	0.010056389
60	0x3c47f0ea	0.0122034345
61	0x3cfb0a4b	0.030644557
62	0x3d093dcd	0.033506203
63	0x3ca7bd9f	0.02047616
64	0x3c67aaf6	0.014139881
65	0x3c8c7b39	0.0171486
66	0x3c38caa9	0.011278787
67	0x3c7b94f4	0.015355337
68	0x3c842eed	0.016135657
69	0x3c41872b	0.011812012
70	0x3c80df76	0.015731554
71	0x3cef1de2	0.029189054
72	0x3c0df7ad	0.008665008
73	0x3b33b390	0.002742026
74	0x3bf9db92	0.007625052
75	0x3c2f8898	0.010713719
76	0x3cc1a9af	0.023640482
77	0x3c9108d8	0.017704412
78	0x3c81c194	0.015839376
79	0x3cff9e62	0.031203452
80	0x3c0894c2	0.008336248
81	0x3c51e003	0.012809756
82	0x3c609241	0.013706745
83	0x3c38fde8	0.011291005
84	0x3caede20	0.021346152
85	0x3c390c5a	0.011294449
86	0x3c26f7ee	0.010190947
87	0x3cb757f6	0.02238081
88	0x3c824969	0.015904145
89	0x3cfef79f	0.031123934
90	0x3cc06761	0.023486795
91	0x3cd73dcf	0.02627459
92	0x3cb13790	0.02163294
93	0x3c12caa6	0.008959448
94	0x3c633be2	0.013869258
95	0xbbb48ac4	-0.005509706
96	0x3c913635	0.017726043
97	0x3c52bebf	0.01286286
98	0x3c94075d	0.018069917
99	0x3ca9d871	0.02073309
100	0x3d11355e	0.035451286
101	0x3c944696	0.018100064
102	0x3cbafe03	0.0228262
103	0x3c8947f3	0.01675794
104	0x3c5f9262	0.01364574
105	0x3ca18be1	0.01972002
106	0x3d252029	0.040313873
107	0x3bb0bbb7	0.005393471
108	0x3c257cee	0.010100586
109	0x3c82b963	0.01595754
110	0x3d5f05b8	0.054448813
111	0x3c83d6ad	0.016093576
112	0x3c900cea	0.017584283
113	0x3c82f77d	0.015987152
114	0x3bd38f33	0.0064562797
115	0x3c866a99	0.016408252
116	0x3cb1b5d2	0.021693144
117	0x3cb090f5	0.021553496
118	0x3cea844e	0.02862754
119	0x3cbf70f6	0.023369294
120	0x3c21722c	0.009853881
121	0x3c1cd72a	0.0095727835
122	0x3d0edb7c	0.034877285
123	0x3c4225e6	0.011849856
124	0x3c80bf69	0.015716271
125	0x3c9806d4	0.018557943
126	0x3c5e0a0a	0.013552198
127	0x3cbf01bd	0.023316259
128	0x3f81a40f	1.0128192
129	0x3f8225d2	1.0167792
130	0x3f82d132	1.0220091
131	0x3f83e83f	1.0305251
132	0x3f812708	1.0090036
133	0x3f8107a0	1.0080452
134	0x3f81ccfc	1.0140681
135	0x3f81d630	1.014349
136	0x3f82a7be	1.0207441
137	0x3f7e76b4	0.99399877
138	0x3f821971	1.0164014
139	0x3f816663	1.0109371
140	0x3f8120ed	1.0088173
141	0x3f816d93	1.0111564
142	0x3f8252d0	1.0181522
143	0x3f828458	1.0196638
144	0x3f82ca85	1.0218054
145	0x3f829d00	1.0204163
146	0x3f811943	1.0085834
147	0x3f81c552	1.0138342
148	0x3f8114ff	1.0084532
149	0x3f827f5e	1.0195119
150	0x3f8131a9	1.009328
151	0x3f81951c	1.012363
152	0x3f80b305	1.0054632
153	0x3f82715a	1.0190842
154	0x3f82006a	1.0156376
155	0x3f81bf11	1.0136434
156	0x3f81e815	1.0148951
157	0x3f81cad5	1.0140024
158	0x3f818a1d	1.0120274
159	0x3f7fdca6	0.9994606
160	0x3f830162	1.0234797
161	0x3f8186b9	1.0119239
162	0x3f8203fd	1.0157467
163	0x3f813cce	1.0096681
164	0x3f80ae8c	1.0053267
165	0x3f80a885	1.0051428
166	0x3f81c124	1.0137067
167	0x3f817a64	1.0115476
168	0x3f825ac1	1.0183946
169	0x3f80fa73	1.0076431
170	0x3f7e6a61	0.9938107
171	0x3f83570e	1.0260942
172	0x3f820855	1.0158793
173	0x3f815288	1.0103312
174	0x3f813f21	1.009739
175	0x3f82bf8d	1.0214707
176	0x3f80dfdb	1.0068315
177	0x3f827f06	1.0195014
178	0x3f81b954	1.0134683
179	0x3f817c46	1.011605
180	0x3f822d6a	1.0170109
181	0x3f81b27f	1.0132598
182	0x3f84096a	1.0315373
183	0x3f824eec	1.0180335
184	0x3f81dfe6	1.0146453
185	0x3f81f663	1.0153316
186	0x3f8225c9	1.0167781
187	0x3f80f07f	1.0073394
188	0x3f81ded5	1.0146128
189	0x3f83004a	1.0234463
190	0x3f82f440	1.0230789
191	0x3f81b2ec	1.0132728
192	0x3f82b67b	1.0211939
193	0x3f80ec22	1.0072062
194	0x3f81be1a	1.0136139
195	0x3f82be08	1.0214243
196	0x3f80ccda	1.0062516
197	0x3f81c6c2	1.0138781
198	0x3f8170d8	1.0112562
199	0x3f836305	1.0264593
200	0x3f81579d	1.0104862
201	0x3f7ece39	0.9953342
202	0x3f8058e6	1.002713
203	0x3f814793	1.0099968
204	0x3f8295e5	1.0201994
205	0x3f814217	1.0098294
206	0x3f8131cc	1.0093322
207	0x3f823e1d	1.0175205
208	0x3f81cf6c	1.0141425
209	0x3f82281c	1.016849
210	0x3f8248f8	1.0178518
211	0x3f815d87	1.0106667
212	0x3f8151fc	1.0103145
213	0x3f813b96	1.0096309
214	0x3f812268	1.0088625
215	0x3f82392f	1.0173701
216	0x3f81c37e	1.0137784
217	0x3f8298a0	1.0202827
218	0x3f81a28b	1.0127729
219	0x3f82a581	1.0206758
220	0x3f824a1c	1.0178866
221	0x3f80ee35	1.0072695
222	0x3f81aa6c	1.0130134
223	0x3f7ec317	0.99516433
224	0x3f81b67f	1.0133818
225	0x3f80a817	1.0051297
226	0x3f83453d	1.0255505
227	0x3f81babb	1.0135111
228	0x3f826259	1.0186263
229	0x3f816f4c	1.011209
230	0x3f825653	1.0182594
231	0x3f819882	1.0124667
232	0x3f804bf8	1.0023184
233	0x3f81d161	1.0142022
234	0x3f8368d7	1.026637
235	0x3f8095dd	1.0045735
236	0x3f81b03b	1.0131906
237	0x3f815390	1.0103626
238	0x3f824777	1.0178059
239	0x3f8210e0	1.01614
240	0x3f80f6d0	1.0075321
241	0x3f80b674	1.005568
242	0x3f8169fb	1.0110468
243	0x3f81e7ce	1.0148866
244	0x3f831d32	1.0243285
245	0x3f825b71	1.0184156
246	0x3f822cbc	1.0169902
247	0x3f8162c0	1.0108261
248	0x3f81a5ea	1.0128758
249	0x3f821d0d	1.0165116
250	0x3f819e03	1.0126346
251	0x3f80dcaf	1.0067347
252	0x3f821eab	1.0165609
253	0x3f82ada7	1.0209244
254	0x3f7f1a1d	0.9964922
255	0x3f805eae	1.0028894
