app/src/main/assets/Modelo1.tflite (tflite, 949124 bytes, 10 tensors)

sequential/lstm/Read_2/ReadVariableOp f4 [512]
000000 f9 65 c9 3b ad 7e c9 3c 0a 8c 8c 3d fc 99 26 3c
       0.0061461893 0.024596537 0.06862648 0.010168549
000010 f2 22 21 3c 3e d8 2a 3c be 30 26 3b 74 ed f1 3c
       0.009834992 0.010427533 0.0025358642 0.029532172
000020 06 52 8e 3c df 87 b1 3c 9f 05 e9 3b 7a 0b bc 3b
       0.017373096 0.021671234 0.007111266 0.005738673
000030 6f eb 8b 3c 66 3d 0c 3d a8 80 9d 3b 4f 2b 2d 3c
       0.017080037 0.03423824 0.004806597 0.010569408
000040 2f 04 51 3b 98 42 bd 3c ac 3f 98 3b 06 03 93 3b
       0.0031893363 0.023103043 0.004646262 0.0044864444
000050 2d 55 94 3b 6c 3a 0a 3d 03 d6 55 3c 7a b2 3a 3c
       0.0045267553 0.03374712 0.013051513 0.011395091
000060 49 8f c1 3b c8 4a d0 3a f4 bf f4 3a 3e 52 98 3c
       0.0059069735 0.0015891427 0.0018672929 0.018593904
000070 ac 6f 8d 3b 3c d5 c3 3b 5c 5b 32 3c 68 a6 33 3a
       0.004316291 0.0059763473 0.01088604 0.00068531046
000080 03 6d 18 3c 6c ac a8 3b 60 58 9b 3b 61 b6 8f 3c
       0.009303334 0.0051475074 0.0047407597 0.01754302
000090 18 a4 c4 3c 7d c4 18 3c 2f d7 a3 3c 82 74 08 3c
       0.024004027 0.00932419 0.020000068 0.008328559
0000a0 fc 2a 98 3c b8 7e c9 3c f8 62 ee 3a d4 a5 b2 3b
       0.018575184 0.024596557 0.0018187454 0.005451897
0000b0 1a ad 79 3c 44 23 e0 3b 96 54 fb 3c 16 e0 bc 3c
       0.015239025 0.0068401415 0.030679982 0.023056071
0000c0 62 a3 24 3c 4f 90 f6 3b 04 a2 01 3d 20 67 a6 3c
       0.010048719 0.007524527 0.03164865 0.020312846
0000d0 20 f1 67 3c e2 d4 53 3d 0c 66 69 3b 7b d6 e0 3c
       0.01415661 0.051716693 0.0035613803 0.027446022
0000e0 68 fe e2 3b fb 78 11 3b 25 de bd 3b 3d d8 81 3c
       0.0069273002 0.0022197354 0.005794304 0.01585018
0000f0 18 c1 41 3b 31 96 47 3b 91 96 0d 3d c9 e2 8e 3c
       0.0029564556 0.0030454511 0.03456742 0.017442124
000100 01 63 2e 3d 80 1f ef 3b 78 3d da 3b 5f 41 d3 3b
       0.042574886 0.0072974563 0.0066601597 0.006447002
000110 a8 d5 bb 3b 6f 2d 54 3c f6 60 42 3c 59 cf ac 3b
       0.005732257 0.012950285 0.011863938 0.005273741
000120 74 82 03 3c 74 da c6 3b 30 82 34 3d 58 84 81 3b
       0.008026708 0.006068522 0.04406947 0.003952544
000130 a5 b6 11 3b 63 a5 b5 3b a2 08 ef 3c 6f 69 14 3c
       0.0022234109 0.0055433973 0.029178921 0.00905834
000140 52 26 94 3b f5 2d cc 3c 2d d2 f0 3b 69 d2 bc 3b
       0.0045211697 0.024924258 0.0073492737 0.0057623875
000150 1f ca 5c 3c 3c 6e 70 3c bc aa 5e 3c f5 9a 6d 3c
       0.013475924 0.014674719 0.013590511 0.014502277
000160 f2 2e aa 3b be 9e 87 3b f8 19 3a 3a da b0 85 3b
       0.0051935846 0.0041387966 0.00070992066 0.0040799202
000170 d2 a6 69 3c b2 0c b5 3b 2a 9b e3 3b 2d a3 c1 3b
       0.0142609645 0.005525195 0.006945987 0.0059093446
000180 7b f3 0a 3c fb 0a c3 3b 8c 0d f7 3c 2f 27 01 3c
       0.008480902 0.0059522367 0.030157827 0.007882877
000190 57 85 c4 3b 67 c7 7e 3b 94 23 ee 3b c9 c5 a7 3c
       0.0059973407 0.0038876177 0.007267425 0.020480053
0001a0 e2 b0 c6 3c d0 c3 f1 3b a1 95 81 3b 39 24 3f 3c
       0.024254266 0.007378079 0.0039546047 0.011666351
0001b0 d1 61 b6 3b eb e5 cc 3c a5 cc 29 3b 3f 86 8b 3c
       0.00556586 0.025011977 0.002590933 0.017031787
0001c0 51 32 ef 3c 80 95 f4 3b 31 13 17 3c 66 b2 31 3c
       0.029198797 0.007464111 0.009220884 0.010845756
0001d0 b1 b4 e0 3b 3e 6b 44 3d f0 34 d7 3c 62 57 63 3c
       0.0068574776 0.047953837 0.02627036 0.013875814
0001e0 8e cf e9 3b ba e7 2b 3d e7 57 37 3c 5a d1 5b 3b
       0.007135338 0.04196904 0.011190391 0.0033541531
0001f0 60 8d 52 3b 58 e3 96 3c 2f 41 af 3c 04 2c 43 3c
       0.0032127723 0.018418953 0.021393387 0.01191235
000200 12 d4 80 3f 01 cf 82 3f 75 cb 87 3f 14 e0 80 3f
       1.0064719 1.0219423 1.0608965 1.0068383
000210 70 54 81 3f 98 60 81 3f 5f 8a 80 3f ac 58 83 3f
       1.0103893 1.0107603 1.0042228 1.0261436
000220 18 0a 82 3f 39 38 82 3f f9 04 81 3f f2 76 80 3f
       1.015933 1.0173408 1.0079643 1.0036299
000230 33 2c 82 3f 57 d7 83 3f 39 8e 80 3f 74 6b 81 3f
       1.0169739 1.0300092 1.0043403 1.0110917
000240 1b 7f 80 3f 95 bc 82 3f 17 84 80 3f 76 50 80 3f
       1.003879 1.0213801 1.0040311 1.0024555
000250 55 37 80 3f 05 e9 83 3f ba a4 81 3f 53 3d 81 3f
       1.0016886 1.0305487 1.0128396 1.009684
000260 5a 4e 80 3f 16 65 80 3f af 48 80 3f 26 19 82 3f
       1.0023911 1.0030849 1.0022181 1.0163925
000270 68 69 80 3f 1d a3 80 3f ac 66 81 3f 6b d1 7f 3f
       1.0032167 1.0049778 1.0109458 0.9992892
000280 18 91 81 3f 4e 99 80 3f 92 9f 80 3f d5 d2 81 3f
       1.0122404 1.0046785 1.0048697 1.0142466
000290 17 e1 82 3f 0a 0d 81 3f 81 be 81 3f bd d2 80 3f
       1.0224942 1.0082104 1.0136262 1.0064312
0002a0 61 5f 82 3f 63 9f 82 3f e8 1b 80 3f 50 c0 80 3f
       1.0185357 1.0204891 1.0008516 1.0058689
0002b0 9b c7 81 3f cc 3d 81 3f 7f 25 83 3f d6 4e 82 3f
       1.013904 1.0096984 1.0245818 1.0180309
0002c0 4b 1b 81 3f 02 a8 80 3f 3f 89 83 3f 77 2d 82 3f
       1.0086454 1.0051272 1.0276259 1.0170125
0002d0 cd ad 81 3f 5f d5 85 3f ee a5 80 3f 0b 27 83 3f
       1.0131165 1.0455741 1.0050638 1.024629
0002e0 9a d1 80 3f f9 52 80 3f b2 a5 80 3f b7 4c 81 3f
       1.0063965 1.0025321 1.0050566 1.0101537
0002f0 ce 3c 80 3f 16 64 80 3f 70 81 83 3f ef 96 81 3f
       1.0018556 1.0030544 1.0273876 1.0124186
000300 03 3f 85 3f 49 2d 81 3f d4 df 80 3f 5b e2 80 3f
       1.0409855 1.0091945 1.0068307 1.0069078
000310 de c9 80 3f fe 00 81 3f 98 49 81 3f bf 9f 80 3f
       1.0061605 1.0078428 1.0100584 1.0048751
000320 80 2c 81 3f 9c f2 80 3f 7d e8 84 3f 91 38 80 3f
       1.0091705 1.0074039 1.038345 1.0017263
000330 e2 69 80 3f 7a 4d 80 3f 1a 60 83 3f 56 05 81 3f
       1.0032313 1.0023644 1.0263703 1.0079753
000340 51 ca 80 3f 8e d2 82 3f 43 57 81 3f cb 5d 80 3f
       1.0061742 1.0220506 1.0104755 1.0028623
000350 43 92 81 3f 91 e1 81 3f 68 7b 81 3f 05 4c 81 3f
       1.012276 1.0146962 1.0115786 1.0101324
000360 6c 9c 80 3f fa 19 81 3f d2 3a 80 3f 45 7b 80 3f
       1.0047736 1.0086052 1.001795 1.0037619
000370 cc 58 81 3f 95 fd 80 3f 9f c4 80 3f f7 e7 80 3f
       1.0105224 1.0077387 1.0060004 1.007079
000380 4c d0 80 3f 0c 71 80 3f 55 93 83 3f c4 bd 80 3f
       1.0063567 1.0034499 1.0279337 1.0057912
000390 b1 5e 80 3f 0c 7d 80 3f 3d 00 81 3f 2b 37 82 3f
       1.0028898 1.0038161 1.0078198 1.0173086
0003a0 24 f0 82 3f 11 e9 80 3f ba 92 80 3f bd 42 81 3f
       1.0229535 1.0071126 1.0044777 1.0098492
0003b0 d0 2e 80 3f 6f 9f 82 3f ae 5b 80 3f db c3 81 3f
       1.0014286 1.0204905 1.0027978 1.0137895
0003c0 66 e7 82 3f 78 1e 81 3f a0 bb 80 3f 61 28 81 3f
       1.0226867 1.0087423 1.0057259 1.0090448
0003d0 14 8f 80 3f 38 97 85 3f de 0b 83 3f bf 7c 81 3f
       1.0043664 1.0436773 1.0237997 1.0116194
0003e0 3a d6 80 3f 3d 0f 85 3f d1 20 81 3f f3 3b 80 3f
       1.0065377 1.0395275 1.008814 1.0018295
0003f0 91 66 80 3f 0d bf 81 3f c3 d6 82 3f ab 37 81 3f
       1.0031301 1.0136429 1.022179 1.0095114

sequential/lstm_1/Read_2/ReadVariableOp f4 [512]
000000 62 67 26 3c 24 fb a3 3b f8 59 37 3c 64 e7 a0 3c
       0.010156484 0.0050043035 0.011190884 0.019641586
000010 45 af 81 3c 49 75 00 3c f6 10 60 3c 45 94 94 3c
       0.015830645 0.007840463 0.013675919 0.018137107
000020 96 bf d9 3c 58 40 17 3c 8a 9f 9d 3c 6a bd b1 3c
       0.026580613 0.009231649 0.019241113 0.021696765
000030 b9 80 11 3c 68 6a 85 3c b8 1d c9 3b b7 66 48 3c
       0.0088807875 0.01628609 0.006137576 0.01223152
000040 1f 2f 80 3c 9d ae 22 3c 9f e8 b8 3c 21 89 29 3c
       0.01564747 0.009929326 0.02257186 0.0103476355
000050 e4 22 85 3c f8 7e 8c 3c 6b bf 81 3c fe 3b 06 3d
       0.016251989 0.017150387 0.015838346 0.032772057
000060 e0 44 89 3c 9b c7 b8 3c ad f5 ef 3c 56 e7 d0 3c
       0.016756475 0.022556117 0.029291952 0.025500935
000070 ab 91 b8 3c 66 ae 71 3c 58 dd 18 3c d0 f0 c5 3c
       0.022530397 0.0147510525 0.009330116 0.02416268
000080 df 82 9a 3c dd df 42 3c dd 7b 8d 3c 8d 19 13 3c
       0.018861232 0.0118941935 0.017270977 0.00897826
000090 8f e1 5c 3c fa e5 3c 3c 5b d2 1f 3c 1a 76 25 3c
       0.013481512 0.01152944 0.0097547425 0.010098958
0000a0 b9 bf 98 3c 77 b5 9e 3c 35 eb 87 3c ea 1a a4 3c
       0.018646108 0.019373639 0.016591648 0.020032365
0000b0 5c 1c e1 3c ea c2 ca 3c bc ad 18 3c 87 38 5b 3c
       0.027479343 0.024751145 0.009318765 0.013380176
0000c0 a4 e2 6b 3c b0 ad c5 3c b8 39 31 3c 77 6c 20 3c
       0.014397297 0.024130672 0.010816984 0.009791485
0000d0 9a b7 be 3c d1 b2 b3 3c 2f 53 82 3c 33 85 d1 3b
       0.023280907 0.021935852 0.015908806 0.0063940524
0000e0 76 01 21 3c 7a 8e 4b 3c 79 84 d9 3b 36 d9 ac 3a
       0.0098270085 0.012424106 0.0066381064 0.0013187292
0000f0 c5 ba e3 3c d7 31 85 3c 54 f5 82 3c 69 a3 2f 3c
       0.02779902 0.016259117 0.015986122 0.010720112
000100 e1 a2 9b 3c 28 0b 5f 3c e2 8f 8e 3c 6b 6e dd 3b
       0.018998565 0.0136135 0.017402593 0.0067575476
000110 97 09 b3 3a a8 69 e6 3c a5 28 c1 3c 4b 1c 85 3c
       0.0013659474 0.028126553 0.023578951 0.016248843
000120 1b 5d ac 3b 26 4f ab 3c 86 68 96 3c f7 60 82 3c
       0.0052601225 0.020911764 0.018360388 0.015915377
000130 88 e7 25 3c e4 6c 8b 3c 3b 17 d8 3c 2d 12 8a 3b
       0.010126002 0.017019697 0.026378265 0.0042135925
000140 d4 01 cb 3b 9f ff 65 3c 6e 68 f3 3b b3 b1 92 3c
       0.0061952863 0.014037996 0.0074282205 0.017907
000150 c6 48 b0 3c 79 b9 db 3c 4e 08 65 3c c2 b4 95 3c
       0.021519076 0.026821839 0.013979031 0.018274669
000160 00 c5 99 3c 2d 72 49 3b 85 25 cc 3c e3 c1 59 3c
       0.018770695 0.003073822 0.024920234 0.013290855
000170 38 9c 7f 3b 27 3f af 3b 7b a6 6b 3c 34 f1 e1 3c
       0.0039003026 0.0053481045 0.014382954 0.027580835
000180 3a 73 31 3b 16 09 73 3c b5 aa 70 3c 0b b5 12 3d
       0.0027076737 0.014833709 0.014689137 0.035817187
000190 e7 95 d3 3b 1b 66 af ba c9 ca 4e 3c e7 38 5c 3b
       0.0064570787 -0.001338187 0.01262159 0.0033603252
0001a0 9e eb 69 3c 00 f9 87 3c e4 41 cb 3c fe cb dd 3c
       0.014277367 0.016598225 0.024811693 0.02707481
0001b0 a0 c7 7c 3c 91 63 e1 3c 96 e3 5e 3c d7 d6 17 3c
       0.015428454 0.027513297 0.013604065 0.00926753
0001c0 45 b6 d2 3b fd ee 68 3c 51 17 8f 3c bd 40 8e 3c
       0.0064304196 0.0142171355 0.017467173 0.017364854
0001d0 d2 a2 d7 3c 1d e5 c2 3c 48 17 55 3c bd 3e b7 3b
       0.026322756 0.02379089 0.013006039 0.005592196
0001e0 c7 fc 2c 3c 75 f3 d7 3c d3 1b 08 3b ec ca 72 3c
       0.010558314 0.026361207 0.0020768538 0.014818888
0001f0 23 6c 8b 3c 80 c6 90 3c 3f ab a3 3c 55 65 5f 3c
       0.017019337 0.017672777 0.019979117 0.013634999
000200 43 db 81 3f 9c d1 81 3f fb 8e 81 3f a0 af 81 3f
       1.0145038 1.0142093 1.0121759 1.0131721
000210 06 33 81 3f b3 71 81 3f 58 80 81 3f e6 b3 82 3f
       1.0093696 1.0112823 1.0117292 1.0211151
000220 bd 11 83 3f 7d ba 80 3f 8f a1 82 3f 27 9b 82 3f
       1.0239788 1.0056912 1.0205554 1.0203599
000230 a9 ef 81 3f 0a 87 81 3f d5 8a 7f 3f 8e e6 81 3f
       1.0151263 1.0119336 0.99821216 1.0148485
000240 e1 a8 80 3f 30 c2 82 3f 35 08 82 3f dc f9 80 3f
       1.0051538 1.0215511 1.0158755 1.0076251
000250 d8 85 81 3f 29 2f 81 3f 47 94 81 3f 57 04 83 3f
       1.0118971 1.0092517 1.0123376 1.02357
000260 1f e0 81 3f 9e 9f 81 3f 5b 4d 81 3f 72 93 82 3f
       1.0146521 1.0126836 1.0101732 1.0201247
000270 c9 cc 81 3f 00 fb 82 3f bc 05 83 3f 7b f1 80 3f
       1.014062 1.0232849 1.0236125 1.0073694
000280 e1 0d 81 3f 9d e2 81 3f 95 a8 81 3f 93 c1 80 3f
       1.008236 1.0147282 1.0129572 1.0059074
000290 78 92 81 3f 86 78 80 3f d8 81 82 3f fd ef 81 3f
       1.0122824 1.0036781 1.0195875 1.0151364
0002a0 af 69 81 3f 8e ac 80 3f c3 20 81 3f 33 d7 82 3f
       1.0110377 1.005266 1.0088123 1.0221924
0002b0 a9 29 82 3f fe fe 81 3f a7 41 81 3f d9 d1 81 3f
       1.0168964 1.0155942 1.009816 1.0142165
0002c0 91 c2 80 3f af 81 80 3f da 58 82 3f eb e4 81 3f
       1.0059377 1.0039576 1.0183365 1.0147985
0002d0 69 48 82 3f f3 43 82 3f 15 dd 80 3f 86 20 81 3f
       1.0178348 1.0176986 1.0067469 1.008805
0002e0 91 eb 81 3f 0f 4b 81 3f 13 a0 80 3f 1c 57 80 3f
       1.0150014 1.0101031 1.0048851 1.0026584
0002f0 b0 5a 83 3f 2b 7e 81 3f 5b 3a 83 3f 45 22 80 3f
       1.0262051 1.0116628 1.0252184 1.0010458
000300 32 6e 80 3f 0f b6 81 3f 5a a1 81 3f 61 86 81 3f
       1.0033629 1.0133685 1.0127366 1.0119134
000310 2d 4e 80 3f f1 77 81 3f 29 c4 81 3f 10 bf 81 3f
       1.0023857 1.0114728 1.0137988 1.0136433
000320 55 51 80 3f 9b db 81 3f 3c 36 81 3f 5e 2b 82 3f
       1.002482 1.0145143 1.0094676 1.0169485
000330 de fa 80 3f 3e 0c 80 3f f4 58 83 3f 80 73 80 3f
       1.0076559 1.0003736 1.0261521 1.0035248
000340 27 3f 82 3f e4 3c 82 3f b3 ab 80 3f 21 35 81 3f
       1.0175523 1.0174832 1.0052398 1.0094339
000350 c6 00 81 3f 36 4b 81 3f d8 18 83 3f 29 8e 81 3f
       1.0078361 1.0101078 1.0241957 1.0121509
000360 ce 4b 81 3f 7c 39 81 3f 2b 27 82 3f fb 70 81 3f
       1.0101259 1.0095668 1.0168203 1.0112604
000370 a9 e8 81 3f 14 3c 81 3f ad 94 81 3f 16 4e 82 3f
       1.0149127 1.0096459 1.0123497 1.018008
000380 dc ed 80 3f 78 29 81 3f 6d 11 81 3f 91 90 82 3f
       1.0072589 1.009078 1.0083443 1.0200368
000390 16 16 80 3f 03 a9 7f 3f 98 ea 81 3f 94 be 82 3f
       1.000674 0.99867266 1.0149717 1.021441
0003a0 50 04 83 3f 65 94 83 3f 80 d3 82 3f b4 13 81 3f
       1.0235691 1.0279661 1.0220795 1.0084138
0003b0 ad 6d 81 3f af cf 83 3f 6b b1 82 3f f5 fc 81 3f
       1.0111595 1.0297755 1.0210394 1.0155321
0003c0 7e a2 7f 3f 84 da 80 3f b8 9d 82 3f 61 45 81 3f
       0.9985732 1.0066686 1.0204382 1.0099298
0003d0 26 70 81 3f a1 38 83 3f 81 9c 7f 3f df 00 81 3f
       1.011235 1.0251657 0.9984818 1.0078391
0003e0 00 c8 80 3f 18 de 82 3f 71 d9 80 3f 0d 5a 82 3f
       1.0061035 1.0224028 1.0066358 1.0183731
0003f0 43 cc 80 3f c8 bc 81 3f 6f 99 80 3f dd dc 80 3f
       1.0062336 1.0135736 1.0046824 1.0067402

sequential/dense/BiasAdd/ReadVariableOp f4 [18]
000000 e4 fa bd bb 6c fb ed bc 2a 3a ea bb 76 b5 8d bc
       -0.0057977308 -0.029050551 -0.007148047 -0.017298441
000010 42 b8 db 3a 2f 85 ad 3b 30 4c 04 bc 00 0a 82 bc
       0.0016763287 0.0052954177 -0.008074805 -0.015873909
000020 e3 a9 5e bd 9f ac a3 3b 87 4d 57 b9 e1 66 cd bb
       -0.054361235 0.0049949433 -0.00020532879 -0.0062683676
000030 4e 1a 3b 3b df 02 ed bb 14 d2 01 3c e5 7b 48 3c
       0.0028549614 -0.0072330083 0.007923622 0.01223657
000040 6c c4 83 3a 91 0e 8c 3b
       0.0010053045 0.0042741974

sequential/dense/MatMul f4 [18, 128]
000000 ad b8 6b bd 38 4e 89 be ba 94 e5 3d d9 d0 11 3e
       -0.057549167 -0.2681749 0.11210008 0.14239825
000010 ce f8 3e 3e 0a a6 d4 3d 4a 5c 0c 3e 57 bc 24 3c
       0.18649599 0.10383232 0.1370708 0.010054669
000020 ae fc 01 3e 08 25 86 be 74 84 7b be 05 40 f4 bb
       0.12694046 -0.26200128 -0.24562246 -0.007453921
000030 30 77 55 bd 3c 15 52 3e 37 c6 08 3e 22 7b 99 bd
       -0.05211562 0.20515913 0.13356863 -0.07494189
000040 c2 d2 39 3e c8 dc 0e 3d 2c 46 10 3e 83 eb 9e bb
       0.18146804 0.034878522 0.14089268 -0.0048498525
000050 f4 3b 30 be 5d 73 f0 bc c7 96 22 be 24 fd 89 3e
       -0.1721037 -0.029351884 -0.1587783 0.26950943
000060 41 39 2e 3e d0 fc 15 3d 6d bd 55 be 7a 3c 7b be
       0.17014028 0.036618054 -0.20873041 -0.24534789
000070 e5 54 ff 3c 8a 35 be bd 60 98 e5 3d d5 30 0d be
       0.03116841 -0.092875555 0.11210704 -0.13788159
000080 60 8e 4f 3c 93 9d f4 bc 5c c2 27 be 6b 3e 5a 3e
       0.012668222 -0.029860293 -0.16382736 0.21312873
000090 c9 70 1d be 24 27 bd bd 5d f8 cb bc 42 d5 4d bc
       -0.15375055 -0.09235981 -0.024898702 -0.012563052
0000a0 5e 69 49 3d f3 64 b2 3d 73 43 12 be 0c 52 c4 3d
       0.04917275 0.08710661 -0.14283542 0.09585962
0000b0 60 6e 0f be c5 a5 df 3d 8e a0 29 be 44 ca fe 3d
       -0.14006948 0.1092029 -0.16565153 0.12440923
0000c0 76 ca 54 3d ae 59 e0 bd cd d5 3d be eb d1 d4 3d
       0.051950894 -0.10954605 -0.1853859 0.10391601
0000d0 2b ee 91 3e d1 f5 81 be 91 60 29 3e 18 24 02 bd
       0.2850202 -0.25382856 0.16540743 -0.031772703
0000e0 ab ed 55 3d 8d 92 41 3e 55 d5 97 bd 88 4b cf 3d
       0.05222861 0.18903561 -0.07413737 0.10121828
0000f0 3a 42 5f be 75 94 e5 3c 17 4b 34 3d 6b d2 76 bd
       -0.21802607 0.028024891 0.044016924 -0.060259264
000100 a4 81 ee bd 43 1b f1 3d 9b 41 04 be 39 b7 0c be
       -0.11645821 0.11772778 -0.12915652 -0.13741769
000110 b7 bb 29 3e 5d 36 54 3e 24 e8 8d 3c 46 ce f6 3b
       0.16575514 0.20723863 0.017322607 0.007531914
000120 ed b1 86 3d 35 e7 3d 3e 44 ae 06 be 78 62 af be
       0.065769054 0.1854523 -0.13152415 -0.34254813
000130 b9 19 f7 3d fd 4e 80 3e a0 83 96 3d b1 5e 5e be
       0.12065453 0.25060263 0.07349324 -0.2171581
000140 0c 97 9e be 78 64 f3 bc 90 a6 2f 3e 58 61 9a 3d
       -0.30974615 -0.029710993 0.17153382 0.07538098
000150 1b 02 1d 3e 68 00 7c 3d d2 c0 68 3e cc 12 92 3d
       0.15332834 0.061523825 0.22729805 0.071324915
000160 37 d0 1e be 98 e3 d0 bc b7 2f 79 be f4 fd 36 be
       -0.15509115 -0.02549915 -0.24334608 -0.17870313
000170 7d fa 80 3e 05 fc 65 be 0f cb f2 bd e8 28 3c bd
       0.25191107 -0.22459419 -0.118551366 -0.04593745
000180 11 e1 65 be 1f 6b 5e be 84 62 2f bc d1 80 1e be
       -0.22449137 -0.21720551 -0.01070464 -0.15478827
000190 ca 90 21 3e 85 74 4a 3e 48 99 1e 3e 4f da 8a 3d
       0.15777889 0.19771011 0.1548816 0.0677992
0001a0 71 5e 23 be 35 1d e2 3d b9 bc f1 bd 57 e0 ab bd
       -0.15953995 0.11040727 -0.11803574 -0.08392399
0001b0 4d 2f 45 3e c4 ae af 3b e4 29 6b bd 5e f5 38 bd
       0.19256325 0.00536141 -0.057412997 -0.045155875
0001c0 55 a2 44 3e b9 5c 81 3e a2 11 02 be f2 41 9a bd
       0.1920255 0.25266054 -0.12702039 -0.07532109
0001d0 94 81 4b 3e 9b 4a 80 be 53 68 45 3e 6e 11 55 be
       0.19873649 -0.2505692 0.19278078 -0.2080743
0001e0 cf 50 62 bd d9 db c8 bd d2 c4 8d be 79 0c 0b bd
       -0.055252846 -0.098075576 -0.27689224 -0.03394744
0001f0 1a af b2 bd cb fd a4 3c d9 ab 54 be 6f 22 86 bd
       -0.08724804 0.02014055 -0.2076868 -0.065495364
000200 10 19 37 3d cf 68 46 be 99 76 82 be a6 d2 99 be
       0.044701636 -0.19375919 -0.25481108 -0.30043525
000210 29 89 72 3e 5b 6b 09 3e ee 08 8e 3d 56 b0 88 bd
       0.23685135 0.13419859 0.06935297 -0.066742584
000220 51 80 4e 3e e2 9a f2 bd 94 07 86 be 28 f9 fc 3d
       0.20166136 -0.11845948 -0.26177657 0.1235221
000230 b2 b5 8e 3e a1 56 e1 3d 9b e3 35 3e 86 57 19 bd
       0.27872998 0.11002851 0.17762606 -0.037436984
000240 50 6b 5b bd 60 37 34 3e b7 87 18 be e0 33 96 3e
       -0.053569138 0.17599249 -0.14895521 0.29336452
000250 da 20 41 3e 38 d4 45 be 3f 6e 03 bc 7d ee ad be
       0.18860188 -0.19319236 -0.00802189 -0.33971015
000260 f3 7e 3c be 04 7c 4f be 5a 8d fe bb 39 cf 5b bd
       -0.18407802 -0.20262152 -0.0077683153 -0.05366442
000270 92 49 5f 3e 14 a6 66 bd f2 e6 0b 3d b3 7d 60 be
       0.21805409 -0.05631073 0.034155793 -0.2192295
000280 01 76 8a 3d 87 fe c9 3c bc 9d 95 be ba 07 5e 3e
       0.06760789 0.0246575 -0.29221904 0.21682635
000290 a0 e2 97 be d4 f8 42 3e b7 03 02 3e 63 e9 f8 3c
       -0.2966509 0.19040233 0.1269673 0.030384725
0002a0 5a 08 65 bd 41 46 87 3e 52 34 b4 3e dc 89 5f 3c
       -0.055916168 0.26420787 0.35196167 0.013643708
0002b0 1e 33 2e 3d 51 8f d6 3d 09 d2 3e be a8 eb 0f 3e
       0.042529218 0.10476554 -0.1863481 0.1405474
0002c0 45 0b a5 3d 7e ef d2 3b 7a a5 43 bc bb c5 4c be
       0.0805879 0.006437241 -0.011941308 -0.19997303
0002d0 94 f6 22 be d3 19 8c be 26 23 2c 3e d7 90 90 bd
       -0.15914375 -0.27363452 0.16810283 -0.07058876
0002e0 fa ae 82 be 14 1c d9 3d 72 62 12 3d 4c 2a 07 be
       -0.25524122 0.106010586 0.035738416 -0.13199729
0002f0 bc 82 ef 3d 64 83 de bd f3 b9 4b be 40 79 31 bd
       0.116948575 -0.108649045 -0.19895153 -0.043328524
000300 34 23 22 be 81 6c 1c be 7c ec e9 3c 30 66 86 be
       -0.15833741 -0.15275766 0.028555147 -0.26249838
000310 05 7a 6b be 18 bd 0f 3e 89 df a2 bd 58 c9 88 be
       -0.22995766 0.14036977 -0.07952792 -0.26716113
000320 12 f1 d6 bd 3b 7a 6b bd 51 87 a4 3e 2f 1a 20 3e
       -0.10495199 -0.057489615 0.32134488 0.15634988
000330 85 a8 23 bc 6a 87 eb bd a7 3e 5a 3e 7f 8d b9 bc
       -0.009988909 -0.115004376 0.21312962 -0.022650478
000340 c3 f0 8a be 3b ae 69 be ae 91 73 3e 7a 82 27 3d
       -0.27136812 -0.2282037 0.23786041 0.040895917
000350 53 87 34 3e 9c bb 13 3e 41 6b 57 3c 08 60 2d be
       0.17629747 0.14427036 0.01314813 -0.16931164
000360 ef 78 c5 3d 08 11 21 be 26 16 b1 3e 48 c9 bd bd
       0.09642207 -0.15729153 0.3458721 -0.09266907
000370 27 c8 1f be 5e ae af 3e 92 24 9b be db ad 6a 3d
       -0.15603696 0.3431272 -0.30301338 0.057294708
000380 06 a7 48 be d9 63 4c bd 5c a7 59 bd 53 f9 7a 3e
       -0.19594964 -0.04989991 -0.053138122 0.24509172
000390 cf 18 ae bb 0e 43 8d 3e e6 e6 fe 3d 28 9f 96 3e
       -0.005313016 0.2759022 0.12446384 0.29418302
0003a0 0c 37 ff 3c a6 51 33 3e 67 e6 4a 3e a9 a9 1d 3e
       0.031154178 0.17511615 0.19814454 0.15396751
0003b0 0f b9 3a bc a6 14 5c bc 99 f1 56 bd 99 1c 82 be
       -0.0113966605 -0.013432657 -0.0524765 -0.25412443
0003c0 8f e6 1d 3e cd 17 66 3e d5 a4 e4 3d a8 ee 89 bd
       0.15419982 0.22470017 0.11164252 -0.06734973
0003d0 6c f8 38 be bb 55 54 3e f4 88 1b bd 27 11 38 be
       -0.18063515 0.20735829 -0.037972406 -0.17975293
0003e0 ab 8a 98 3d 0d 0e 4f be fb 9c 9c be 81 94 29 bd
       0.07448324 -0.20220204 -0.30588517 -0.04140139
0003f0 2c 99 63 be 2e 52 bc be e2 a5 1c bd c9 ff 8b 3e
       -0.22226399 -0.36781448 -0.038244136 0.27343586

sequential/lstm/Read_2/ReadVariableOp1 f4 [512]
000000 f9 65 c9 3b ad 7e c9 3c 0a 8c 8c 3d fc 99 26 3c
       0.0061461893 0.024596537 0.06862648 0.010168549
000010 f2 22 21 3c 3e d8 2a 3c be 30 26 3b 74 ed f1 3c
       0.009834992 0.010427533 0.0025358642 0.029532172
000020 06 52 8e 3c df 87 b1 3c 9f 05 e9 3b 7a 0b bc 3b
       0.017373096 0.021671234 0.007111266 0.005738673
000030 6f eb 8b 3c 66 3d 0c 3d a8 80 9d 3b 4f 2b 2d 3c
       0.017080037 0.03423824 0.004806597 0.010569408
000040 2f 04 51 3b 98 42 bd 3c ac 3f 98 3b 06 03 93 3b
       0.0031893363 0.023103043 0.004646262 0.0044864444
000050 2d 55 94 3b 6c 3a 0a 3d 03 d6 55 3c 7a b2 3a 3c
       0.0045267553 0.03374712 0.013051513 0.011395091
000060 49 8f c1 3b c8 4a d0 3a f4 bf f4 3a 3e 52 98 3c
       0.0059069735 0.0015891427 0.0018672929 0.018593904
000070 ac 6f 8d 3b 3c d5 c3 3b 5c 5b 32 3c 68 a6 33 3a
       0.004316291 0.0059763473 0.01088604 0.00068531046
000080 03 6d 18 3c 6c ac a8 3b 60 58 9b 3b 61 b6 8f 3c
       0.009303334 0.0051475074 0.0047407597 0.01754302
000090 18 a4 c4 3c 7d c4 18 3c 2f d7 a3 3c 82 74 08 3c
       0.024004027 0.00932419 0.020000068 0.008328559
0000a0 fc 2a 98 3c b8 7e c9 3c f8 62 ee 3a d4 a5 b2 3b
       0.018575184 0.024596557 0.0018187454 0.005451897
0000b0 1a ad 79 3c 44 23 e0 3b 96 54 fb 3c 16 e0 bc 3c
       0.015239025 0.0068401415 0.030679982 0.023056071
0000c0 62 a3 24 3c 4f 90 f6 3b 04 a2 01 3d 20 67 a6 3c
       0.010048719 0.007524527 0.03164865 0.020312846
0000d0 20 f1 67 3c e2 d4 53 3d 0c 66 69 3b 7b d6 e0 3c
       0.01415661 0.051716693 0.0035613803 0.027446022
0000e0 68 fe e2 3b fb 78 11 3b 25 de bd 3b 3d d8 81 3c
       0.0069273002 0.0022197354 0.005794304 0.01585018
0000f0 18 c1 41 3b 31 96 47 3b 91 96 0d 3d c9 e2 8e 3c
       0.0029564556 0.0030454511 0.03456742 0.017442124
000100 01 63 2e 3d 80 1f ef 3b 78 3d da 3b 5f 41 d3 3b
       0.042574886 0.0072974563 0.0066601597 0.006447002
000110 a8 d5 bb 3b 6f 2d 54 3c f6 60 42 3c 59 cf ac 3b
       0.005732257 0.012950285 0.011863938 0.005273741
000120 74 82 03 3c 74 da c6 3b 30 82 34 3d 58 84 81 3b
       0.008026708 0.006068522 0.04406947 0.003952544
000130 a5 b6 11 3b 63 a5 b5 3b a2 08 ef 3c 6f 69 14 3c
       0.0022234109 0.0055433973 0.029178921 0.00905834
000140 52 26 94 3b f5 2d cc 3c 2d d2 f0 3b 69 d2 bc 3b
       0.0045211697 0.024924258 0.0073492737 0.0057623875
000150 1f ca 5c 3c 3c 6e 70 3c bc aa 5e 3c f5 9a 6d 3c
       0.013475924 0.014674719 0.013590511 0.014502277
000160 f2 2e aa 3b be 9e 87 3b f8 19 3a 3a da b0 85 3b
       0.0051935846 0.0041387966 0.00070992066 0.0040799202
000170 d2 a6 69 3c b2 0c b5 3b 2a 9b e3 3b 2d a3 c1 3b
       0.0142609645 0.005525195 0.006945987 0.0059093446
000180 7b f3 0a 3c fb 0a c3 3b 8c 0d f7 3c 2f 27 01 3c
       0.008480902 0.0059522367 0.030157827 0.007882877
000190 57 85 c4 3b 67 c7 7e 3b 94 23 ee 3b c9 c5 a7 3c
       0.0059973407 0.0038876177 0.007267425 0.020480053
0001a0 e2 b0 c6 3c d0 c3 f1 3b a1 95 81 3b 39 24 3f 3c
       0.024254266 0.007378079 0.0039546047 0.011666351
0001b0 d1 61 b6 3b eb e5 cc 3c a5 cc 29 3b 3f 86 8b 3c
       0.00556586 0.025011977 0.002590933 0.017031787
0001c0 51 32 ef 3c 80 95 f4 3b 31 13 17 3c 66 b2 31 3c
       0.029198797 0.007464111 0.009220884 0.010845756
0001d0 b1 b4 e0 3b 3e 6b 44 3d f0 34 d7 3c 62 57 63 3c
       0.0068574776 0.047953837 0.02627036 0.013875814
0001e0 8e cf e9 3b ba e7 2b 3d e7 57 37 3c 5a d1 5b 3b
       0.007135338 0.04196904 0.011190391 0.0033541531
0001f0 60 8d 52 3b 58 e3 96 3c 2f 41 af 3c 04 2c 43 3c
       0.0032127723 0.018418953 0.021393387 0.01191235
000200 12 d4 80 3f 01 cf 82 3f 75 cb 87 3f 14 e0 80 3f
       1.0064719 1.0219423 1.0608965 1.0068383
000210 70 54 81 3f 98 60 81 3f 5f 8a 80 3f ac 58 83 3f
       1.0103893 1.0107603 1.0042228 1.0261436
000220 18 0a 82 3f 39 38 82 3f f9 04 81 3f f2 76 80 3f
       1.015933 1.0173408 1.0079643 1.0036299
000230 33 2c 82 3f 57 d7 83 3f 39 8e 80 3f 74 6b 81 3f
       1.0169739 1.0300092 1.0043403 1.0110917
000240 1b 7f 80 3f 95 bc 82 3f 17 84 80 3f 76 50 80 3f
       1.003879 1.0213801 1.0040311 1.0024555
000250 55 37 80 3f 05 e9 83 3f ba a4 81 3f 53 3d 81 3f
       1.0016886 1.0305487 1.0128396 1.009684
000260 5a 4e 80 3f 16 65 80 3f af 48 80 3f 26 19 82 3f
       1.0023911 1.0030849 1.0022181 1.0163925
000270 68 69 80 3f 1d a3 80 3f ac 66 81 3f 6b d1 7f 3f
       1.0032167 1.0049778 1.0109458 0.9992892
000280 18 91 81 3f 4e 99 80 3f 92 9f 80 3f d5 d2 81 3f
       1.0122404 1.0046785 1.0048697 1.0142466
000290 17 e1 82 3f 0a 0d 81 3f 81 be 81 3f bd d2 80 3f
       1.0224942 1.0082104 1.0136262 1.0064312
0002a0 61 5f 82 3f 63 9f 82 3f e8 1b 80 3f 50 c0 80 3f
       1.0185357 1.0204891 1.0008516 1.0058689
0002b0 9b c7 81 3f cc 3d 81 3f 7f 25 83 3f d6 4e 82 3f
       1.013904 1.0096984 1.0245818 1.0180309
0002c0 4b 1b 81 3f 02 a8 80 3f 3f 89 83 3f 77 2d 82 3f
       1.0086454 1.0051272 1.0276259 1.0170125
0002d0 cd ad 81 3f 5f d5 85 3f ee a5 80 3f 0b 27 83 3f
       1.0131165 1.0455741 1.0050638 1.024629
0002e0 9a d1 80 3f f9 52 80 3f b2 a5 80 3f b7 4c 81 3f
       1.0063965 1.0025321 1.0050566 1.0101537
0002f0 ce 3c 80 3f 16 64 80 3f 70 81 83 3f ef 96 81 3f
       1.0018556 1.0030544 1.0273876 1.0124186
000300 03 3f 85 3f 49 2d 81 3f d4 df 80 3f 5b e2 80 3f
       1.0409855 1.0091945 1.0068307 1.0069078
000310 de c9 80 3f fe 00 81 3f 98 49 81 3f bf 9f 80 3f
       1.0061605 1.0078428 1.0100584 1.0048751
000320 80 2c 81 3f 9c f2 80 3f 7d e8 84 3f 91 38 80 3f
       1.0091705 1.0074039 1.038345 1.0017263
000330 e2 69 80 3f 7a 4d 80 3f 1a 60 83 3f 56 05 81 3f
       1.0032313 1.0023644 1.0263703 1.0079753
000340 51 ca 80 3f 8e d2 82 3f 43 57 81 3f cb 5d 80 3f
       1.0061742 1.0220506 1.0104755 1.0028623
000350 43 92 81 3f 91 e1 81 3f 68 7b 81 3f 05 4c 81 3f
       1.012276 1.0146962 1.0115786 1.0101324
000360 6c 9c 80 3f fa 19 81 3f d2 3a 80 3f 45 7b 80 3f
       1.0047736 1.0086052 1.001795 1.0037619
000370 cc 58 81 3f 95 fd 80 3f 9f c4 80 3f f7 e7 80 3f
       1.0105224 1.0077387 1.0060004 1.007079
000380 4c d0 80 3f 0c 71 80 3f 55 93 83 3f c4 bd 80 3f
       1.0063567 1.0034499 1.0279337 1.0057912
000390 b1 5e 80 3f 0c 7d 80 3f 3d 00 81 3f 2b 37 82 3f
       1.0028898 1.0038161 1.0078198 1.0173086
0003a0 24 f0 82 3f 11 e9 80 3f ba 92 80 3f bd 42 81 3f
       1.0229535 1.0071126 1.0044777 1.0098492
0003b0 d0 2e 80 3f 6f 9f 82 3f ae 5b 80 3f db c3 81 3f
       1.0014286 1.0204905 1.0027978 1.0137895
0003c0 66 e7 82 3f 78 1e 81 3f a0 bb 80 3f 61 28 81 3f
       1.0226867 1.0087423 1.0057259 1.0090448
0003d0 14 8f 80 3f 38 97 85 3f de 0b 83 3f bf 7c 81 3f
       1.0043664 1.0436773 1.0237997 1.0116194
0003e0 3a d6 80 3f 3d 0f 85 3f d1 20 81 3f f3 3b 80 3f
       1.0065377 1.0395275 1.008814 1.0018295
0003f0 91 66 80 3f 0d bf 81 3f c3 d6 82 3f ab 37 81 3f
       1.0031301 1.0136429 1.022179 1.0095114

while/MatMul_11 f4 [512, 128]
000000 3f f7 f6 bc aa 09 87 3d 70 d6 7a 3d ec 80 1a bd
       -0.030147193 0.0659364 0.06123966 -0.037720606
000010 b6 da 5d bd fa 48 36 bd cb 8d 77 bd c6 ab cc bc
       -0.054163657 -0.04450319 -0.06043796 -0.024984252
000020 e6 7e 67 3d 81 83 c7 bc c9 3c b0 3b 19 a4 85 bb
       0.056517504 -0.024354698 0.00537834 -0.0040784
000030 4a 0e 7c bc 75 98 a3 3a ed 7d 2d bd 69 90 80 b8
       -0.015384266 0.0012481349 -0.04235642 -6.130414e-05
000040 28 ca 0b 3b 07 73 9c ba 75 e4 f3 3b ea c1 47 3d
       0.0021330211 -0.0011936136 0.0074430057 0.048768915
000050 55 e1 8b bd d4 d7 87 3d c3 a7 11 bd f5 d8 98 bc
       -0.06830088 0.06632963 -0.03556038 -0.01865814
000060 61 5f d6 bb a7 ae 31 bd e5 b6 50 3c 67 85 7b bc
       -0.006542132 -0.043379452 0.012738918 -0.01535163
000070 51 a1 ea 3c 5f 19 a7 3d 60 a1 7a 3d dc 87 28 bc
       0.028641375 0.08159136 0.061189055 -0.010286298
000080 d7 29 78 bc 69 f0 3a bc 60 b2 e9 3c 2e d9 af 3b
       -0.015146694 -0.011409857 0.028527439 0.005366466
000090 4f 08 8c 3c 29 f0 c0 bc 4b 6a d9 3c 55 dc c6 bc
       0.017093806 -0.023552017 0.026539942 -0.024274984
0000a0 1b c6 8c ba 47 25 df 3d 27 c8 48 bb 43 21 f8 3c
       -0.0010740192 0.10895782 -0.0030636878 0.030289298
0000b0 0b a9 72 3d d5 21 61 3c 1c c0 19 bd f5 90 3e 3b
       0.059243243 0.013740976 -0.037536725 0.00290781
0000c0 48 25 ea 3c 5c 0e 12 3d 31 e7 81 3d 2c bd 1b 3c
       0.02858223 0.035658225 0.063429244 0.009505551
0000d0 f2 66 83 bc 50 d0 2b bd ea b3 db 3d 50 c2 ee 3c
       -0.0160403 -0.04194671 0.10727675 0.02914539
0000e0 f5 49 9c ba b4 c6 8e bc 0a 0b 5b 3c 52 25 9f 3c
       -0.0011923896 -0.017428733 0.013369331 0.019426975
0000f0 1f 8b 27 bb d5 22 e3 3c 2a cc e5 bc 5d a0 4a 3d
       -0.00255651 0.02772657 -0.028051455 0.04946934
000100 60 c2 44 3d f9 3a e0 bc 58 a7 d3 bc ee bb 2f bc
       0.048036933 -0.02737187 -0.025836632 -0.010725958
000110 60 95 67 3b 84 71 2e 3d 46 01 ef bd 0c a0 99 3d
       0.0035336837 0.042588726 -0.11670165 0.0750123
000120 3b 49 a8 3c f6 93 b0 3d 49 d4 83 3b b8 39 27 3d
       0.020542732 0.08621971 0.004023109 0.04082653
000130 7b 6e 48 bc f2 5d 9a bd db c7 01 3d fa a5 d0 bd
       -0.012233372 -0.0753745 0.031684738 -0.101879075
000140 9b 08 dc 3b fa 5e c3 ba 45 f6 87 3c 74 43 09 3d
       0.006714893 -0.0014905625 0.016596923 0.033511594
000150 df 9f ac 3d cc a4 7b 3d 95 f4 8d bc b6 91 27 bd
       0.084289305 0.06143646 -0.01732854 -0.040910445
000160 28 c3 8a bb b3 44 86 3c fc 7d 79 3d 7b 83 97 bc
       -0.00423469 0.01639018 0.060911164 -0.018495312
000170 ec 6f bc bb 5a 57 3a 3c a7 31 5a 3d 35 5b 39 bd
       -0.005750647 0.011373365 0.05327001 -0.045252997
000180 da 25 7b 3c 24 7e 13 3a 3e 70 8d 3c 09 ad ca ba
       0.015328849 0.00056264014 0.017265435 -0.0015462945
000190 1b 75 85 bc bf 0e 82 bc af 5f db 3c 0f ec e0 ba
       -0.016291192 -0.015876172 0.026779024 -0.0017160195
0001a0 6b 37 84 bc 1f af 2d 3d 50 c2 cc bc f7 da 81 3d
       -0.016139707 0.042403337 -0.024995 0.06340592
0001b0 92 dc 77 3d b3 4a cc 3b a0 d1 ea 3b 3b 8c 0a bc
       0.060513087 0.006234491 0.0071661025 -0.008456285
0001c0 97 0f 58 bd 63 7d cf 3c f2 a2 21 bc d7 82 26 bd
       -0.052749243 0.025328344 -0.009865509 -0.040652122
0001d0 e3 bb 0c 3d 05 57 1e 3d 76 08 6e 3d 69 c3 cb bd
       0.03435887 0.038657207 0.058113538 -0.09949381
0001e0 ce a9 fe bc 6e 3b 08 3d 4c 0d e7 3c 9f b4 be bc
       -0.031086829 0.0332598 0.028204583 -0.023279486
0001f0 6b df 6e 3c 7a 4d 06 3d 63 58 1a 3c 65 12 c5 bd
       0.014579634 0.03278873 0.009420487 -0.09622649
000200 4a 83 ff 3b cb f2 b3 3d 9a 96 8b bb f7 39 d2 3c
       0.0077976333 0.087865435 -0.0042598965 0.025662405
000210 8c 2f 83 3d f9 7e cf 3d c5 9e 97 3d 7d 55 f6 3c
       0.06405553 0.1013164 0.0740333 0.03007006
000220 08 1a b5 bd 23 fd 84 3d 91 93 43 bd 61 7f 03 3d
       -0.08842856 0.064935945 -0.047748152 0.0321039
000230 25 88 6b bd 5f 48 19 bd 7f 11 a5 bc de 52 a7 3d
       -0.057502884 -0.037422534 -0.020149944 0.081701025
000240 c5 e2 0f 3c 69 7a 4b 3d df 14 92 3d 71 55 85 3c
       0.008782093 0.049677286 0.07132887 0.016276093
000250 85 3b 10 3b 03 30 15 bc d7 9c 99 bd 5a ca c7 3d
       0.0022008133 -0.009105685 -0.07500618 0.097553924
000260 18 b5 b4 bc 49 e8 93 3d fd 13 07 3d a5 ba 17 3e
       -0.022059008 0.07222039 0.032978047 0.14817293
000270 af 71 9b bc 55 ba cc bc e4 3b 8d bb 03 cf ab 3d
       -0.018975107 -0.024991194 -0.004310118 0.08389094
000280 38 8a 9c 3d ed 6d 66 bd 3e 9e 8d bd 8e c7 84 bd
       0.07643551 -0.056257177 -0.06914948 -0.064833745
000290 4f c6 e2 bd f3 7e 25 3d ac 1f 25 3d 46 55 15 3d
       -0.110729806 0.04040427 0.040313408 0.036458276
0002a0 60 b5 79 bd 1b f6 0b bd 35 7c 8c 3c 89 65 18 bc
       -0.06096399 -0.03417025 0.01714907 -0.009301552
0002b0 2e c0 45 3d 3f 49 1c 3e 50 bb ab bc ed cb 5c bd
       0.04827898 0.15262316 -0.020963341 -0.053905416
0002c0 96 c1 28 3b 66 29 c1 3a fa 9d 48 3d 2b bd 19 3c
       0.0025750152 0.0014737069 0.048978783 0.00938348
0002d0 72 d4 ce bc fc 55 81 3d 08 0f 19 3d c3 e5 0b bd
       -0.025247786 0.06315228 0.03736785 -0.034154665
0002e0 41 1f ba bd b5 80 1e 3d fa 6f 8c 3d 83 3c 27 bc
       -0.090879925 0.038696963 0.06857295 -0.010207298
0002f0 60 65 6a bd 7b 52 53 bc 66 2a a1 bc 4c 03 29 3d
       -0.057225585 -0.012898083 -0.019673537 0.04126291
000300 14 06 61 bd 6e ee c5 bc 5a 45 c9 3d c2 1c 22 bd
       -0.054937437 -0.024161544 0.09827681 -0.039578207
000310 47 ae 8b bb 6e 86 d0 3d 1c 0f 35 3c 45 d1 2d 3d
       -0.004262719 0.101818904 0.011050966 0.042435903
000320 c6 16 ad bd 9c f9 f0 bb 8a d7 ac 3d f7 c9 30 3d
       -0.08451609 -0.0073539745 0.08439548 0.04316136
000330 97 41 e0 bb ce 62 98 bc d6 1e b5 bd 77 7a 85 bd
       -0.0068437564 -0.018601801 -0.08843772 -0.06517499
000340 43 43 b9 bc 91 08 dc bb 8f 15 83 bd df 2d c1 bc
       -0.02261508 -0.0067148884 -0.06400596 -0.023581443
000350 0d b3 47 3d f2 9e b3 bd ef e0 b5 bd 2d 88 87 3d
       0.04875474 -0.08770551 -0.08880793 0.0661777
000360 a3 78 9c 3c 9f af 3a bc 63 27 f5 3c a3 79 eb bb
       0.019100493 -0.01139441 0.029926008 -0.007186131
000370 61 6d 7c bd 9c 91 f0 bc fb 19 0f 3d 80 3f 11 bd
       -0.06162775 -0.029366307 0.034936886 -0.03546095
000380 e1 00 07 b9 6b 5f 45 bd 9d 5d 52 3d 4b 8d 0a bd
       -0.0001287493 -0.0481867 0.051358808 -0.033826154
000390 20 e5 f6 bd 63 d1 f6 bc f7 8b 71 3b 82 c1 99 3d
       -0.12055421 -0.03012914 0.0036857107 0.07507612
0003a0 ad 61 2d 3c 6c 81 17 3d 93 56 29 3d ba b3 32 bd
       0.01058237 0.03698866 0.04134233 -0.04362843
0003b0 ae 38 15 3d 17 63 3b 3d 28 fa a8 3b 48 ce 1a 3d
       0.036431007 0.045748796 0.005156774 0.03779438
0003c0 63 c6 53 3d a5 e0 e7 3c ff 10 b8 bc 5c f4 6d bd
       0.05170287 0.028305361 -0.022469042 -0.058094367
0003d0 6a 42 99 3d bb ee 61 3c d4 42 89 bb df c3 0a 3d
       0.074833706 0.013789828 -0.0041888747 0.033878203
0003e0 3d 66 d6 3c bf 78 a8 3c 81 bf 97 3d 37 02 48 3d
       0.026171798 0.020565389 0.07409573 0.048830237
0003f0 47 ee 74 3d 9c 90 78 3c 06 b3 9b bc 8d d5 2e bd
       0.05979755 0.015171196 -0.019006263 -0.042684127

while/MatMul f4 [512, 63]
000000 95 66 df 3c ec 5e 1e 3d 9b 77 44 bd d4 90 cb bd
       0.027270595 0.038664743 -0.047965627 -0.09939733
000010 4f bf 4b bd 99 91 9d 3b 18 bd b8 bd 1b ea 91 3d
       -0.049742993 0.0048086164 -0.09020442 0.0712473
000020 15 cc 95 3c 0b a6 14 bd 8a c8 5d bd 3f 35 d1 bd
       0.01828579 -0.036291163 -0.054146327 -0.10215234
000030 4c cd bb 3d 97 10 f8 bc 3a 3a 81 bd da e9 62 bd
       0.09170017 -0.030281348 -0.06309934 -0.0553988
000040 7a 68 46 bd cb e4 d3 3d ae af 88 bd b8 30 24 3d
       -0.04843948 0.10346373 -0.06674133 0.040085524
000050 a3 83 d0 3b b3 f0 e0 3c 95 fc de bc ee 54 4b 3d
       0.0063633486 0.027458524 -0.02722005 0.049641542
000060 46 72 3f bd 44 59 c5 bd d0 99 a5 3d bd c7 b5 bd
       -0.04673984 -0.09636167 0.08085978 -0.08875988
000070 52 f4 8b bd 42 77 aa bd c4 a4 be 3d f4 48 b5 3d
       -0.0683371 -0.08323528 0.0930877 0.08851805
000080 9c f8 a6 3d 3a b0 14 3d b5 b4 0d bb e2 97 19 3d
       0.08152887 0.036300875 -0.0021622602 0.037498362
000090 fe 5b 42 bd 62 31 09 3d 1d 2e 45 bd ac b7 84 3d
       -0.04745101 0.03349436 -0.04813968 0.06480345
0000a0 3a 25 74 bd 0c 16 1f 3d d1 d8 9d 3d 0c 7a 5f 3d
       -0.059605815 0.038839385 0.0770737 0.054559752
0000b0 2e 7d e7 3c fe 7d 9a bb 87 96 87 3d c0 08 26 bd
       0.028257933 -0.0047147265 0.06620508 -0.04053569
0000c0 09 dc bf bd 9f 60 2f 3d fa 22 b3 3d 3f 6b 5f bd
       -0.0936814 0.042816754 0.087469056 -0.054545637
0000d0 7d 18 a2 3d e2 c2 c0 3d 1d c3 ab bd 3a f9 af 3d
       0.07914827 0.09412171 -0.08386824 0.08592458
0000e0 fb d7 c8 3d 05 cc f1 bc 5c 21 a6 3d e8 36 c7 3d
       0.0980682 -0.02951623 0.081118315 0.097272694
0000f0 c6 ca 20 bd 85 8e 92 bd 08 76 21 3d f6 e7 68 3d
       -0.03925588 -0.0715609 0.039419204 0.05686184
000100 2c 2e d1 3d 54 50 47 3d 17 44 4e 3d aa 4b 1e bb
       0.10213885 0.04866059 0.050357904 -0.0024153986
000110 79 c5 48 bd 70 7e bc 3c c6 2b eb 3d 9b 93 64 bd
       -0.04901645 0.023009509 0.114829585 -0.05580483
000120 83 4c b3 bc fc e2 95 bb 26 08 57 bb ac 7b 88 bd
       -0.02188707 -0.004574178 -0.0032811253 -0.066642135
000130 15 8a d3 3d c2 cc 72 3d dc 46 b9 3d 96 77 ef 3d
       0.103290714 0.059277304 0.090467185 0.11692731
000140 c6 2c 86 3c e2 17 bb 3d 1e 09 19 3d f0 d1 8a bc
       0.016378772 0.09135415 0.03736221 -0.01694581
000150 54 07 4f bc 32 32 63 bd fe 81 52 3d e6 41 27 bd
       -0.0126360245 -0.05546779 0.0513935 -0.04083433
000160 12 e9 d4 bc 27 b7 25 bd 47 1f a1 3d 8b 6b ee 3d
       -0.025990043 -0.04045787 0.07867294 0.11641606
000170 69 91 cc 3d 03 26 a1 3d 70 a7 ee 3d d8 d6 3b bc
       0.09988672 0.07868578 0.1165303 -0.011464797
000180 ba ee dd 3d f1 75 6b 3d a5 b4 5a bd 53 c0 bd 3d
       0.10836549 0.057485525 -0.053394932 0.092651986
000190 46 e1 dc 3c e3 e8 2f 3b 66 d4 53 3d 81 5c 51 3d
       0.026962887 0.0026841692 0.05171623 0.05111361
0001a0 4e 7e c4 3d 84 2e bf 3b 7d df 39 bd b0 f2 72 3a
       0.09594403 0.0058344025 -0.04537915 0.00092677306
0001b0 8d 22 95 bd da 8b f4 3d bb f4 1a bd 41 f0 33 3d
       -0.07281981 0.11940737 -0.03783105 0.043930296
0001c0 d3 b4 0d 3d 51 0b 67 bd fa b1 65 3d 2b 1f c4 3d
       0.034596276 -0.056407277 0.056077935 0.09576257
0001d0 b6 10 96 bd 48 18 4b bd 4e f6 9f bd f2 71 a9 bd
       -0.07327406 -0.049583703 -0.07810651 -0.082736865
0001e0 37 53 a9 3d c9 ca 6f bd 94 51 52 3d 23 96 19 bd
       0.08267825 -0.058543 0.05134733 -0.037496697
0001f0 3a 1c 0c bc a2 3d bc 3d 42 4d f4 3b 9d c9 b1 3d
       -0.008551652 0.09191443 0.007455499 0.08681033
000200 85 4f 86 bc 7a 43 00 3e ac 68 07 3e a8 e0 cb bc
       -0.01639534 0.1252574 0.13223523 -0.024887398
000210 8b 2a 20 3d 7e 9e 29 3e 77 8b dd 3b b6 2c d2 3d
       0.039103072 0.16564366 0.0067610103 0.10262434
000220 93 8d 92 3c 57 da 6c 3d a9 f2 a6 3d 06 57 6f 3b
       0.017889773 0.057825413 0.081517525 0.0036520376
000230 a4 de d0 3c 23 c8 e1 3d 45 0d d7 bc 79 f9 1d 3c
       0.025496788 0.11024501 -0.026251445 0.009641998
000240 5f 8e 04 3c ad 99 d9 3d 05 1b 59 bd a5 34 10 3e
       0.008090585 0.106250145 -0.053004283 0.14082582
000250 42 84 8a bc 4f 33 8f bd 73 ae 53 3d f0 33 16 3e
       -0.016908769 -0.06992208 0.05168004 0.1466825
000260 e1 b1 42 3c 4f b7 19 3d 43 90 a8 3d c7 32 a0 bd
       0.01188323 0.037528332 0.08230641 -0.07822185
000270 05 8f 98 3c 77 a8 81 3d df 2d 5b 3d eb f0 fc 3d
       0.018622885 0.0633096 0.053510543 0.12350639
000280 2c 8d 9c 3d 5c 54 98 3c f6 0e c1 3d de b7 c6 3d
       0.07644114 0.018594913 0.09426682 0.09703039
000290 6f c5 08 be 17 b4 d9 bc d0 30 cf 3d 9b 6b a0 3c
       -0.13356565 -0.026575131 0.10116732 0.01958256
0002a0 e1 bb c1 bc 44 50 b6 3a 97 3e 1e be a6 5c 08 3d
       -0.023649158 0.0013909419 -0.15453564 0.03329148
0002b0 4c 69 f0 3c 6d 2b 0f be c5 a0 3c 3b 86 6a 9f 3d
       0.029347084 -0.1398141 0.002878235 0.077839896
0002c0 41 58 97 3c 7c ea f7 3d 2d a1 e2 3d d7 33 46 bc
       0.0184747 0.12105271 0.11065898 -0.0120973205
0002d0 9e 4d d0 3d 82 f2 06 bb 66 89 c5 3c 6b e6 d2 3d
       0.10171054 -0.0020591323 0.024113368 0.10297855
0002e0 1d c9 89 3c e3 52 13 bd 5a b9 48 3d 35 6d a1 3d
       0.016819531 -0.03596772 0.04900489 0.07882158
0002f0 e3 b3 13 bd c5 af ef 3c 73 fb 5d bd b8 6d 06 3c
       -0.036060225 0.029258618 -0.05419488 0.00820487
000300 48 88 73 bd 16 7e 39 bd f9 60 de bd 29 6d 81 3d
       -0.05945614 -0.04528626 -0.1085834 0.06319649
000310 b7 c0 64 3d 82 cb 88 3d 65 c1 19 bd 7b 39 49 3d
       0.05584785 0.06679441 -0.03753795 0.049127083
000320 da 84 8f bd 34 33 21 bd 40 43 64 bd ac 16 d8 bd
       -0.07007761 -0.03935547 -0.055728197 -0.10551199
000330 31 0c 30 bc e1 8f 1b 3d a7 ad ba bd fd 05 02 bc
       -0.010745094 0.03797901 -0.09115153 -0.007935998
000340 89 05 2b bc 16 3a 5f bd 9f c4 a7 3d 98 c9 7e bd
       -0.010438331 -0.054498754 0.08191799 -0.062203974
000350 83 7d 63 bd 7e af c7 3c f6 f3 04 3d 17 f0 d1 3c
       -0.05553962 0.024375673 0.03245922 0.02562718
000360 08 66 c6 3d 43 42 6c bd b1 a1 68 bd 12 2b 0b bd
       0.0968743 -0.05768038 -0.056794826 -0.033976622
000370 30 c3 d2 3d be 8b b4 bd 17 d2 0b 3d 25 e0 85 3c
       0.10291135 -0.08815716 0.034135904 0.016342232
000380 ab 24 b6 3c 60 15 ff 3c e3 a8 71 bd d3 5f c0 3b
       0.022234282 0.031138122 -0.058998954 0.005870798
000390 d3 f3 af 3d 1f e3 32 bd 91 16 96 3d f1 95 f2 bc
       0.08591428 -0.04367363 0.07328523 -0.029612513
0003a0 b3 7e 64 bd 27 b2 2f bc a3 f1 96 bc 1c 58 8a bd
       -0.055784892 -0.010723627 -0.018425768 -0.06755087
0003b0 5a 8c ba bd 83 18 65 3d 14 09 a2 3d a7 bd dd 3c
       -0.09108801 0.05593158 0.07911888 0.027067972
0003c0 f3 7f 8a bb a9 18 52 bd da c9 47 3d b3 46 8e bc
       -0.0042266785 -0.05129305 0.048776485 -0.017367696
0003d0 37 23 1c 3d 32 ca af 3b 3b 16 bf 3d 8a ec 14 bd
       0.03811952 0.0053646797 0.09330412 -0.036358394
0003e0 30 81 c2 bd ff a2 a7 3d cb fa db bc 9f 46 75 3d
       -0.09497297 0.08185386 -0.026852986 0.059881803
0003f0 eb de 77 bc 0a 34 c2 3c 7d e2 69 bd 73 de 91 bd
       -0.015128831 0.023706455 -0.05710076 -0.07122507

sequential/lstm_1/Read_2/ReadVariableOp1 f4 [512]
000000 62 67 26 3c 24 fb a3 3b f8 59 37 3c 64 e7 a0 3c
       0.010156484 0.0050043035 0.011190884 0.019641586
000010 45 af 81 3c 49 75 00 3c f6 10 60 3c 45 94 94 3c
       0.015830645 0.007840463 0.013675919 0.018137107
000020 96 bf d9 3c 58 40 17 3c 8a 9f 9d 3c 6a bd b1 3c
       0.026580613 0.009231649 0.019241113 0.021696765
000030 b9 80 11 3c 68 6a 85 3c b8 1d c9 3b b7 66 48 3c
       0.0088807875 0.01628609 0.006137576 0.01223152
000040 1f 2f 80 3c 9d ae 22 3c 9f e8 b8 3c 21 89 29 3c
       0.01564747 0.009929326 0.02257186 0.0103476355
000050 e4 22 85 3c f8 7e 8c 3c 6b bf 81 3c fe 3b 06 3d
       0.016251989 0.017150387 0.015838346 0.032772057
000060 e0 44 89 3c 9b c7 b8 3c ad f5 ef 3c 56 e7 d0 3c
       0.016756475 0.022556117 0.029291952 0.025500935
000070 ab 91 b8 3c 66 ae 71 3c 58 dd 18 3c d0 f0 c5 3c
       0.022530397 0.0147510525 0.009330116 0.02416268
000080 df 82 9a 3c dd df 42 3c dd 7b 8d 3c 8d 19 13 3c
       0.018861232 0.0118941935 0.017270977 0.00897826
000090 8f e1 5c 3c fa e5 3c 3c 5b d2 1f 3c 1a 76 25 3c
       0.013481512 0.01152944 0.0097547425 0.010098958
0000a0 b9 bf 98 3c 77 b5 9e 3c 35 eb 87 3c ea 1a a4 3c
       0.018646108 0.019373639 0.016591648 0.020032365
0000b0 5c 1c e1 3c ea c2 ca 3c bc ad 18 3c 87 38 5b 3c
       0.027479343 0.024751145 0.009318765 0.013380176
0000c0 a4 e2 6b 3c b0 ad c5 3c b8 39 31 3c 77 6c 20 3c
       0.014397297 0.024130672 0.010816984 0.009791485
0000d0 9a b7 be 3c d1 b2 b3 3c 2f 53 82 3c 33 85 d1 3b
       0.023280907 0.021935852 0.015908806 0.0063940524
0000e0 76 01 21 3c 7a 8e 4b 3c 79 84 d9 3b 36 d9 ac 3a
       0.0098270085 0.012424106 0.0066381064 0.0013187292
0000f0 c5 ba e3 3c d7 31 85 3c 54 f5 82 3c 69 a3 2f 3c
       0.02779902 0.016259117 0.015986122 0.010720112
000100 e1 a2 9b 3c 28 0b 5f 3c e2 8f 8e 3c 6b 6e dd 3b
       0.018998565 0.0136135 0.017402593 0.0067575476
000110 97 09 b3 3a a8 69 e6 3c a5 28 c1 3c 4b 1c 85 3c
       0.0013659474 0.028126553 0.023578951 0.016248843
000120 1b 5d ac 3b 26 4f ab 3c 86 68 96 3c f7 60 82 3c
       0.0052601225 0.020911764 0.018360388 0.015915377
000130 88 e7 25 3c e4 6c 8b 3c 3b 17 d8 3c 2d 12 8a 3b
       0.010126002 0.017019697 0.026378265 0.0042135925
000140 d4 01 cb 3b 9f ff 65 3c 6e 68 f3 3b b3 b1 92 3c
       0.0061952863 0.014037996 0.0074282205 0.017907
000150 c6 48 b0 3c 79 b9 db 3c 4e 08 65 3c c2 b4 95 3c
       0.021519076 0.026821839 0.013979031 0.018274669
000160 00 c5 99 3c 2d 72 49 3b 85 25 cc 3c e3 c1 59 3c
       0.018770695 0.003073822 0.024920234 0.013290855
000170 38 9c 7f 3b 27 3f af 3b 7b a6 6b 3c 34 f1 e1 3c
       0.0039003026 0.0053481045 0.014382954 0.027580835
000180 3a 73 31 3b 16 09 73 3c b5 aa 70 3c 0b b5 12 3d
       0.0027076737 0.014833709 0.014689137 0.035817187
000190 e7 95 d3 3b 1b 66 af ba c9 ca 4e 3c e7 38 5c 3b
       0.0064570787 -0.001338187 0.01262159 0.0033603252
0001a0 9e eb 69 3c 00 f9 87 3c e4 41 cb 3c fe cb dd 3c
       0.014277367 0.016598225 0.024811693 0.02707481
0001b0 a0 c7 7c 3c 91 63 e1 3c 96 e3 5e 3c d7 d6 17 3c
       0.015428454 0.027513297 0.013604065 0.00926753
0001c0 45 b6 d2 3b fd ee 68 3c 51 17 8f 3c bd 40 8e 3c
       0.0064304196 0.0142171355 0.017467173 0.017364854
0001d0 d2 a2 d7 3c 1d e5 c2 3c 48 17 55 3c bd 3e b7 3b
       0.026322756 0.02379089 0.013006039 0.005592196
0001e0 c7 fc 2c 3c 75 f3 d7 3c d3 1b 08 3b ec ca 72 3c
       0.010558314 0.026361207 0.0020768538 0.014818888
0001f0 23 6c 8b 3c 80 c6 90 3c 3f ab a3 3c 55 65 5f 3c
       0.017019337 0.017672777 0.019979117 0.013634999
000200 43 db 81 3f 9c d1 81 3f fb 8e 81 3f a0 af 81 3f
       1.0145038 1.0142093 1.0121759 1.0131721
000210 06 33 81 3f b3 71 81 3f 58 80 81 3f e6 b3 82 3f
       1.0093696 1.0112823 1.0117292 1.0211151
000220 bd 11 83 3f 7d ba 80 3f 8f a1 82 3f 27 9b 82 3f
       1.0239788 1.0056912 1.0205554 1.0203599
000230 a9 ef 81 3f 0a 87 81 3f d5 8a 7f 3f 8e e6 81 3f
       1.0151263 1.0119336 0.99821216 1.0148485
000240 e1 a8 80 3f 30 c2 82 3f 35 08 82 3f dc f9 80 3f
       1.0051538 1.0215511 1.0158755 1.0076251
000250 d8 85 81 3f 29 2f 81 3f 47 94 81 3f 57 04 83 3f
       1.0118971 1.0092517 1.0123376 1.02357
000260 1f e0 81 3f 9e 9f 81 3f 5b 4d 81 3f 72 93 82 3f
       1.0146521 1.0126836 1.0101732 1.0201247
000270 c9 cc 81 3f 00 fb 82 3f bc 05 83 3f 7b f1 80 3f
       1.014062 1.0232849 1.0236125 1.0073694
000280 e1 0d 81 3f 9d e2 81 3f 95 a8 81 3f 93 c1 80 3f
       1.008236 1.0147282 1.0129572 1.0059074
000290 78 92 81 3f 86 78 80 3f d8 81 82 3f fd ef 81 3f
       1.0122824 1.0036781 1.0195875 1.0151364
0002a0 af 69 81 3f 8e ac 80 3f c3 20 81 3f 33 d7 82 3f
       1.0110377 1.005266 1.0088123 1.0221924
0002b0 a9 29 82 3f fe fe 81 3f a7 41 81 3f d9 d1 81 3f
       1.0168964 1.0155942 1.009816 1.0142165
0002c0 91 c2 80 3f af 81 80 3f da 58 82 3f eb e4 81 3f
       1.0059377 1.0039576 1.0183365 1.0147985
0002d0 69 48 82 3f f3 43 82 3f 15 dd 80 3f 86 20 81 3f
       1.0178348 1.0176986 1.0067469 1.008805
0002e0 91 eb 81 3f 0f 4b 81 3f 13 a0 80 3f 1c 57 80 3f
       1.0150014 1.0101031 1.0048851 1.0026584
0002f0 b0 5a 83 3f 2b 7e 81 3f 5b 3a 83 3f 45 22 80 3f
       1.0262051 1.0116628 1.0252184 1.0010458
000300 32 6e 80 3f 0f b6 81 3f 5a a1 81 3f 61 86 81 3f
       1.0033629 1.0133685 1.0127366 1.0119134
000310 2d 4e 80 3f f1 77 81 3f 29 c4 81 3f 10 bf 81 3f
       1.0023857 1.0114728 1.0137988 1.0136433
000320 55 51 80 3f 9b db 81 3f 3c 36 81 3f 5e 2b 82 3f
       1.002482 1.0145143 1.0094676 1.0169485
000330 de fa 80 3f 3e 0c 80 3f f4 58 83 3f 80 73 80 3f
       1.0076559 1.0003736 1.0261521 1.0035248
000340 27 3f 82 3f e4 3c 82 3f b3 ab 80 3f 21 35 81 3f
       1.0175523 1.0174832 1.0052398 1.0094339
000350 c6 00 81 3f 36 4b 81 3f d8 18 83 3f 29 8e 81 3f
       1.0078361 1.0101078 1.0241957 1.0121509
000360 ce 4b 81 3f 7c 39 81 3f 2b 27 82 3f fb 70 81 3f
       1.0101259 1.0095668 1.0168203 1.0112604
000370 a9 e8 81 3f 14 3c 81 3f ad 94 81 3f 16 4e 82 3f
       1.0149127 1.0096459 1.0123497 1.018008
000380 dc ed 80 3f 78 29 81 3f 6d 11 81 3f 91 90 82 3f
       1.0072589 1.009078 1.0083443 1.0200368
000390 16 16 80 3f 03 a9 7f 3f 98 ea 81 3f 94 be 82 3f
       1.000674 0.99867266 1.0149717 1.021441
0003a0 50 04 83 3f 65 94 83 3f 80 d3 82 3f b4 13 81 3f
       1.0235691 1.0279661 1.0220795 1.0084138
0003b0 ad 6d 81 3f af cf 83 3f 6b b1 82 3f f5 fc 81 3f
       1.0111595 1.0297755 1.0210394 1.0155321
0003c0 7e a2 7f 3f 84 da 80 3f b8 9d 82 3f 61 45 81 3f
       0.9985732 1.0066686 1.0204382 1.0099298
0003d0 26 70 81 3f a1 38 83 3f 81 9c 7f 3f df 00 81 3f
       1.011235 1.0251657 0.9984818 1.0078391
0003e0 00 c8 80 3f 18 de 82 3f 71 d9 80 3f 0d 5a 82 3f
       1.0061035 1.0224028 1.0066358 1.0183731
0003f0 43 cc 80 3f c8 bc 81 3f 6f 99 80 3f dd dc 80 3f
       1.0062336 1.0135736 1.0046824 1.0067402
