app/src/main/assets/ModeloTwoHands.tflite (tflite, 489000 bytes, 15 tensors)

arith.constant f4 [5, 64]
0	0xbed65398	-0.41860652
1	0xbc87ffab	-0.016601404
2	0xbf24065a	-0.6407219
3	0xbe98a9fc	-0.29817188
4	0x3de5c84a	0.11219843
5	0x3ef7e4b1	0.48416665
6	0xbf0fa551	-0.5611163
7	0xbf2aab03	-0.66667193
8	0xbf1f93dd	-0.62334996
9	0x3efb2710	0.4905324
10	0x3ee1d9d3	0.441115
11	0xbec67c50	-0.38766718
12	0xbe5bf53c	-0.21480268
13	0xbf2689ed	-0.6505421
14	0x3ef1953a	0.47184163
15	0x3f083261	0.5320187
16	0x3f566bd6	0.83758295
17	0xbca765fe	-0.020434376
18	0x3ede2382	0.43386465
19	0xbf2c0d8a	-0.6720816
20	0x3f205af2	0.6263877
21	0x3f500a11	0.8126536
22	0xbf28f131	-0.6599303
23	0x3efec8ee	0.49762672
24	0x3eca4a9d	0.3951005
25	0xbe92e9fb	-0.28694138
26	0xbe276c4a	-0.16349903
27	0x3f052c45	0.52020675
28	0xbf08161f	-0.53158754
29	0xbde9c44c	-0.11414394
30	0xbe079764	-0.13241345
31	0xbf32fe3f	-0.699192
32	0x3e768192	0.24072865
33	0xbd8b4221	-0.067997225
34	0xbf263bf5	-0.6493524
35	0xbf0dc7c0	-0.5538292
36	0x3eca05a3	0.39457425
37	0x3e4d69ae	0.20059845
38	0xbf02ffb5	-0.5117143
39	0xbe77f43b	-0.2421426
40	0x3f4e5a17	0.80606216
41	0x3f2c9248	0.6741071
42	0x3eea741e	0.45791715
43	0x3e7fa67f	0.24965857
44	0x3f603657	0.87582916
45	0xbed44095	-0.41455522
46	0x3d7f3a4e	0.062311463
47	0xbea336d1	-0.3187776
48	0x3e6e4049	0.2326671
49	0x3e5fc96d	0.21854182
50	0x3bee506a	0.0072727697
51	0xbf0b1b80	-0.54338837
52	0xbefe4988	-0.49665475
53	0xbe0a989f	-0.13534783
54	0xbf3f5559	-0.74739605
55	0x3e31f735	0.17379458
56	0x3f9d004c	1.2265716
57	0xbe808c36	-0.25106972
58	0xbe17c81f	-0.14822434
59	0xbe9ee818	-0.31036448
60	0xbe1d504c	-0.15362662
61	0x3ebb0e0f	0.36534163
62	0x3f2e0808	0.67981005
63	0x3f64e53a	0.8941227
64	0x3e0a42bb	0.13502018
65	0x3f3286f5	0.6973718
66	0xbf4056bc	-0.75132346
67	0xbeb376e8	-0.35051656
68	0xbc0f350c	-0.008740675
69	0x3f1af587	0.60530895
70	0xbf1ed265	-0.62039787
71	0xbeec1a34	-0.4611374
72	0xbea8ee16	-0.32994145
73	0xbeb47f22	-0.35253245
74	0xbe85f314	-0.26162016
75	0xbea6f155	-0.32605997
76	0xbee6dbcb	-0.45089564
77	0x3e667d2d	0.22508688
78	0xbf004594	-0.5010617
79	0x3e26c13f	0.16284655
80	0x3ec0aadc	0.37630355
81	0x3e450714	0.19240981
82	0xbe4edc72	-0.2020128
83	0xbf28e0cc	-0.6596801
84	0xbefb6225	-0.49098316
85	0x3e30520b	0.17218797
86	0x3f146272	0.57962716
87	0xbef20e79	-0.47276667
88	0x3ec32448	0.38113618
89	0x3f2cde7a	0.6752697
90	0xbf302fd9	-0.6882301
91	0x3ecdb954	0.40180457
92	0x3ee0d690	0.43913698
93	0x3e1d1b60	0.15342474
94	0xbf0659a1	-0.5248051
95	0xbdcc16cb	-0.09965285
96	0x3d1a03cc	0.037601277
97	0x3f0624dc	0.5239999
98	0x3e377daf	0.17919038
99	0xbf208e82	-0.6271745
100	0xbe68b679	-0.22725858
101	0x3f314dae	0.69259155
102	0xbec8a334	-0.39187014
103	0x3ecb94c9	0.39761952
104	0x3efd9801	0.49530032
105	0x3d9cd30f	0.07657444
106	0xbf06c14f	-0.52638716
107	0xbea6c5a3	-0.3257266
108	0x3f27a7cf	0.6549043
109	0xbf053f5c	-0.52049804
110	0x3f6caf25	0.9245475
111	0x3f260953	0.6485798
112	0xbf31a850	-0.6939745
113	0x3f248d74	0.6427834
114	0x3eeca41b	0.46218953
115	0x3f37a296	0.7173246
116	0x3f2bd1f1	0.6711722
117	0x3dde0661	0.108410604
118	0x3ec1553d	0.37760344
119	0x3f0382e6	0.5137161
120	0xbf966522	-1.1749613
121	0x3dbc252c	0.091867775
122	0x3ed9ce98	0.4254043
123	0x3f47b682	0.7801286
124	0xbe95f7fb	-0.29290757
125	0xbe12c216	-0.1433185
126	0x3dba801b	0.091064654
127	0xbe9f457f	-0.3110771
128	0x3e8c88b2	0.2744804
129	0xbe3b27cf	-0.18276905
130	0xbf0396d8	-0.51402044
131	0xbe003568	-0.12520373
132	0x3e49a630	0.19692302
133	0x3ec94869	0.39313057
134	0xbf4b6d80	-0.7946396
135	0x3f1fbf33	0.6240112
136	0x3f11ae26	0.56906354
137	0xbe6f635d	-0.23377748
138	0x3f12aea0	0.57297707
139	0xbe4471e1	-0.19184066
140	0xbedcc4e6	-0.43118972
141	0x3eba5a49	0.36397007
142	0x3f23e3fe	0.64019763
143	0xbef902f1	-0.48635057
144	0x3e9c0e16	0.30479497
145	0x3ed81193	0.42200908
146	0x3e62de33	0.22155075
147	0x3ef290bd	0.47376052
148	0xbf0a6692	-0.5406276
149	0x3f302a6b	0.68814725
150	0xbf25f86d	-0.6483219
151	0x3e4853ae	0.19563171
152	0x3efcca49	0.4937308
153	0xbeb99e47	-0.3625357
154	0x3e6f1062	0.23346093
155	0xbe21d638	-0.15804374
156	0x3e1f2e25	0.15544946
157	0xbef2eb76	-0.47445267
158	0x3e5fa99e	0.21842048
159	0x3e35b80c	0.1774599
160	0x3f0aaf01	0.54173285
161	0x3f0bac00	0.54559326
162	0xbf3e8410	-0.7442026
163	0x3ee99d3f	0.45627782
164	0xbf21fb22	-0.63273823
165	0xbf16eb81	-0.589531
166	0x3eeabfd0	0.45849466
167	0xbf43ee50	-0.7653551
168	0xbde111b4	-0.10989705
169	0x3f1bad80	0.60811615
170	0xbf036cab	-0.5133769
171	0xbed67f68	-0.41894078
172	0xbf5f0678	-0.87119246
173	0x3e9ecde3	0.31016454
174	0x3d74535e	0.059649818
175	0x3ee6b8ba	0.4506281
176	0xbe0ed9ff	-0.13950346
177	0xbf2b0a18	-0.66812277
178	0x3e6f079e	0.2334275
179	0x3d8473db	0.0646741
180	0x3b52de67	0.003217602
181	0xbe3d7f49	-0.18505587
182	0x3e52f717	0.2060207
183	0x3f98c2f8	1.19345
184	0x3dd08987	0.10182481
185	0xbefaaa72	-0.48958164
186	0xbe324295	-0.17408212
187	0x3e9d7bef	0.30758616
188	0xbae70524	-0.0017625433
189	0xbc087a51	-0.008329944
190	0xbe30d044	-0.17266947
191	0xbeb78414	-0.35842955
192	0xbda3344a	-0.07968958
193	0xbdc389ac	-0.09547743
194	0x3f20a948	0.627583
195	0x3e2d33a2	0.16914228
196	0xbe7b65d9	-0.2455057
197	0xbe12a2ab	-0.14319865
198	0x3c72366b	0.014783482
199	0x3f0178d8	0.5057502
200	0xbebba119	-0.36646345
201	0xbf1fb23a	-0.6238133
202	0xbf42e9e3	-0.7613813
203	0xbeb081d4	-0.3447405
204	0xbe8ebf19	-0.2788017
205	0x3d953707	0.07285886
206	0xbf066b3f	-0.52507395
207	0x3ead8cdf	0.3389654
208	0x3e59c1ec	0.21265382
209	0xbe23d381	-0.15998651
210	0x3e8da741	0.27666667
211	0xbeb349f9	-0.35017374
212	0x3e93cd49	0.28867558
213	0xbf24ac47	-0.64325374
214	0x3d1dae2b	0.038496178
215	0x3e8e0f9a	0.27746278
216	0xbe4358ef	-0.19076894
217	0x3f2569b8	0.6461444
218	0xbf2bddc6	-0.67135274
219	0xbe23a866	-0.15982208
220	0xbf10adca	-0.5651518
221	0xbf062650	-0.5240221
222	0xbe7ee433	-0.24891739
223	0x3ea29709	0.31755856
224	0xbf7862b4	-0.9702561
225	0xbef9681f	-0.4871225
226	0xbf310260	-0.6914425
227	0xbed182d8	-0.40920138
228	0xbeecbf8d	-0.46239892
229	0x3c9fb4cc	0.01949539
230	0x3e2af004	0.16693121
231	0xbeab13f4	-0.3341366
232	0xbf066690	-0.5250025
233	0x3f0e49b9	0.5558124
234	0xbea61c0d	-0.32443276
235	0xbf09d4e6	-0.5384048
236	0xbe3924c0	-0.18080425
237	0x3e0b0373	0.13575535
238	0xbf2b6d7a	-0.6696392
239	0x3f0931a5	0.53591377
240	0xbd45d6ad	-0.048300434
241	0x3f31d5ce	0.69466865
242	0xbe90c48e	-0.2827496
243	0x3ddac175	0.1068143
244	0xbe28ef03	-0.16497426
245	0x3f4794a1	0.77961165
246	0xbf138229	-0.57620484
247	0x3f814a87	1.0100869
248	0xbd497b12	-0.049189635
249	0x3efb24ba	0.49051458
250	0x3e6282f4	0.22120267
251	0x3eb8f731	0.36126092
252	0x3f3afce6	0.7304214
253	0xbf233237	-0.63748497
254	0xbe6789cb	-0.22611158
255	0x3ee11455	0.43960825

arith.constant1 f4 [5]
0	0xbe5b073a	-0.21389475
1	0xbd918a50	-0.07106459
2	0x3ec9c7e7	0.39410326
3	0x3f18f4e2	0.5974866
4	0xbf3ffa50	-0.7499132

arith.constant5 f4 [64]
0	0xbfc62a14	-1.5481591
1	0xbdd815b7	-0.10551017
2	0x3e60a5a4	0.21938187
3	0xbd927093	-0.07150378
4	0xbe9d97bf	-0.30779836
5	0x3db36454	0.087593704
6	0xbf4aa0fc	-0.7915189
7	0xbf77b671	-0.9676276
8	0xbdf65f5a	-0.120299056
9	0xbf9228e6	-1.1418731
10	0x3fcaf3bf	1.5855635
11	0x3fdb900e	1.7153337
12	0xbfc40f10	-1.5317097
13	0xbf02429a	-0.50882876
14	0x3dcf3f43	0.10119488
15	0xbf27adc6	-0.6549953
16	0x3fabe148	1.3428125
17	0x3e2dad81	0.16960718
18	0xbf6a1b9e	-0.9144839
19	0x3db6ec23	0.08931758
20	0xbf48d19e	-0.7844485
21	0xbe984ffa	-0.29748517
22	0xbede7ec3	-0.43456087
23	0xbfc792dd	-1.5591694
24	0x3fcec4c4	1.6153798
25	0x3fd7196d	1.6804634
26	0x3e0048fe	0.12527844
27	0x3f0a63cf	0.54058546
28	0x3e129ac0	0.14316845
29	0xbf5c7bc2	-0.8612634
30	0xbe2cccdc	-0.16875023
31	0xbfbd30bf	-1.4780501
32	0xbeea4706	-0.45757312
33	0xbe8d1f64	-0.27563012
34	0xbf9c02df	-1.2188376
35	0xbfa80500	-1.3126526
36	0xbe2f4a2d	-0.1711814
37	0x3fd82575	1.6886431
38	0x3baa6e0e	0.005201108
39	0x3f82b61d	1.0211827
40	0xbe207012	-0.15667751
41	0x3e652772	0.22378328
42	0xbe31b8ab	-0.17355601
43	0x3e440527	0.1914259
44	0xbdb2a108	-0.087221205
45	0x3e2706eb	0.16311233
46	0xbe89e29b	-0.269307
47	0x3fb7c369	1.435651
48	0x3e4b8a0b	0.19876878
49	0x3d99c55f	0.07508349
50	0x3f3817d2	0.71911347
51	0x3e20a71e	0.1568875
52	0x3e82b8e8	0.25531697
53	0xbdaea876	-0.08528225
54	0x3f5e7ab6	0.8690599
55	0xbf9ffe2d	-1.2499443
56	0xbf37fcab	-0.71869916
57	0x3eb46f2f	0.35241076
58	0x3eb68413	0.3564764
59	0xbeb39f49	-0.35082462
60	0x3b83e87e	0.004025518
61	0xbfda0eaf	-1.7035731
62	0x3f125fb5	0.5717729
63	0x3fb9e176	1.452193

arith.constant6 f4 [64]
0	0x40c500cf	6.1563487
1	0x418af175	17.367899
2	0x41935dc1	18.420778
3	0x4165bfb6	14.359304
4	0x4163a579	14.227899
5	0x418df1a9	17.742998
6	0x412d5753	10.833819
7	0x4187859e	16.940243
8	0x418b5128	17.414627
9	0x41092bb6	8.573172
10	0x40eb57b1	7.3544545
11	0x40a65700	5.19812
12	0x40a3726b	5.107717
13	0x411a840b	9.657237
14	0x41a0d8c2	20.105839
15	0x41174f24	9.456821
16	0x4119abcf	9.604445
17	0x414def29	12.870889
18	0x416380f3	14.218982
19	0x41ac68b7	21.55113
20	0x419fb01e	19.960995
21	0x4180e726	16.112865
22	0x4189a4dc	17.205498
23	0x40e45458	7.135296
24	0x4114e6c2	9.306337
25	0x40847d4f	4.1402965
26	0x4159d658	13.61483
27	0x40fa290c	7.8175106
28	0x40e63cca	7.1949205
29	0x4178fc17	15.561545
30	0x413f98f3	11.974841
31	0x4125fbb5	10.373952
32	0x41d09dda	26.077076
33	0x4102e96f	8.181991
34	0x410bb286	8.731085
35	0x40a46255	5.1370034
36	0x411fc029	9.984414
37	0x40cd4693	6.414865
38	0x41d7eb43	26.989874
39	0x40fe11ff	7.939697
40	0x4189ae07	17.209974
41	0x418bef3a	17.49181
42	0x410ad2b2	8.676439
43	0x4157a793	13.478412
44	0x410cb0cb	8.793162
45	0x419fb165	19.961618
46	0x40e226dc	7.0672436
47	0x40abff34	5.3749027
48	0x418bf178	17.492905
49	0x40dda541	6.9264226
50	0x412767d0	10.462845
51	0x41515c6f	13.085067
52	0x41689660	14.536713
53	0x417381d6	15.219198
54	0x416cf167	14.808936
55	0x41016c60	8.088959
56	0x416d90a4	14.847813
57	0x41a3a62b	20.456137
58	0x4159a202	13.602053
59	0x4190b123	18.086493
60	0x417c62f7	15.774161
61	0x40ba8433	5.8286376
62	0x40e23c24	7.0698414
63	0x40a0e3ec	5.0278225

arith.constant7 f4 [64]
0	0x3c664a1c	0.014055755
1	0xbdfabadc	-0.12242672
2	0x3eaf06a4	0.34184754
3	0xbde11e99	-0.10992164
4	0x3ccb7ca4	0.024839707
5	0xbd2cd02c	-0.042190716
6	0xbe503bd1	-0.20335318
7	0x3e68a351	0.2271855
8	0x3e215a65	0.15757139
9	0x3e22ba94	0.15891486
10	0x3dbe3e4b	0.09289225
11	0x3e383139	0.17987527
12	0xbe4ee27a	-0.20203581
13	0x3da904eb	0.08252891
14	0xbee0e067	-0.43921205
15	0xbe6b9dbe	-0.23009393
16	0xbe4eb458	-0.20185983
17	0x3d9181b9	0.07104821
18	0x3e926747	0.2859442
19	0x3ae1a950	0.0017216597
20	0x3db49d44	0.088190585
21	0x3e32af77	0.17449747
22	0xbe35e54b	-0.1776325
23	0xbd9af44e	-0.07566129
24	0xbd5d96fb	-0.054099064
25	0x3e50298a	0.20328346
26	0xbe9e47b8	-0.30914092
27	0xbe56a7cf	-0.20962451
28	0x3dfcbf7c	0.1234121
29	0xbe73d14e	-0.23810312
30	0x3ed21d80	0.41038132
31	0x3e8ba2c9	0.27272633
32	0x3e36efdf	0.17864941
33	0xbc984cca	-0.018591303
34	0xbe922cba	-0.2854975
35	0x3e131168	0.14362109
36	0x3e14225a	0.14466229
37	0xbd72547e	-0.05916261
38	0x3dc9bf8d	0.098509885
39	0x3e5bea3d	0.21476074
40	0x3e1bce42	0.152154
41	0x3c98347b	0.018579712
42	0x3e1e2664	0.15444332
43	0x3dce9b07	0.10088163
44	0x3e84193d	0.25800505
45	0xbd9e0a22	-0.077167764
46	0xbd3836db	-0.04497419
47	0xbe1d3381	-0.15351678
48	0xbe60a30a	-0.21937194
49	0xbe1c7cfd	-0.15282054
50	0xbe5604c4	-0.20900255
51	0xbc65ea43	-0.014032903
52	0x3d9c9aa0	0.0764668
53	0x3e230b19	0.15922202
54	0xbe3a72d5	-0.18207867
55	0x3e03a974	0.1285761
56	0x3e3e5d83	0.1859036
57	0xbdb1c313	-0.086797856
58	0x3df4b714	0.11948982
59	0x3e4d7e26	0.20067653
60	0x3e2a2ae2	0.16617921
61	0x3daef14c	0.085421175
62	0xbdf20467	-0.11817246
63	0xbd855499	-0.06510276

arith.constant8 f4 [64]
0	0x4085c680	4.180481
1	0x4071bb51	3.777058
2	0x403e60f1	2.9746668
3	0x40530803	3.297364
4	0x4083242e	4.0981665
5	0x403d92ee	2.9620929
6	0x40573940	3.3628693
7	0x40b0bed8	5.5232964
8	0x4066234a	3.5959039
9	0x405cb89f	3.4487684
10	0x4063f6ef	3.5619466
11	0x40437e9b	3.0546024
12	0x406ca054	3.6972857
13	0x40626d0e	3.5379062
14	0x4075bce4	3.839654
15	0x408e403f	4.4453425
16	0x4053ae6d	3.307521
17	0x4062a8c0	3.5415497
18	0x408ab9aa	4.335164
19	0x4099acf4	4.8023624
20	0x4062163b	3.5326068
21	0x406c6586	3.6936965
22	0x405b4a6c	3.4264174
23	0x401fb853	2.4956253
24	0x40944321	4.6331944
25	0x4041b10a	3.0264306
26	0x4065e737	3.5922372
27	0x409fd4d5	4.9947305
28	0x405c9f8d	3.4472382
29	0x40645704	3.567811
30	0x4063308a	3.5498376
31	0x406a5000	3.6611328
32	0x406756ed	3.6146805
33	0x404d51df	3.208122
34	0x4080190d	4.003058
35	0x40788df4	3.8836641
36	0x408f1265	4.4709954
37	0x405e65d7	3.4749658
38	0x40371b13	2.8610275
39	0x408db9b0	4.428917
40	0x409d5f82	4.9179087
41	0x408b524e	4.353797
42	0x40687b4f	3.6325262
43	0x40a38a1a	5.110608
44	0x40762e2e	3.8465686
45	0x407ae6bb	3.9203327
46	0x4092b42f	4.584495
47	0x404de603	3.2171638
48	0x40680a3d	3.625625
49	0x404997f9	3.1499007
50	0x4050574e	3.2553287
51	0x406f3130	3.7373772
52	0x4092d69c	4.5886974
53	0x405069a5	3.256448
54	0x40714a94	3.770177
55	0x405cf95c	3.4527197
56	0x40a4d16d	5.1505647
57	0x40847803	4.13965
58	0x4076b987	3.8550737
59	0x40b81759	5.75285
60	0x405808d4	3.3755388
61	0x40430851	3.0473826
62	0x408d9f49	4.425694
63	0x40994d30	4.7906723

arith.constant20 f4 [256, 126]
0	0xbdcafe2b	-0.0991176
1	0x3cc3eb05	0.023915777
2	0x3c2118eb	0.009832601
3	0x3dd9ef45	0.1064134
4	0xbcf5534f	-0.029946951
5	0xbd4fede5	-0.050763983
6	0xbccb0e21	-0.02478701
7	0x3d063c04	0.03277208
8	0xbcaac496	-0.020845693
9	0x3d2d1ead	0.042265583
10	0x3d110dc8	0.035413533
11	0x3dd7928f	0.10526001
12	0xbe0461c0	-0.12927914
13	0xbcd79793	-0.026317393
14	0xbdfd8fb6	-0.12380926
15	0xbd9888c9	-0.07447965
16	0xbdf5d894	-0.120041996
17	0x3d2da608	0.042394668
18	0x3d3cb86c	0.046074316
19	0xbd2c9f60	-0.04214418
20	0x3caff860	0.02148074
21	0x3c9df7be	0.019283172
22	0x3d9522cc	0.072820276
23	0x3c909254	0.0176479
24	0x3dd999b5	0.106250204
25	0x3cb498c8	0.022045508
26	0x3d68aea4	0.056807175
27	0x3da45519	0.080240436
28	0x3d73fec2	0.059569128
29	0x3d3e745b	0.046497684
30	0xbd85bc46	-0.06530051
31	0xbdb99e2a	-0.090633705
32	0x3d158601	0.03650475
33	0xbd9a5966	-0.07536583
34	0x3d7d5c75	0.061855752
35	0x3cd1c712	0.02560762
36	0xbdcdc87b	-0.10048004
37	0xbdc35975	-0.09538547
38	0x3de04257	0.10950153
39	0x3d841e2d	0.06451068
40	0xbdd6e249	-0.10492379
41	0x3cabf747	0.020991934
42	0x3dd25e0a	0.10271843
43	0x3cd9cb91	0.026586326
44	0xbd30a7e7	-0.043128874
45	0xbd1d34c4	-0.0383804
46	0xbd5ff544	-0.054677263
47	0x3daf8dbe	0.08571957
48	0x3db5e964	0.08882406
49	0xbc3885e2	-0.011262389
50	0xbdaa3d8a	-0.08312519
51	0x3dd4dd7f	0.103938095
52	0x3df259ee	0.11833559
53	0xbd05a275	-0.032625634
54	0x3d13f195	0.036119062
55	0x3d7e8827	0.062141564
56	0x3db6cc47	0.089256816
57	0xbd8ee210	-0.06976712
58	0xbd0dae99	-0.034590337
59	0xbd561d4a	-0.052274026
60	0xbd9dfd3a	-0.07714315
61	0xbda2ca5c	-0.07948753
62	0x3c17a530	0.009255692
63	0xbdb01e35	-0.085995115
64	0x3ccaf084	0.02477289
65	0x3d430251	0.04760963
66	0x3e046c39	0.12931909
67	0x3dd9154d	0.10599766
68	0x3d425296	0.04744204
69	0x3c3c4c26	0.011492765
70	0x3dc31c2f	0.0952686
71	0x3d67fc1c	0.056636915
72	0xbc640f67	-0.013919688
73	0x3d8f95a2	0.07010962
74	0x3df35d59	0.11883039
75	0x3dd14100	0.10217476
76	0x3af93cf8	0.0019015362
77	0xbd8d70a5	-0.06906251
78	0xbcc32c75	-0.02382491
79	0x3dac10e6	0.084016606
80	0xbdba83ac	-0.09107146
81	0x3d1a39a3	0.037652623
82	0xbd571ef3	-0.05251975
83	0xbcf393c4	-0.029733546
84	0x3dbb3c54	0.09142366
85	0x3d8afa1a	0.06785984
86	0x3bbe4a79	0.0058072177
87	0xbda9e770	-0.08296096
88	0x3c868c6b	0.016424378
89	0xbcb449d6	-0.022007864
90	0xbdf2164a	-0.118206576
91	0x3ce40a3e	0.027836915
92	0x3dce771b	0.10081311
93	0xbdc2fd23	-0.09520938
94	0x3c127b41	0.008940519
95	0x3da9ad6f	0.08285033
96	0xbd715543	-0.058919203
97	0xbb997841	-0.004683525
98	0x3d3b6e2b	0.04575936
99	0xbdac6141	-0.08416987
100	0x3d4fef17	0.050765123
101	0xbd98fabe	-0.074697
102	0x3dd21d96	0.10259549
103	0x3ccc9fff	0.024978636
104	0x3d487310	0.048937857
105	0xbd586d63	-0.052838694
106	0xbc85af2a	-0.016318876
107	0x3cd48e32	0.02594671
108	0x3dbb1497	0.091347866
109	0xbdd4394e	-0.103624925
110	0xbda1b479	-0.078957506
111	0x3dca6cb4	0.09884015
112	0xbda0bcc9	-0.07848508
113	0xbdcaedfa	-0.09908672
114	0x3d1d70d9	0.038437698
115	0x3b6699c4	0.0035186866
116	0xbc7a9bd5	-0.015295942
117	0x3d90ae42	0.07064487
118	0xbd7f2bf4	-0.062297776
119	0xbd3e7f91	-0.046508376
120	0x3d8dec26	0.06929807
121	0xbdc120f4	-0.094301134
122	0xbd0d2c62	-0.034466155
123	0x3dc6ffef	0.09716784
124	0x3d4036e1	0.046927337
125	0x3d8ece6b	0.06972965
126	0xbbbabb7b	-0.005698619
127	0x3be342a6	0.0069354353
128	0x3d5486eb	0.05188648
129	0x3db0421f	0.086063616
130	0x3d5b184c	0.05348997
131	0xbc4763e5	-0.012169813
132	0x3dcae8fb	0.09907719
133	0x3dacf1a9	0.084445305
134	0x3d8e39b2	0.06944598
135	0x3d9a8931	0.075456984
136	0x3de6b184	0.11264327
137	0xbdb738ce	-0.089463815
138	0x3da4a062	0.08038403
139	0x3e01e9ec	0.1268689
140	0xbc93dce7	-0.01804967
141	0xbd348c23	-0.044078957
142	0x3c6acd55	0.0143311815
143	0x3baa6232	0.005199694
144	0xbd4f2162	-0.050568946
145	0x3db26f85	0.08712677
146	0x3d33a4ec	0.043858454
147	0xbd61d111	-0.055131022
148	0x3df9e77e	0.12202357
149	0xbdceedd5	-0.101039566
150	0xbd33b8ee	-0.043877535
151	0x3de6c5d1	0.11268199
152	0xbc7b78de	-0.015348641
153	0x3dcb8842	0.099380985
154	0x3ca2c35a	0.019868542
155	0x3e00e119	0.12585868
156	0x3d0948c1	0.03351665
157	0x3e001237	0.12506948
158	0x3da0c1f7	0.07849496
159	0x3c14851c	0.009064939
160	0x3be667c6	0.0070314137
161	0xba42e030	-0.0007433919
162	0xbd895f08	-0.06707579
163	0xbd95c57a	-0.07313056
164	0xbda596cd	-0.080854036
165	0x3dd37e9a	0.10326882
166	0x3c7c2fa4	0.015392218
167	0xbdb1c1bc	-0.0867953
168	0xbc9b81c0	-0.018982768
169	0x3deb87ed	0.11500535
170	0x3dec6773	0.11543169
171	0xbd1a5c7c	-0.037685856
172	0xbdcc9817	-0.09989946
173	0x3d737962	0.05944193
174	0x3b3492e2	0.002755337
175	0xbdb71856	-0.089401886
176	0xbc638313	-0.013886231
177	0x3d523756	0.051322304
178	0x3dcbad77	0.09945195
179	0x3def36b6	0.11680357
180	0xbac3b5c6	-0.0014931492
181	0x3c52815d	0.012848225
182	0x3c583cee	0.0131981205
183	0xbbc5a5ba	-0.006031719
184	0x3c8181fe	0.015809055
185	0x3d5b8b54	0.05359967
186	0x3dba735a	0.09104033
187	0xbdcffb45	-0.10155348
188	0x3db91990	0.09038079
189	0xbc13071f	-0.008973866
190	0xbd2d805e	-0.04235875
191	0xbdb136b7	-0.08653014
192	0x3e048095	0.12939675
193	0xbd0f8a25	-0.035043854
194	0x3bbe9c70	0.0058169886
195	0xbd4d8b85	-0.050181884
196	0xbd24758d	-0.040151168
197	0xbdb0b14e	-0.08627568
198	0xbc8b8bf1	-0.017034503
199	0xbdd74ad3	-0.105123185
200	0xbddcac87	-0.107750945
201	0xbcc76e1b	-0.024344495
202	0xbdcc944e	-0.099892244
203	0x3db56b85	0.08858398
204	0xbd7dd8d1	-0.06197435
205	0xbd2e2cfb	-0.042523365
206	0x3dcd9a1a	0.10039158
207	0xbc8de02e	-0.017318811
208	0xbd15c4ba	-0.036564566
209	0x3d9e6d07	0.07735639
210	0x3e02bf6e	0.12768337
211	0xbdf046e7	-0.117322735
212	0xbddb4c7d	-0.10707948
213	0x3df9a0be	0.12188862
214	0xbdd2879d	-0.102797724
215	0xbdca14b3	-0.09867229
216	0xbd138d11	-0.036023203
217	0xbb68cdb9	-0.003552301
218	0xbb6959ae	-0.0035606432
219	0x3dbf89fe	0.09352492
220	0x3d22f8fe	0.03978824
221	0xbd2c227b	-0.04202507
222	0xbd4db4ea	-0.05022136
223	0xbca677d8	-0.020320818
224	0xbd866de4	-0.06563929
225	0x3deb1d0e	0.11480151
226	0xbdbeeca0	-0.093224764
227	0xbdfd9d3b	-0.12383505
228	0x3d6ee176	0.058320485
229	0x3db9b3b4	0.09067479
230	0x3da5c57a	0.08094306
231	0xbde9c6a2	-0.11414839
232	0xbcf77c00	-0.030210495
233	0x3cf468f2	0.029835198
234	0xbdc2c8a0	-0.095109224
235	0x3cbc43ce	0.02298155
236	0xbd41eb95	-0.04734381
237	0x3c66a91a	0.014078403
238	0x3d026153	0.031831097
239	0xbd81481b	-0.06312581
240	0xbdd8a3ca	-0.10578115
241	0x3dd8fc45	0.105949916
242	0xbdbb6c8e	-0.091515645
243	0x3cb905fa	0.022585858
244	0xbdddbfa1	-0.10827566
245	0xbd8ea1cc	-0.06964454
246	0x3d4cbf65	0.049987216
247	0xbdbcc969	-0.092181034
248	0xbd8caf8f	-0.06869423
249	0x3ddd2999	0.1079895
250	0xbdcde2ad	-0.100530006
251	0xbdeac487	-0.11463266
252	0xbcb7d214	-0.02243904
253	0xbd87928b	-0.06619748
254	0x3d3166e5	0.04331102
255	0xbd350720	-0.044196248

arith.constant21 f4 [256, 64]
0	0xbd944958	-0.07240552
1	0xbd1c8d74	-0.038220838
2	0x3d89490e	0.06703387
3	0x3b8d2c3f	0.004308253
4	0x3cadcbfa	0.021215428
5	0x3e107ca3	0.14110045
6	0xbd314aae	-0.04328411
7	0x3d31e94b	0.043435376
8	0x3d47b130	0.048752964
9	0xbd21f7f3	-0.039543103
10	0x3d8bb790	0.06822121
11	0x3c970bca	0.018438239
12	0xbc70ddce	-0.01470132
13	0xbd99a7cc	-0.07502708
14	0x3ced8b3f	0.028997062
15	0x39175c6e	0.00014434915
16	0x3cbc0360	0.022950828
17	0x3ae5ca01	0.0017531515
18	0x3c00a883	0.007852676
19	0x3c156ab0	0.009119675
20	0x3d1cd62b	0.038290184
21	0xbc692aa4	-0.014231358
22	0x3d66ed8d	0.05637889
23	0x3dd493a3	0.10379722
24	0xbcde44a3	-0.027132338
25	0xbbdc5730	-0.0067242607
26	0xbccd47c9	-0.025058644
27	0xbd8b726e	-0.06808935
28	0xbc356dae	-0.011073513
29	0x3d3d2d8a	0.046186008
30	0x3ba221cb	0.004947876
31	0xbc26b2b2	-0.01017444
32	0x3d5faba7	0.05460706
33	0x3d2024e0	0.039097667
34	0x3d6a194c	0.05715303
35	0xbbea76da	-0.0071552815
36	0x3d66f51c	0.0563861
37	0xbd18d057	-0.037308063
38	0xbd2a52a1	-0.041582707
39	0x3dddc5a9	0.10828716
40	0xbd2bfeed	-0.041991163
41	0x3dfe0b37	0.12404483
42	0x3cee85cb	0.029116532
43	0xbcc0836c	-0.023500167
44	0xbe32fc03	-0.17478947
45	0xbc9d7176	-0.019219141
46	0xbd3022ac	-0.043001816
47	0x3d1e102d	0.038589645
48	0xbc77d9d5	-0.015127619
49	0x3da47ded	0.08031831
50	0x3d7073f0	0.058704317
51	0x3daa684e	0.08320676
52	0xbcfb69a3	-0.03069002
53	0xbd83f09a	-0.064423755
54	0xbdc325ca	-0.09528692
55	0x3d27b57f	0.040944573
56	0x3dcd7273	0.10031595
57	0xbdb7a7c0	-0.08967543
58	0xbcb7b98f	-0.022427348
59	0xbca793d0	-0.020456225
60	0xbe1253da	-0.142898
61	0x3c8b596a	0.01701041
62	0xbd417fed	-0.04724114
63	0xbd40c48c	-0.04706244
64	0xbce9a9d4	-0.028523363
65	0xbc338b5a	-0.010958517
66	0x3d7ba058	0.061432213
67	0xbd231946	-0.039819025
68	0xbd6d66d4	-0.057959393
69	0xbbd66483	-0.0065427436
70	0x3de0453e	0.10950707
71	0xbcc72780	-0.024310827
72	0xbdabc527	-0.08387213
73	0xbccc1b59	-0.024915384
74	0x3dc9fce9	0.09862692
75	0xbdadfe60	-0.08495784
76	0xbd8c4f61	-0.06851078
77	0x3da1a1f4	0.07892218
78	0xbdcfeb61	-0.10152317
79	0x3dcb64a8	0.09931308
80	0xbdce75c6	-0.10081057
81	0x3d645f23	0.055754792
82	0x3db1b975	0.08677951
83	0xbd80b378	-0.06284231
84	0xbd0a7638	-0.03380415
85	0xbdbd145b	-0.09232398
86	0x3d37d887	0.04488423
87	0x3cab6c5b	0.020925691
88	0xbd291408	-0.04127887
89	0x3d5af1c9	0.05345324
90	0x3d1a423e	0.03766083
91	0xbd30a3dc	-0.04312502
92	0xbdfb49bb	-0.12269922
93	0xbc949059	-0.018135237
94	0x3d68bf3e	0.056823008
95	0x3d0b8dee	0.0340709
96	0x3c5fad2b	0.013652126
97	0xbd26b4be	-0.040699713
98	0xbcc924a4	-0.024553604
99	0xbccce858	-0.025013134
100	0xbd65cca5	-0.056103367
101	0xbd7f7888	-0.062370807
102	0xbc5173d1	-0.01278396
103	0xbc662323	-0.014046463
104	0x3d9b5b74	0.07585803
105	0x3d8301cd	0.06396828
106	0x3c5068f1	0.0127203325
107	0x3d4ed34b	0.050494473
108	0xbd862e0d	-0.06551752
109	0x3dcc260c	0.09968194
110	0x3ca9699c	0.020680241
111	0x3ddd7150	0.10812628
112	0xbcf4dbe6	-0.029890012
113	0x3d88786f	0.06663596
114	0x3dc11030	0.09426916
115	0xbc56cdd7	-0.0131105995
116	0xbc4d72e8	-0.012539603
117	0xbda54257	-0.08069294
118	0xbe0f68dd	-0.14004846
119	0x3b594933	0.0033155202
120	0x3dfea1a4	0.12433174
121	0x3db86639	0.090038724
122	0x3ccc589a	0.024944592
123	0x3d977d09	0.073968954
124	0xbc7a8072	-0.015289413
125	0x3ba3f1c3	0.0050031855
126	0x3e0627e2	0.13101152
127	0xbd81e3e3	-0.06342294
128	0x3beebe00	0.0072858334
129	0x3c97d850	0.018535763
130	0xbc6d6fde	-0.014492003
131	0xbd229d71	-0.03970093
132	0xbd2d8021	-0.04235852
133	0xbe165038	-0.14679039
134	0xbd3d3f15	-0.046202738
135	0xbca0c2bb	-0.019624105
136	0xbd97f32d	-0.07419429
137	0xbb8b5cce	-0.0042530065
138	0xbe09fec2	-0.13476089
139	0x3cbf9077	0.023384316
140	0xbc7fb524	-0.015607152
141	0xbd965a8f	-0.073414914
142	0x3dac181b	0.08403035
143	0x3d7e008d	0.062012244
144	0xbc461616	-0.012090227
145	0x3d48f84a	0.049064912
146	0x3d7ca69c	0.06168233
147	0x3d13aa03	0.036050808
148	0x3da0089f	0.07814144
149	0xbcc7d118	-0.024391696
150	0xbd8bf805	-0.06834415
151	0xbde2e437	-0.11078685
152	0x3ca0a41e	0.019609507
153	0xbd18bd5e	-0.03728997
154	0x3d786cb0	0.060650527
155	0x3cfa07b6	0.030521255
156	0xbd79238b	-0.060824912
157	0xbd1d1b6a	-0.038356222
158	0xbdff2f8d	-0.124602415
159	0xbb0fedff	-0.0021961925
160	0x3dd49832	0.103805915
161	0x3d7d9ae3	0.06191529
162	0xbcb91142	-0.022591237
163	0x3c5cf317	0.0134856915
164	0xbd6d3ffc	-0.05792235
165	0xbdbf7d93	-0.09350123
166	0x3d0235b9	0.031789515
167	0xbdf80c2e	-0.12111698
168	0xbcf7368c	-0.030177377
169	0xbe0f208e	-0.13977262
170	0x3bbc9264	0.005754756
171	0xbc9a368a	-0.018824834
172	0xbe15e75d	-0.1463904
173	0xbce6ceb6	-0.02817474
174	0xbd7b4e3f	-0.06135392
175	0xbce6c1da	-0.028168608
176	0x3cb44673	0.022006249
177	0xbd5804ac	-0.05273883
178	0xbb9b4841	-0.004738838
179	0x3db5a8a8	0.08870059
180	0x3dc4b238	0.09604305
181	0x3dab9122	0.08377291
182	0xbcb55c24	-0.022138663
183	0x3b0078f5	0.0019603346
184	0x3dbc7916	0.09202783
185	0x3cc09819	0.023510026
186	0xbbf62a28	-0.0075123496
187	0x3c1e71d9	0.009670698
188	0xbcbbbab5	-0.022916177
189	0xbcc4d628	-0.024027899
190	0x3bd4fba0	0.0064997226
191	0xbdf8cdc2	-0.1214862
192	0x3b903b51	0.0044016023
193	0xbd4cff01	-0.05004788
194	0x3c2c6048	0.010521002
195	0x3e121ffd	0.14270015
196	0x3d4dd310	0.050250113
197	0xbcce560c	-0.025187515
198	0x3c50253b	0.012704189
199	0xbcb19d1a	-0.021681357
200	0xbd81cf04	-0.06338313
201	0xbd2ae925	-0.04172625
202	0xbd30949b	-0.04311047
203	0xbc44effe	-0.012020109
204	0xbcd63e6a	-0.026152808
205	0x3c93d1cc	0.018044375
206	0x3d9a6203	0.075382255
207	0x3c7f3b2a	0.015578071
208	0xbc31391e	-0.01081684
209	0x3df1adc5	0.11800722
210	0xbc864a24	-0.016392775
211	0xbd83074a	-0.06397875
212	0x3cf9c6d5	0.030490318
213	0xbdc1d6c2	-0.0946479
214	0xbd6d9fca	-0.058013715
215	0x3c093d50	0.008376434
216	0x3cc37703	0.02386046
217	0x3d85eccd	0.06539307
218	0x3d3684ee	0.044560365
219	0x3c6350fd	0.01387429
220	0x3dbbf593	0.09177699
221	0xbc55e14e	-0.013054205
222	0x3a9d7e24	0.0012015742
223	0x3d2b2fe0	0.041793704
224	0x3d12398b	0.03569941
225	0xbd2a011d	-0.041504968
226	0x3cd3a7d1	0.025836857
227	0xbd67c1a1	-0.056581143
228	0xbd1a09e3	-0.037607085
229	0x3dad7078	0.08468717
230	0xbb1aea9a	-0.0023638369
231	0x3d8c5910	0.06852925
232	0x3da523af	0.08063447
233	0x3d922eba	0.07137819
234	0xbbb6e93f	-0.0055820043
235	0xbd3ad117	-0.04560956
236	0x3c75eff7	0.015010825
237	0xbd4882f4	-0.04895301
238	0x3d8f2234	0.069889456
239	0x3d38805d	0.04504429
240	0xbda17b67	-0.07884865
241	0xbd67afdf	-0.056564208
242	0xbc38db15	-0.011282702
243	0x3cf6b055	0.030113379
244	0xbc870d07	-0.016485704
245	0xbcc503e7	-0.024049712
246	0xbe01a3f2	-0.12660196
247	0x3d869ae9	0.065725155
248	0x3c9df0cb	0.019279858
249	0xbdd37f96	-0.103270695
250	0xbda8de92	-0.08245577
251	0x3da52a49	0.08064706
252	0x3d73fee6	0.059569262
253	0xbdce6b55	-0.10079066
254	0x3d8ecdb4	0.069728285
255	0x3ddb4652	0.10706772

sequential_1/lstm_1/while/lstm_cell_1/add_1/ReadVariableOp f4 [256]
0	0x3b550b25	0.0032507863
1	0x3c9bacbd	0.019003266
2	0x3c8720f0	0.016495198
3	0x3beaaf0d	0.007161981
4	0xbbc33ae9	-0.0059579504
5	0x3adfe248	0.0017080987
6	0x3bb74183	0.0055925264
7	0xbb946be4	-0.004529463
8	0x3aa530c1	0.0012603031
9	0x3b2edbee	0.0026681381
10	0xba84dd21	-0.0010136702
11	0xbbc97557	-0.006148021
12	0xbb5e1bb5	-0.0033891026
13	0xba6e7b68	-0.00090973685
14	0x3bcf4e46	0.0063264696
15	0x3c2c243f	0.010506689
16	0xbb4a2092	-0.0030842167
17	0x3a300f0b	0.0006716109
18	0xbc23a874	-0.009988893
19	0xbbb3d911	-0.005488523
20	0xbc4ffbcb	-0.012694309
21	0x3caccefd	0.021094793
22	0xb8b72fb4	-8.7350054e-05
23	0x3a90d02d	0.0011048369
24	0x3a7bac9d	0.00096006115
25	0x3a8d3b79	0.001077517
26	0x3c2bab47	0.010477847
27	0x3b7d8469	0.003868366
28	0x3a33763c	0.00068459264
29	0xbb5374b0	-0.0032265596
30	0x3c4a24c9	0.012337872
31	0x3b247f68	0.0025100354
32	0xbbbdc7d1	-0.0057916422
33	0xbaa3768f	-0.0012471246
34	0x3b6f5125	0.0036516872
35	0x3ba7df11	0.005123027
36	0xbaec2b90	-0.0018018354
37	0xbb8bd2ae	-0.0042670583
38	0xbbacd4cb	-0.0052743903
39	0x3bf0b77c	0.007346092
40	0x3c0ff56d	0.008786541
41	0x3c352dc6	0.0110582765
42	0x3a01cc7f	0.0004951432
43	0x3cb51316	0.022103827
44	0x3adf1111	0.0017018636
45	0x3ae52cd7	0.0017484677
46	0x3bbfb5a9	0.005850513
47	0xba5e25d0	-0.00084742624
48	0x3c170cb1	0.009219334
49	0x3bfacdd0	0.0076539293
50	0x38bfca15	9.1452304e-05
51	0x3b416abd	0.0029513084
52	0x3c1b69b2	0.009485649
53	0x3cb9b725	0.022670338
54	0xbb973c69	-0.0046153557
55	0xbab51ba8	-0.0013817446
56	0xbba129b9	-0.004918304
57	0xbc58a101	-0.01322198
58	0xbbb41a5a	-0.0054963054
59	0x3bfcc216	0.0077135665
60	0x3c92b50b	0.017908594
61	0xba5ceac1	-0.0008427315
62	0xb97c4115	-0.00024056838
63	0x3ba74d60	0.0051056594
64	0x3f814cd7	1.0101575
65	0x3f80a015	1.0048853
66	0x3f7cd45a	0.9876152
67	0x3f7f1516	0.9964155
68	0x3f7d2780	0.988884
69	0x3f7e8815	0.99426395
70	0x3f8064ee	1.0030801
71	0x3f7f4d16	0.99727
72	0x3f7c3b5c	0.98528075
73	0x3f7fcacb	0.9991881
74	0x3f7d045d	0.9883478
75	0x3f7d40f9	0.98927265
76	0x3f803160	1.0015068
77	0x3f807f91	1.003893
78	0x3f7d85a4	0.99032044
79	0x3f7f7aea	0.99796927
80	0x3f7faa04	0.998688
81	0x3f8079c3	1.0037159
82	0x3f7cfd94	0.9882443
83	0x3f7d6742	0.98985684
84	0x3f7e24a7	0.9927468
85	0x3f80f4bf	1.007469
86	0x3f7ebb1c	0.99504256
87	0x3f807610	1.003603
88	0x3f7eea6a	0.9957644
89	0x3f804d16	1.0023525
90	0x3f813e1b	1.0097078
91	0x3f803dcb	1.0018858
92	0x3f80061c	1.0001864
93	0x3f7ea101	0.9946442
94	0x3f817929	1.01151
95	0x3f7ef9db	0.996
96	0x3f7d8f2f	0.99046606
97	0x3f809c19	1.0047637
98	0x3f80ab8f	1.0052356
99	0x3f7f0a25	0.99624854
100	0x3f80bdc9	1.0057918
101	0x3f7ed78f	0.99547666
102	0x3f7e859a	0.9942261
103	0x3f7f0674	0.9961922
104	0x3f7eb404	0.9949343
105	0x3f7f9058	0.99829626
106	0x3f7ffdaa	0.99996436
107	0x3f81a369	1.0127994
108	0x3f80c311	1.005953
109	0x3f7f93a3	0.9983465
110	0x3f808aa8	1.0042315
111	0x3f800a53	1.0003151
112	0x3f7ef1b4	0.9958756
113	0x3f80eb87	1.0071877
114	0x3f7df27f	0.99198145
115	0x3f80694c	1.0032134
116	0x3f7f78da	0.9979378
117	0x3f808f0a	1.0043652
118	0x3f7e7ff2	0.9941398
119	0x3f7ea468	0.99469614
120	0x3f7e1d71	0.99263674
121	0x3f800bbe	1.0003583
122	0x3f7e136e	0.992484
123	0x3f7f2849	0.99670845
124	0x3f814c94	1.0101495
125	0x3f7fa35e	0.99858654
126	0x3f7e2db7	0.99288505
127	0x3f812855	1.0090433
128	0x3b460546	0.0030215546
129	0xbb7de5fe	-0.0038741822
130	0xbab2d5d5	-0.0013644049
131	0xbc4edd7b	-0.012626047
132	0x3a9de9b0	0.0012047794
133	0x3b494eb8	0.0030717086
134	0xbba98af9	-0.0051740375
135	0x3b09a8cf	0.0021005159
136	0x3b8ea5d4	0.0043532643
137	0x38e25c06	0.000107936605
138	0x3c5588cd	0.013033104
139	0x3c0f5d9f	0.008750348
140	0x3a2a3168	0.00064923475
141	0xbc1da8d9	-0.009622776
142	0x3b5a3319	0.0033294617
143	0xbaadd2a8	-0.0013261633
144	0x3c2616ac	0.010137241
145	0xbad41f6d	-0.0016183682
146	0xbb6566d0	-0.0035003908
147	0xba110100	-0.000553146
148	0xbc05b592	-0.0081609655
149	0x3a7ef1f5	0.00097253855
150	0xbb459102	-0.0030146246
151	0xbae479a1	-0.0017431268
152	0xbaaae7c1	-0.0013039039
153	0x3a99ad10	0.001172455
154	0xbaed1418	-0.0018087653
155	0x3b2ee935	0.0026689295
156	0x3bd8a1f5	0.0066111037
157	0xbb17c669	-0.0023159033
158	0xbc2b30db	-0.01044866
159	0x3b212274	0.0024587186
160	0xbb7b3fa5	-0.0038337496
161	0x3bcceac4	0.006253572
162	0xbb8f00e6	-0.004364121
163	0xbb52dfcc	-0.003217685
164	0x39e461f5	0.00043560533
165	0x38b593e7	8.6583015e-05
166	0x3b242fe4	0.002505296
167	0xbaa4fc2a	-0.0012587358
168	0x3aec70f8	0.0018039038
169	0xbb5f7183	-0.0034094758
170	0xbaab1422	-0.0013052265
171	0x3b08fd56	0.0020902953
172	0xba43978e	-0.0007461243
173	0x3c454834	0.01204114
174	0x3a801f38	0.0009774929
175	0x3aeb4b88	0.0017951587
176	0x3af0e494	0.0018378668
177	0xbb131990	-0.0022445656
178	0xbb77ce21	-0.0037812071
179	0xbc0beb6c	-0.008540016
180	0x39b009e0	0.00033576693
181	0xba8a7678	-0.0010563871
182	0xbaa6336c	-0.001268012
183	0xbbb86305	-0.0056270384
184	0xbad14f13	-0.0015969
185	0xbafbf765	-0.001922351
186	0x3c0083da	0.007843936
187	0x3b271d46	0.0025499626
188	0xbbcc03e8	-0.0062260516
189	0x3b00cfa7	0.001965502
190	0x3bc47b61	0.005996153
191	0xbabe3684	-0.0014512097
192	0x3b2d5f46	0.0026454492
193	0x3cb4631a	0.022019912
194	0x3c8d9007	0.017280592
195	0x3be7b494	0.007071087
196	0xbbe12761	-0.0068711494
197	0x3aefbd61	0.0018290692
198	0x3c1d7361	0.009610028
199	0xb9a25b3e	-0.0003096703
200	0x3aca18e3	0.0015418794
201	0x3b5c5bc7	0.003362404
202	0xba3fc09b	-0.0007314772
203	0xbbbe2d6f	-0.005803756
204	0xbbb70cee	-0.005586258
205	0x3b195403	0.0023396022
206	0x3b9e1f7b	0.00482553
207	0x3c3989ce	0.011324359
208	0xba8aacb2	-0.0010580032
209	0x3a33d236	0.0006859632
210	0xbc266cea	-0.010157803
211	0xbb9f2a6c	-0.004857352
212	0xbc3d2ec4	-0.011546794
213	0x3cc0aff1	0.023521395
214	0x393b2f8c	0.00017851422
215	0x3acd1bcf	0.0015648546
216	0xba82d3c6	-0.0009981326
217	0x3a2a63e4	0.000649987
218	0x3c0311d8	0.00799986
219	0x3b831227	0.0039999667
220	0x3644ff7b	2.9354985e-06
221	0xbb717102	-0.003684104
222	0x3c628373	0.013825285
223	0x3b12f3d6	0.002242317
224	0xbbe30180	-0.006927669
225	0xbac35302	-0.0014902058
226	0x3bc5679c	0.006024314
227	0x3be99f8e	0.007129616
228	0xb9e761be	-0.00044132577
229	0xbbbbcbea	-0.0057310956
230	0xbba0b77c	-0.0049046855
231	0x3b955af2	0.0045579607
232	0x3c2f480b	0.010698329
233	0x3bf1622c	0.0073664393
234	0x3a84a8c2	0.0010121095
235	0x3c83fe51	0.016112478
236	0x3b7fdd1c	0.0039041704
237	0x3ba2f838	0.0049734376
238	0x3c1e308e	0.009655131
239	0x3bc4c84f	0.006005324
240	0x3c0a330e	0.008435024
241	0x3c0e8625	0.008698975
242	0xba791cc0	-0.000950288
243	0x3b81fb77	0.0039667445
244	0x3c0dedbe	0.008662639
245	0x3cbb025e	0.022828277
246	0xbba5244d	-0.005039728
247	0xbb2c2ae6	-0.0026270687
248	0xba73e89b	-0.0009304375
249	0xbc44322f	-0.011974855
250	0xbb7968d8	-0.0038056877
251	0x3be055a3	0.006846146
252	0x3c85602b	0.016281208
253	0xbab81f86	-0.0014047481
254	0xb8ff960f	-0.00012187298
255	0x3b9d44a1	0.004799441

arith.constant24 f4 [256, 64]
0	0x3d857bc3	0.06517746
1	0x3d0a247a	0.033726193
2	0x3d487b1b	0.048945528
3	0x3de69b6f	0.11260115
4	0x3ddac0b6	0.10681288
5	0x3d30ad76	0.043134175
6	0xbdfc3fa4	-0.12316826
7	0xbdf11e93	-0.1177341
8	0xba13226c	-0.0005612734
9	0x3d809565	0.06278495
10	0x3d5bfc75	0.05370756
11	0x3d9df5bf	0.07712888
12	0x3dd801f8	0.105472505
13	0x3d812d8f	0.06307518
14	0x3dde5403	0.10855868
15	0x3dc23879	0.094834276
16	0x3dd71905	0.10502819
17	0x3ddddffb	0.108337365
18	0x3c7c7ca6	0.015410578
19	0x3dcefdfe	0.10107039
20	0xbd81ebc8	-0.063438
21	0x3aa4951b	0.0012556644
22	0x3dd4f6a9	0.10398609
23	0x3ce94e1d	0.02847963
24	0xbd8c0fdf	-0.06838965
25	0x3d195493	0.037434172
26	0x3d665c72	0.056240506
27	0x3da5c714	0.08094612
28	0xbe061f3b	-0.13097851
29	0xbb498033	-0.0030746579
30	0xbd95b84e	-0.07310544
31	0x3de1af06	0.11019711
32	0x3dc47447	0.09592491
33	0x3be10477	0.0068669873
34	0x3c0f87ff	0.008760451
35	0x3db4cef9	0.088285394
36	0xbdf06229	-0.117374726
37	0x3ddfd3d9	0.109290786
38	0x3cd2fc39	0.025755035
39	0x3d770c76	0.060314618
40	0xbdeb8951	-0.115008004
41	0x3d29b417	0.041431513
42	0xbe077e28	-0.13231719
43	0xbdc91eb3	-0.098203085
44	0xbd390dce	-0.04517918
45	0x3ca92b3d	0.0206505
46	0x3e086e82	0.13323405
47	0x3c8b02af	0.016969053
48	0x3db3cddd	0.087795
49	0x3c3ef962	0.011656137
50	0x3dc123a8	0.09430629
51	0x3db58579	0.088633485
52	0x3bfd4b53	0.0077299266
53	0xbe051181	-0.12994958
54	0xbd3af009	-0.04563907
55	0x3dea4803	0.114395164
56	0x3df8dfec	0.12152085
57	0x3dfaafa0	0.12240529
58	0xbdc907e6	-0.0981596
59	0xbe0b185e	-0.13583514
60	0x3dbabbe6	0.0911787
61	0xbd713246	-0.058885835
62	0x3dee0fa0	0.11624074
63	0xbbd5d9d7	-0.0065262127
64	0xbde5e4bb	-0.112252675
65	0x3cb6aa6e	0.022298064
66	0x3e046ec1	0.12932874
67	0x3bebef31	0.0072001447
68	0xbd4c74d2	-0.049916096
69	0xbc8b4233	-0.01699934
70	0xbb4c349c	-0.0031159287
71	0xbc872a56	-0.01649968
72	0xbd646593	-0.05576093
73	0xbdd26a46	-0.10274176
74	0x3d01dd9f	0.031705495
75	0x3d43d81e	0.047813527
76	0xbdcbe4ae	-0.099557266
77	0x3dabccbc	0.08388659
78	0xbdacf03a	-0.08444257
79	0x3d6994e1	0.057026748
80	0x3d96bc48	0.073601305
81	0xbd090074	-0.033447698
82	0xbdea4bab	-0.11440214
83	0x3d6efd97	0.05834731
84	0xbdd2ef1a	-0.10299511
85	0x3d7bc9d0	0.06147176
86	0xbdebe0b5	-0.11517469
87	0xbc365b49	-0.0111301625
88	0xbb0beed8	-0.0021352079
89	0x3d0500d1	0.03247148
90	0xbd1b5843	-0.03792597
91	0xbe07e5e3	-0.13271289
92	0xbca32049	-0.019912856
93	0x3ca9f701	0.020747663
94	0xbd16f73d	-0.03685688
95	0x3db0777f	0.08616542
96	0xbcbea0e3	-0.023270076
97	0x3cedb922	0.029018942
98	0x3dfbb7ca	0.12290914
99	0xbd26953f	-0.040669676
100	0xbd7b4428	-0.061344296
101	0xbd4475ed	-0.047964025
102	0x3ce78a9e	0.02826434
103	0x3ce96b7e	0.02849364
104	0xbcb9a099	-0.022659587
105	0xbb67751a	-0.00353176
106	0x3d98a317	0.07452982
107	0x3d5fcfee	0.054641657
108	0x3d0d8eec	0.03456013
109	0x3db51cea	0.088434055
110	0x3dfd343b	0.12363478
111	0x3a360367	0.0006943256
112	0x3d9fb8b8	0.07798904
113	0x3d6a9e9d	0.05728017
114	0x3df7602f	0.120788924
115	0x3d9102c1	0.070806034
116	0xbd1303c8	-0.035892278
117	0xbde5ece7	-0.11226826
118	0xbda6eff0	-0.08151233
119	0x3d24a79a	0.0401989
120	0x3e015611	0.12630488
121	0x3d4c2e33	0.049848747
122	0xbca4fdf2	-0.020140622
123	0xbdf5609f	-0.1198132
124	0xbd43c4f8	-0.047795266
125	0xbdc571d4	-0.096408516
126	0xbda6ba79	-0.081410356
127	0xbc5a1d17	-0.0133126
128	0xbda6e17f	-0.08148479
129	0xbd52676b	-0.05136816
130	0xbbd39160	-0.006456539
131	0xbdf96a82	-0.12178518
132	0x3deaa945	0.11458067
133	0x3debeb58	0.11519498
134	0xbdc12a69	-0.09431917
135	0xbdb9df4f	-0.09075796
136	0xbdf057dd	-0.117355086
137	0xbde0543a	-0.10953565
138	0xbdac1a28	-0.084034264
139	0xbd05c30f	-0.032656725
140	0xbb7efdb5	-0.0038908545
141	0x3d882d14	0.06649223
142	0xbd32dac7	-0.043665674
143	0xbbf9fcbe	-0.007629006
144	0x3e030cec	0.12797898
145	0xbd1f3cc3	-0.038876306
146	0x3d88ba39	0.06676144
147	0xbc21c4bd	-0.009873566
148	0xbd264c9a	-0.040600397
149	0x3d5d7c64	0.054073706
150	0xbdfc6c94	-0.12325397
151	0xbc7c6e32	-0.015407132
152	0xbded3be9	-0.115836926
153	0x3d3dc371	0.046328966
154	0xbd0352cd	-0.032061387
155	0xbdfdc6a7	-0.123914056
156	0xbd84078a	-0.064467505
157	0xbd845af6	-0.06462662
158	0xbc93da32	-0.01804838
159	0xbcd6bec8	-0.026214018
160	0xbdda3c8a	-0.10656078
161	0xbdd093e5	-0.10184459
162	0x3db0b2fb	0.08627888
163	0xbd8ea6b0	-0.06965387
164	0x3d5e347c	0.05424927
165	0x3c95ebf3	0.018300986
166	0xbdbd12c7	-0.09232097
167	0xbd985829	-0.0743869
168	0xbe0056d6	-0.12533125
169	0xbdeb3790	-0.11485207
170	0xbd05d602	-0.032674797
171	0xbcf5aad4	-0.029988684
172	0xbd49643f	-0.049167868
173	0x3d8deae0	0.069295645
174	0xbd481057	-0.048843708
175	0x3d12f23f	0.035875555
176	0xbd7acc4a	-0.06122998
177	0xbde905dd	-0.113780715
178	0x3d039766	0.032126807
179	0x3d5ba187	0.05362084
180	0xbcfbac60	-0.030721843
181	0xbd412199	-0.04715118
182	0xbdc044bb	-0.09388109
183	0xbcefce06	-0.029273044
184	0x3df6aad2	0.120443
185	0xbcc10238	-0.023560628
186	0x3dbf39ec	0.093372196
187	0x3c52182b	0.012823145
188	0x3c1e2265	0.009651755
189	0x3dbdcbb5	0.0926737
190	0x3dda02d3	0.1064507
191	0x3d4d3b80	0.05010557
192	0xbd32acd9	-0.04362187
193	0x3d6622e8	0.056185633
194	0x3b3e66fe	0.0029053087
195	0x3e029f48	0.12756073
196	0x3dee4d2c	0.11635813
197	0xbcdf8686	-0.027285825
198	0xbdc5399d	-0.096301295
199	0xbd1c9bec	-0.038234636
200	0x3ceb3dc7	0.028715981
201	0xbdc7d4cd	-0.097573854
202	0x3dd10c58	0.102074325
203	0x3daae462	0.08344342
204	0x3d68fe41	0.0568831
205	0xbdf606b6	-0.12012999
206	0xbdb79e4e	-0.08965741
207	0x3d690e0d	0.056898165
208	0x3e0be038	0.13659751
209	0xbd1285ff	-0.03577232
210	0xbd52aa83	-0.051432144
211	0x3d8fc8da	0.07020731
212	0xbca7b677	-0.020472748
213	0xbde7e057	-0.11322086
214	0xbdbb0f1e	-0.09133743
215	0x3cc53106	0.024071228
216	0x3db8ecc4	0.090295345
217	0x3c8d3eca	0.017241854
218	0x3e0d214f	0.13782237
219	0x3d4cca91	0.04999787
220	0x3d10479b	0.03522454
221	0x3def62e2	0.11688782
222	0xbdbef5b4	-0.09324208
223	0x3de7376e	0.11289869
224	0xbdbcca99	-0.0921833
225	0x3b13a2e7	0.0022527517
226	0xbc106c80	-0.008814931
227	0xbdd15b9e	-0.10222553
228	0x3d530511	0.051518504
229	0xbbe99a64	-0.0071290005
230	0x3d93a8b8	0.07209915
231	0x3d96e889	0.07368571
232	0xbd61fe90	-0.05517441
233	0x3d6ca2eb	0.05777256
234	0x3d154c4f	0.036449727
235	0xbd14337d	-0.036181916
236	0x3de0973c	0.10966346
237	0xbc127389	-0.008938679
238	0x3bf9aefc	0.0076197367
239	0xbd2501ad	-0.0402848
240	0x3df2fbcc	0.11864433
241	0xbd767680	-0.060171604
242	0xbddec4b8	-0.10877365
243	0x3e08d926	0.13364086
244	0xbd1ec180	-0.038758755
245	0xbdc7358a	-0.09727009
246	0x3e09aa9e	0.13443992
247	0xbc517050	-0.012783125
248	0x3e0b15d3	0.13582544
249	0xbe082bf6	-0.1329802
250	0xbdc96bea	-0.09835036
251	0x3dcea9c5	0.10090975
252	0x3ddd3aec	0.10802254
253	0x3dded5ec	0.10880646
254	0x3d4f1849	0.05056027
255	0xbdc1cfd5	-0.09463469

arith.constant25 f4 [256, 64]
0	0xbd0c47cb	-0.034248155
1	0xbd2a2db3	-0.04154749
2	0x3c8f84c0	0.017519355
3	0xbe2e7af2	-0.17039087
4	0xbd8c32f3	-0.06845655
5	0xbd850c92	-0.06496538
6	0x3cb55dac	0.022139393
7	0x3d0c35d2	0.034231015
8	0x3b358757	0.0027699077
9	0xbd601349	-0.05470589
10	0x3c498a99	0.012301111
11	0x3d0688e2	0.032845385
12	0xbc7f36dd	-0.015577045
13	0x3b96e4c1	0.0046049063
14	0xbdb5b851	-0.08873046
15	0xbd192775	-0.037391145
16	0xbd48a6bc	-0.048987135
17	0x3d1f527b	0.03889702
18	0xbd31fc80	-0.043453693
19	0x3df9ccdc	0.12197277
20	0x3d257d80	0.04040289
21	0x3bbec4c4	0.005821796
22	0xbd5458fa	-0.051842667
23	0xbd64ccdc	-0.05585943
24	0x3ce9ace3	0.028524822
25	0x3da597ae	0.08085571
26	0x3d249554	0.040181473
27	0xbcf2d17d	-0.029640907
28	0xbd0739d2	-0.033014126
29	0x3ccfe298	0.025376603
30	0xbdb0a746	-0.08625655
31	0x3d674eb5	0.056471545
32	0x3db55257	0.08853596
33	0xbd8ec264	-0.06970671
34	0x3c91998c	0.017773412
35	0x3d9ec681	0.07752705
36	0xbc8848d2	-0.016636286
37	0xbd7ccf66	-0.061721228
38	0x3b90756e	0.00440853
39	0xbbd35e79	-0.006450471
40	0x3db2d9f8	0.087329805
41	0x3db5154e	0.08841954
42	0xbc92c45e	-0.0179159
43	0x3d249a32	0.040186115
44	0x3ddc361c	0.10752508
45	0x3de150f1	0.110017665
46	0x3dc294a8	0.0950101
47	0xbd6048f7	-0.054757085
48	0x3d9a0fd5	0.07522551
49	0x3de73e38	0.11291164
50	0x3cb05efa	0.021529663
51	0xbdcb5917	-0.09929102
52	0x3c918202	0.017762188
53	0x3d6b1c8b	0.057400268
54	0xbdeaa1e5	-0.1145666
55	0x3bd61b68	0.006534029
56	0x3dddd82c	0.10832247
57	0x3c62d523	0.013844761
58	0xbc6cc570	-0.01445137
59	0xbe1b9575	-0.15193732
60	0x3d419d7c	0.04726933
61	0xbdb19413	-0.08670821
62	0xbcb956ad	-0.022624338
63	0x3dcd3eb7	0.100217275
64	0xbda200ce	-0.0791031
65	0x3de8bfb1	0.11364687
66	0xbd80468e	-0.06263457
67	0x3d547932	0.051873393
68	0xbb8bd8d9	-0.0042677936
69	0xbd1eb818	-0.038749784
70	0xbdd37d25	-0.10326604
71	0x3e0c4f60	0.13702154
72	0x3dc37699	0.09544105
73	0x3cf5cfbe	0.030006286
74	0xbd6a2c59	-0.0571712
75	0x3cc8b2a2	0.024499241
76	0xbcd693ec	-0.026193582
77	0xbdd7526f	-0.1051377
78	0xbd5dac43	-0.05411936
79	0xbcf32034	-0.029678442
80	0xbc7a2567	-0.0152677065
81	0x3de0c69b	0.10975381
82	0x3d9298bf	0.0715804
83	0xbe00f139	-0.12592019
84	0x3c909f86	0.017654192
85	0x3d859e33	0.06524315
86	0x3dcdcdc4	0.10049012
87	0x3de14a07	0.11000448
88	0x3dbf8f62	0.0935352
89	0x3d4b347d	0.049610604
90	0x3c803b78	0.015653357
91	0xbdd8a2dc	-0.10577938
92	0x3ca5ac70	0.020223826
93	0xbd9a6701	-0.07539178
94	0xbda7247f	-0.08161258
95	0xbc9dfb0a	-0.019284744
96	0x3cb3a5a0	0.021929562
97	0x3d382f23	0.044966828
98	0xbc87627e	-0.016526457
99	0x3d2225e4	0.039586917
100	0xbe05f7c7	-0.13082801
101	0xbdc65513	-0.09684195
102	0x3d5f9673	0.05458684
103	0x3d5cfb99	0.05395088
104	0xbc2cc6e3	-0.010545465
105	0xbd9342ab	-0.0719045
106	0xbdf80fbe	-0.121123776
107	0x3dd9d365	0.106360234
108	0xbd922d38	-0.07137531
109	0x3c676044	0.014122073
110	0x3df3d965	0.11906699
111	0xbd4f2c7c	-0.050579533
112	0x3c11eb11	0.008906142
113	0x3d3cec67	0.04612389
114	0x3dcb1506	0.09916119
115	0xbcd4ba01	-0.0259676
116	0xbcfaa2f7	-0.030595286
117	0x3e06958f	0.1314299
118	0xbd3f2164	-0.046662703
119	0xbd10a037	-0.035309043
120	0xbd5ef2f0	-0.054430902
121	0x3d83e81b	0.06440755
122	0x3cfcb338	0.030847177
123	0x3d8c2dfd	0.06844709
124	0xbd83cc8f	-0.06435501
125	0x3c004a66	0.007830238
126	0x3bdb01e7	0.0066835764
127	0xbca3a4bd	-0.019976014
128	0x3d7c525f	0.061601993
129	0x3d2619d2	0.040551968
130	0x3da55d85	0.08074478
131	0x3d989096	0.074494526
132	0xbdf483c7	-0.11939197
133	0xbb1fa6b9	-0.002436085
134	0x3d2e064f	0.042486485
135	0x3d4eab57	0.05045637
136	0xbca5e1c4	-0.020249255
137	0xbdd634dc	-0.10459301
138	0x3c345c56	0.011008343
139	0xbd61e726	-0.05515208
140	0xbd20391e	-0.03911697
141	0x3cfdfd40	0.031004548
142	0xbd2347b6	-0.03986331
143	0x3b6c2ee1	0.0036038684
144	0xbcc3b429	-0.023889618
145	0xbc5578fd	-0.013029334
146	0xbd3eb315	-0.046557505
147	0x3d5f927a	0.05458305
148	0xbd77660d	-0.060400058
149	0xbd792ec2	-0.060835607
150	0x3d2be3b7	0.041965213
151	0xbc5de00d	-0.013542187
152	0xbc15749a	-0.009122038
153	0xbae2b481	-0.0017296226
154	0xbd77d1e6	-0.06050291
155	0xbd485d58	-0.048917145
156	0x3daa5bb6	0.08318274
157	0xbdda9935	-0.10673753
158	0x3b825e99	0.003978562
159	0xbd891cd3	-0.06694951
160	0x3d52d73e	0.051474802
161	0x3cf8d93c	0.030377023
162	0x3d2cfa19	0.0422307
163	0x3dc0d92b	0.094164215
164	0xbd096a53	-0.033548664
165	0x3d8186f9	0.06324572
166	0x3d77835d	0.060428012
167	0xbce5c8dc	-0.028049879
168	0xbd916d2f	-0.07100903
169	0x3d2cbe1a	0.042173482
170	0x3c840e65	0.016120145
171	0x3d4f3a77	0.050592866
172	0x3c544154	0.012955029
173	0xbd76c0e7	-0.06024256
174	0xbb7bafcc	-0.0038404344
175	0x3c5810b9	0.013187581
176	0xbd396310	-0.04526049
177	0xbdde9be7	-0.1086958
178	0x3d0250ba	0.031815268
179	0x3d2dfb12	0.042475767
180	0x3db2c23f	0.08728456
181	0x3d323c93	0.0435148
182	0x3d42144a	0.04738263
183	0x3c30013a	0.01074248
184	0x3d31959c	0.04335557
185	0xbd16404c	-0.036682412
186	0x3c0dc9eb	0.008654098
187	0x3b2ef85b	0.0026698324
188	0x3d9cbe08	0.07653433
189	0xbd4da194	-0.05020292
190	0x3c85dd5b	0.016340902
191	0xbceff9e9	-0.029293971
192	0x3e253864	0.16134793
193	0xbd643474	-0.055714086
194	0xbd0e31be	-0.034715407
195	0xbb94c93d	-0.004540591
196	0x3d786cd4	0.06065066
197	0x3c8492f1	0.016183348
198	0x3c4a2609	0.01233817
199	0xbd9c6ab0	-0.076375365
200	0xbd6a88a1	-0.057259206
201	0x3b790acc	0.003800082
202	0xbd6dd76b	-0.058066767
203	0x3cba44b1	0.022737833
204	0x3cfc7d7b	0.030821553
205	0xbe382b62	-0.17985299
206	0xbb87788d	-0.004134244
207	0x3dc0d87d	0.09416292
208	0x3dd73843	0.10508778
209	0xbcb5b6c8	-0.022181883
210	0x3da63846	0.08116202
211	0x3cc9d060	0.024635494
212	0x3d9d10df	0.076692335
213	0x3d88d31e	0.066808924
214	0xbdd45d95	-0.10369412
215	0x3c6351c1	0.013874472
216	0x3d036f95	0.032088835
217	0x3d8067ad	0.062697746
218	0xbdca7eb8	-0.09887451
219	0x3d9c8666	0.07642822
220	0x3bd58d22	0.0065170685
221	0x3c09f666	0.008420562
222	0xbd151136	-0.036393367
223	0x3b1faa06	0.0024362816
224	0xbd7242eb	-0.05914585
225	0xbdc1b7d3	-0.0945889
226	0x3d39f5a3	0.045400273
227	0xbe0c1611	-0.13680293
228	0x3d4bbd2f	0.049740966
229	0xbbcc245c	-0.0062299203
230	0x3e05551b	0.13020746
231	0x3d7f226c	0.062288687
232	0xbc539ceb	-0.01291583
233	0x3e11fb22	0.14255956
234	0x3e32efcb	0.17474286
235	0x3ce8e7ac	0.028430782
236	0x3c3c4611	0.0114913145
237	0xbdcce0ce	-0.100038156
238	0x3d06cdf0	0.03291124
239	0x3c6f9546	0.014622992
240	0xbd768210	-0.06018263
241	0xbcf37fe8	-0.029724076
242	0x3ccea922	0.025227133
243	0xbe1d9cf1	-0.153919
244	0xbd892fcd	-0.066985704
245	0xbd3ddfd0	-0.046356022
246	0x3d3df9bf	0.046380755
247	0x3d613694	0.05498369
248	0x3cff8091	0.031189235
249	0x3d3f9e30	0.04678172
250	0xbd279f4d	-0.040923405
251	0xbd6c3aca	-0.057673253
252	0x3dc7dff7	0.09759515
253	0xbe07f5a4	-0.13277298
254	0x3dc8f63b	0.0981259
255	0x3e1fe127	0.15613233
